rl-cartpole/saved_models/nogood/cartpole_03.pt (torch, 272683 bytes, 6 tensors)

fc1.weight f4 [256, 4]
0	0x3e876344	0.2644292
1	0xbdffe3e8	-0.124946415
2	0xbed98e80	-0.4249153
3	0x3cfc2ae0	0.030782163
4	0x3eee9b22	0.46602732
5	0xbe645dbc	-0.22301382
6	0xbe26adfc	-0.16277307
7	0x3ec832c8	0.39101243
8	0xbd8e7c28	-0.06957275
9	0xbe438cc4	-0.19096667
10	0xbdce3fe0	-0.10070777
11	0x3c95fde0	0.018309534
12	0xbed08e3a	-0.4073351
13	0xbe1252b8	-0.14289367
14	0x3ef83b16	0.4848258
15	0xbddb8428	-0.10718566
16	0x3ee92bc6	0.4554121
17	0xbe47e234	-0.19519883
18	0xbe4df1c4	-0.20111758
19	0xbe189c64	-0.14903408
20	0xbee4e56e	-0.4470629
21	0xbe9a31dc	-0.30116165
22	0x3e9ab6ee	0.3021769
23	0xbec00cf2	-0.37509876
24	0x3e2ee664	0.17080075
25	0x3ef0dd46	0.47043818
26	0xbd822098	-0.06353873
27	0x3e5ffb7c	0.21873277
28	0x3e6f2870	0.2335527
29	0xbeb6bd00	-0.3569107
30	0xbe456c08	-0.19279492
31	0xbe2057d0	-0.15658498
32	0x3ef707be	0.48248094
33	0xbee47dbe	-0.44627184
34	0x3e9af502	0.3026505
35	0x3ef07078	0.46960807
36	0x3eca686e	0.395328
37	0x3e5a3518	0.21309316
38	0x3e63ed84	0.22258574
39	0xbcda65e0	-0.026659906
40	0x3e80cd0c	0.25156438
41	0x3ee95a5c	0.4557675
42	0xbe24a2fc	-0.16077799
43	0x3ef75aec	0.48311555
44	0x3da2bd78	0.079462945
45	0xbeb38e4e	-0.35069507
46	0xbeb7bb6c	-0.3588518
47	0x3e34968c	0.17635554
48	0xbd907a00	-0.0705452
49	0xbe618c18	-0.22026098
50	0x3e81a236	0.2531907
51	0xbe87083e	-0.26373476
52	0xbe74b77c	-0.23898119
53	0x3dbf6818	0.09346026
54	0xbdb8e3e0	-0.09027839
55	0xbed8017e	-0.42188638
56	0xbe19cfd8	-0.15020692
57	0xbe33f008	-0.17572033
58	0xbe5a335c	-0.21308655
59	0x3ec74a70	0.3892398
60	0xbd9b5298	-0.07584113
61	0xbe9c59f2	-0.30537373
62	0x3e17b214	0.14814025
63	0x3db06de0	0.08614707
64	0xbec2605a	-0.37964135
65	0xbef526ac	-0.47881067
66	0x3ec1b0f0	0.37830305
67	0xbeed162e	-0.46305984
68	0x3efe1b00	0.49629974
69	0x3e8ef0dc	0.27918136
70	0x3ed5a636	0.4172837
71	0xbedecad6	-0.43514127
72	0x3e3c5b08	0.183941
73	0xbef87f2a	-0.48534518
74	0x3e11ca90	0.14237428
75	0x3e695ed8	0.22790086
76	0x3d95f968	0.07322961
77	0xbe374680	-0.17897987
78	0xbe3df820	-0.18551683
79	0xbd292aa0	-0.041300416
80	0x3eef9244	0.4679128
81	0x3e92f896	0.2870528
82	0x3eae16bc	0.3400172
83	0xbe3afaac	-0.18259686
84	0x3df06d38	0.11739582
85	0xbe9dfc78	-0.3085668
86	0xbd823a08	-0.06358725
87	0xbe7dbaf4	-0.24778348
88	0x3e5575ac	0.2084567
89	0x3e83418e	0.25635952
90	0x3d7e2080	0.062042713
91	0x3ecb4186	0.39698428
92	0xbefe4e74	-0.4966923
93	0x3e5e0da4	0.21684891
94	0x3e8a662e	0.27031082
95	0x3ee8aaee	0.4544291
96	0x3dddf150	0.10837042
97	0xbeea2d6c	-0.4573778
98	0x3eabb5d2	0.33537155
99	0xbcd936a0	-0.026515305
100	0x3e2a0f40	0.1660738
101	0xbead23ca	-0.33816367
102	0x3c931d40	0.017958283
103	0x3ef53d82	0.4789849
104	0x3e24c618	0.16091192
105	0x3ecf4640	0.40483284
106	0x3dc54ad0	0.0963341
107	0x3ed4c7e0	0.41558743
108	0xbedca13c	-0.43091762
109	0x3e53c980	0.20682335
110	0x3eeec0d4	0.4663149
111	0x3e6e4060	0.23266745
112	0x3e987dac	0.2978338
113	0x3eb32e58	0.34996295
114	0x3edbe796	0.42950124
115	0xbeb28c84	-0.3487283
116	0x3db472f8	0.08810991
117	0xbebabee8	-0.36473775
118	0x3e97232a	0.29519016
119	0x3e2e56a8	0.17025244
120	0xbeba6668	-0.36406255
121	0xbd317dd0	-0.043332875
122	0xbea67fb8	-0.32519317
123	0x3d9a13a8	0.075232804
124	0xbe9522b4	-0.2912804
125	0x3e4892d0	0.19587255
126	0xbee74098	-0.4516647
127	0x3e1540ac	0.14575452
128	0x3ed6b864	0.41937554
129	0x3ea1b3e4	0.31582558
130	0x3ed62f5a	0.41833
131	0xbca8e3a0	-0.020616353
132	0xbeb8d6c0	-0.3610134
133	0x3d8304b8	0.063973844
134	0xbe430f68	-0.19048846
135	0xbea33148	-0.31873536
136	0x3e9bc156	0.3042094
137	0x3d7af500	0.061268806
138	0x3e81a71a	0.253228
139	0x3ef69184	0.48157895
140	0x3d9fd2c8	0.07803875
141	0xbeeebeb0	-0.46629858
142	0x3e105494	0.14094764
143	0x3e73bea8	0.23803198
144	0x3c5b3c00	0.013381004
145	0xbeda89e8	-0.4268334
146	0x3ef3762a	0.4755109
147	0xbeefbd18	-0.46823955
148	0x3eb1e728	0.3474667
149	0xbcbaae20	-0.022788107
150	0x3eb9bf2c	0.36278665
151	0xbed8e616	-0.42363042
152	0x3effe238	0.4997728
153	0x3e2c538c	0.16828746
154	0x3ee2c228	0.44288754
155	0x3e9b8e52	0.3038202
156	0x3ec0a810	0.37628222
157	0x3e22fff4	0.15917951
158	0xbe16cb14	-0.14725906
159	0x3eec784e	0.46185535
160	0x3ec276e8	0.37981343
161	0xbea383ee	-0.31936592
162	0xba993e00	-0.0011691451
163	0xbe19a02c	-0.15002507
164	0xbef510d8	-0.47864413
165	0x3c5db500	0.013531923
166	0xbe97843c	-0.29593074
167	0xbde65830	-0.11247289
168	0xbe03d794	-0.12875205
169	0x3ed849a2	0.42243677
170	0x3e465418	0.19368017
171	0xbee594ec	-0.4484018
172	0x3e91ce72	0.28477818
173	0x3ea706f0	0.3262248
174	0x3e487dd8	0.19579256
175	0x3e4fb204	0.20282751
176	0x3e481bc8	0.19541848
177	0x3c5b7b40	0.013396084
178	0xbee9db98	-0.4567535
179	0xbe7c2cc4	-0.24626452
180	0x3ea3c886	0.31988925
181	0x3e27fc20	0.16404772
182	0x3eca61ca	0.39527732
183	0x3df5cf88	0.12002474
184	0x3ef65b7a	0.48116666
185	0xbe6ae28c	-0.22937983
186	0xbe735bbc	-0.23765463
187	0x3e35a0e8	0.17737162
188	0xbe8024d8	-0.2502811
189	0x3e4d4988	0.20047581
190	0x3d5e51e0	0.0542773
191	0xbe49d880	-0.19711494
192	0x3df35fa0	0.118834734
193	0x3ef111fa	0.47084028
194	0x3e89c0a6	0.26904792
195	0xbef1dc30	-0.47238302
196	0x3e5323d8	0.20619142
197	0x3e982884	0.2971841
198	0x3eb1e18c	0.3474239
199	0xbdf73100	-0.12069893
200	0x3ecfaea2	0.40562922
201	0x3ecb3662	0.39689928
202	0xbbd2b080	-0.006429732
203	0xbdb67610	-0.089092374
204	0x3ec933b0	0.39297247
205	0x3d6e6530	0.05820197
206	0x3e5a8ad4	0.21342021
207	0x3d4ad7b0	0.049522102
208	0x3e784f94	0.24249107
209	0xbe0f2e80	-0.13982582
210	0xbe9da5b4	-0.30790484
211	0x3ed67b38	0.41890883
212	0x3e6b2a70	0.22965407
213	0x3e02cfbc	0.12774557
214	0x3e4dac08	0.20085156
215	0xbe55aeac	-0.20867413
216	0x3e6bede8	0.23039973
217	0x3eee207c	0.4650916
218	0x3ec5e0f6	0.38648194
219	0x3d7256e0	0.05916488
220	0x3e48667c	0.19570345
221	0x3ee8f120	0.45496464
222	0xbda74fc8	-0.08169514
223	0xbeb491e0	-0.35267544
224	0x3eec528e	0.46156734
225	0x3e176528	0.14784682
226	0xbe32dffc	-0.17468256
227	0x3e073c50	0.13206601
228	0xbe68b614	-0.22725707
229	0xbe5d91a8	-0.21637595
230	0x3ea96bac	0.3308996
231	0x3ebdc5fe	0.3706512
232	0xbee93710	-0.45549822
233	0xbe183e40	-0.14867496
234	0x3ec54bac	0.38534296
235	0xbd357da0	-0.04430926
236	0xbee61ea6	-0.44945258
237	0x3ea945ec	0.3306116
238	0xbedb76a2	-0.42863947
239	0xbe1aff20	-0.15136385
240	0x3e37b0d4	0.17938548
241	0xbee461f0	-0.4460597
242	0xbe1afeec	-0.15136307
243	0x3de96720	0.11396623
244	0xbe867406	-0.26260394
245	0xbde47108	-0.111543715
246	0x3e0522f8	0.13001621
247	0x3e2c5614	0.16829711
248	0xbe8f007a	-0.2793005
249	0x3edaf5ec	0.42765749
250	0xbec7bf36	-0.3901307
251	0xbdd10048	-0.10205132
252	0xbeb02124	-0.34400284
253	0xbe58c73c	-0.21169752
254	0xbdbc8e40	-0.092068195
255	0x3e1b7e7c	0.15184969

fc1.bias f4 [256]
0	0xbead8020	-0.33886814
1	0xbd975988	-0.073901236
2	0xbedbc51e	-0.42923826
3	0xbeec7b3c	-0.4618777
4	0xbc48c1c0	-0.012253225
5	0xbe45aa78	-0.1930331
6	0xbe3cda98	-0.18442762
7	0xbd667530	-0.056264102
8	0xbcd5b100	-0.026085377
9	0x3e5f8c88	0.21830952
10	0xbea5e1de	-0.32398885
11	0xbeae3dc0	-0.34031487
12	0x3e92a546	0.2864172
13	0x3ed3f396	0.4139678
14	0x3e7323ac	0.23744076
15	0xbcfa4600	-0.030550957
16	0x3e2558cc	0.16147155
17	0x3da815f8	0.08207315
18	0x3df906a8	0.12159473
19	0x3d94f9f0	0.07274234
20	0xbe9087fc	-0.28228748
21	0x3ec3c29e	0.3823442
22	0x3ed2cd80	0.4117241
23	0x3ef2e13c	0.47437465
24	0x3ee0d17e	0.4390983
25	0xbe4be864	-0.19912869
26	0x3e3a5514	0.18196517
27	0xbdf10000	-0.11767578
28	0x3e70f690	0.23531556
29	0xbea81b4a	-0.3283332
30	0xbe81b938	-0.25336623
31	0xbeda0a58	-0.42586017
32	0xbeead4c6	-0.45865458
33	0x3e13f350	0.14448285
34	0xbecfb110	-0.40564775
35	0x3ead2114	0.338143
36	0xbd115b10	-0.035487235
37	0xbeb3f38e	-0.35146755
38	0x3eb68580	0.35648727
39	0xbe6365e4	-0.22206837
40	0x3c9e4840	0.01932156
41	0xbe776264	-0.24158627
42	0x3e635824	0.22201592
43	0x3eb02e80	0.34410477
44	0x3dce6d58	0.100794494
45	0x3ece016e	0.40235466
46	0x3d0919f0	0.033472
47	0x3ee01f20	0.43773746
48	0xbe3a41c8	-0.18189156
49	0xbee8cf1c	-0.45470512
50	0x3e8d9256	0.27650708
51	0x3e05cbb4	0.13065988
52	0x3ebe65b0	0.37186956
53	0xbe200d9c	-0.15630192
54	0x3edc2902	0.43000036
55	0x3ee837d8	0.45355105
56	0x3eaf869a	0.3428238
57	0x3e6fa2cc	0.23401946
58	0x3e87a400	0.2649231
59	0x3ea73ffa	0.32665998
60	0xbe373a3c	-0.17893308
61	0xbd9a3060	-0.07528758
62	0x3ecbccfe	0.39804834
63	0xb99e9800	-0.00030249357
64	0xbe359d98	-0.17735898
65	0x3e938736	0.28814095
66	0xbdff0280	-0.12451649
67	0x3b17cd00	0.002316296
68	0xbd566800	-0.052345276
69	0x3e1f8aa0	0.15580225
70	0x3d507380	0.0508914
71	0xbdd2a048	-0.102844775
72	0x3ca78660	0.020449817
73	0x3eacd97e	0.33759683
74	0x3ed8a116	0.423104
75	0xbc8b2000	-0.016983032
76	0xbee962f0	-0.45583296
77	0xbd625810	-0.055259764
78	0xbdfbb520	-0.12290406
79	0xbe21eba0	-0.1581254
80	0x3eb3f440	0.35147285
81	0x3cae2c20	0.021261275
82	0x3eef3ede	0.4672765
83	0x3e085338	0.13312995
84	0x3df6b2c8	0.120458186
85	0xbeeb809e	-0.45996565
86	0xbd8b7ea0	-0.06811261
87	0x3ee18cc4	0.44052708
88	0xbea9f0e6	-0.33191603
89	0x3e5ad554	0.2137044
90	0xbeb8b266	-0.36073607
91	0x3e6c9160	0.23102331
92	0xbeadad5e	-0.3392133
93	0x3ecc7362	0.3993178
94	0x3e8b1b26	0.2716915
95	0x3ebd1390	0.36928988
96	0xbeb8a1e8	-0.36061025
97	0x3edfdb2a	0.43721896
98	0xbee0833e	-0.4385013
99	0x3e5163a4	0.20448166
100	0x3eca3940	0.39496803
101	0xbe1c6d18	-0.15275991
102	0x3eb75472	0.35806614
103	0xbe63d30c	-0.22248477
104	0xbe88ab02	-0.2669297
105	0x3e2b647c	0.1673755
106	0x3c7e9040	0.015537322
107	0xbe97fa84	-0.29683316
108	0x3e7d0dfc	0.24712366
109	0x3db83560	0.089945555
110	0x3ecd3552	0.40079743
111	0x3ed8d91a	0.42353135
112	0x3e49f118	0.19720876
113	0x3e264c20	0.16239977
114	0x3ea2e0f4	0.3181225
115	0x3e2aaad4	0.16666728
116	0xbecca4ac	-0.39969385
117	0xbe9cc6ba	-0.30620366
118	0xbc901bc0	-0.017591357
119	0x3edc185a	0.4298733
120	0xbe11917c	-0.14215654
121	0x3ee38296	0.44435567
122	0x3e8b718c	0.27235067
123	0x3e2e82ec	0.1704213
124	0xbea3b7be	-0.31976122
125	0xbec500ec	-0.38477266
126	0xbee54bee	-0.44784492
127	0x3e87f08e	0.26550716
128	0xbba2ce00	-0.004968405
129	0x3edf856a	0.43656474
130	0xbda26148	-0.07928711
131	0xbdce9730	-0.100874305
132	0x3eeefe26	0.46678275
133	0xbe54af94	-0.20770103
134	0x3e97251c	0.295205
135	0x3eb306c6	0.34966105
136	0x3e949016	0.2901618
137	0x3ef43f16	0.4770438
138	0x3e35aab4	0.177409
139	0x3eb79c68	0.35861516
140	0xbeca7d32	-0.3954864
141	0xbe2d25b0	-0.16908908
142	0xbe6c2264	-0.23059994
143	0x3e57f214	0.21088439
144	0xbe3ac984	-0.18240935
145	0xbef63bc6	-0.4809248
146	0x3e5e9e90	0.21740174
147	0x3ed5a170	0.4172473
148	0x3e84c7a6	0.2593357
149	0x3e1296a4	0.14315277
150	0x3e790db0	0.24321628
151	0xbe8f7aec	-0.2802347
152	0x3e38a444	0.18031412
153	0x3dece820	0.11567712
154	0xbec9fe8a	-0.3945201
155	0xbde90ce8	-0.11379415
156	0xbcd91e20	-0.026503623
157	0xbd897848	-0.06712395
158	0x3e4969fc	0.19669336
159	0xbd06cea0	-0.032911897
160	0xbca68d20	-0.020330966
161	0xbe5da674	-0.21645528
162	0x3db0a830	0.08625829
163	0xbe5378ec	-0.20651597
164	0xbe6d58ec	-0.23178452
165	0x3ecf6d2e	0.40512985
166	0x3ef5444e	0.47903675
167	0xbd12d2b0	-0.03584546
168	0x3e330794	0.1748336
169	0x3ea1a270	0.31569242
170	0xbd47ba00	-0.048761368
171	0x3db50270	0.088383555
172	0xbe8060fe	-0.25074
173	0x3e822b92	0.25423867
174	0x3e448fa4	0.1919542
175	0x3e8258be	0.2545833
176	0xbe1d1da8	-0.15343344
177	0x3d82c608	0.06385428
178	0x3db915d0	0.090373635
179	0xbe893ee0	-0.26805782
180	0x3d757820	0.059929013
181	0xbe9280d0	-0.286139
182	0x3e9d45e2	0.3071738
183	0x3e2ae200	0.16687775
184	0x3d1d4640	0.038397074
185	0xbd2f2340	-0.042758226
186	0xbe5cfeac	-0.21581525
187	0xbefd3e2e	-0.49461502
188	0x3e036304	0.1283074
189	0xbecc55dc	-0.39909256
190	0x3aa34400	0.0012456179
191	0x3d2fb220	0.042894483
192	0x3e9a3812	0.30120903
193	0x3e5184a4	0.20460755
194	0x3ed26478	0.41092277
195	0xbe9bfbf8	-0.30465674
196	0x3ef24af4	0.4732281
197	0x3e2bb104	0.16766745
198	0xbdb9d500	-0.0907383
199	0x3e65775c	0.22408813
200	0xbeb69d7e	-0.35667032
201	0x3ef78cd6	0.48349637
202	0x3c9c9340	0.019113183
203	0xbd824140	-0.06360102
204	0xbd3c68c0	-0.045998335
205	0xbd65ed70	-0.05613464
206	0x3de543e8	0.11194593
207	0xbee267ac	-0.4421972
208	0x3def6640	0.116894245
209	0x3d4f68a0	0.050636888
210	0x3ee4a3f2	0.4465633
211	0xbe4792f0	-0.19489646
212	0x3ef30a12	0.4746862
213	0x3ed45b10	0.41475725
214	0x3d56f620	0.052480817
215	0x3ee2219a	0.4416626
216	0x3ecd9c0e	0.40158123
217	0x3e692c14	0.2277072
218	0x3e8e2b08	0.27767205
219	0x3ea7a17c	0.3274039
220	0x3e544e9c	0.20733112
221	0x3ed444cc	0.41458738
222	0xbe19b418	-0.15010107
223	0x3edcff04	0.4316331
224	0xbe8025de	-0.2502889
225	0x3df7dff0	0.121032596
226	0xbda5c370	-0.08093917
227	0xbeae4f68	-0.34044957
228	0x3ea76710	0.32695818
229	0x3e399b68	0.18125689
230	0x3bd6d000	0.0065555573
231	0x3e76a4b8	0.24086273
232	0x3ee0da8c	0.43916738
233	0xbd783bb0	-0.060603797
234	0xbed36426	-0.41287345
235	0x3ee0be66	0.43895262
236	0xbea8a1d4	-0.32935965
237	0xbee186e4	-0.44048226
238	0x3eb12e22	0.3460551
239	0x3d9500d0	0.072755456
240	0x3d9882a0	0.0744679
241	0x3e80efb0	0.25182867
242	0xbe156510	-0.14589334
243	0xbed24314	-0.41066802
244	0x3e030d98	0.12798154
245	0x3edb9fec	0.42895448
246	0x3ef41796	0.47674245
247	0xbe7aba34	-0.24485093
248	0xbd668a90	-0.056284487
249	0x3d722990	0.05912167
250	0x3e76b8d0	0.24093938
251	0xbe16dd48	-0.1473285
252	0x3e91712e	0.28406662
253	0x3d3c3800	0.045951843
254	0xbef37e7a	-0.4755743
255	0x3ecc1f5e	0.3986768

fc2.weight f4 [256, 256]
0	0x3cd6f24c	0.026238583
1	0xbcdb15bc	-0.026743762
2	0x3d557e66	0.052122496
3	0xbbabe5d0	-0.0052459016
4	0x3c841828	0.0161248
5	0xbc48abc0	-0.01224798
6	0x3d4b98a4	0.049706116
7	0xbcaf8164	-0.021424003
8	0x3d2af5de	0.041738383
9	0x3b0f2340	0.002184108
10	0x3d6871b8	0.056749076
11	0x3d3d4376	0.046206914
12	0xbd0c42be	-0.034243338
13	0xb8e62800	-0.00010974705
14	0xbca76210	-0.020432502
15	0x3c9644fc	0.018343441
16	0x3d7c82e2	0.061648257
17	0xbd387c24	-0.045040265
18	0x3c957424	0.018243857
19	0x3d38a6a0	0.04508078
20	0x3d24b57e	0.040212147
21	0x3d761fa0	0.060088754
22	0xbd4bd2a8	-0.049761444
23	0xbd64ae9c	-0.055830583
24	0x3d7416b2	0.059591956
25	0xbc53a538	-0.012917809
26	0x3c4cf1c8	0.012508817
27	0x3d464b0c	0.048411414
28	0xbcb59d1c	-0.022169642
29	0x3c52a808	0.012857445
30	0xbb8265d0	-0.003979422
31	0x3d261ba4	0.040553704
32	0x3c783e80	0.01515162
33	0x3d511328	0.05104366
34	0xbc88e8a4	-0.016712494
35	0x3c9e0020	0.019287169
36	0x3d695b50	0.056971848
37	0xbd3804d2	-0.044926472
38	0xbd2a99ba	-0.04165051
39	0x3ce80d00	0.028326511
40	0xbd211ed2	-0.039336033
41	0xbd2ccb2c	-0.042185947
42	0xbd73db1e	-0.05953514
43	0x3d0cf642	0.034414537
44	0x3d2ae040	0.041717768
45	0x3d16f59c	0.036855325
46	0xbd40b5de	-0.047048442
47	0xbd346270	-0.04403919
48	0xbc80f448	-0.015741482
49	0x3d6ee176	0.058320485
50	0xbd261b46	-0.040553354
51	0x3cee5de4	0.029097505
52	0xbd52b7d0	-0.05144483
53	0xbd3dc9f2	-0.04633517
54	0x3b034ee0	0.0020036027
55	0xbd0a362a	-0.03374306
56	0x3d026786	0.03183701
57	0xbd156444	-0.036472574
58	0x3b638e80	0.0034722388
59	0xbd53a142	-0.05166746
60	0xbd10e04a	-0.03537015
61	0x3d78660c	0.060644194
62	0xbd4e08e4	-0.050301448
63	0x3d270476	0.04077574
64	0xba911b00	-0.0011070669
65	0xbd3ec336	-0.046572886
66	0x3bb8c1a0	0.0056383163
67	0xbd70e47a	-0.058811642
68	0x3d0918a8	0.03347078
69	0x3d3030d0	0.0430153
70	0x3d49d780	0.049277782
71	0xbd7b58ee	-0.061364107
72	0x3c71c4a0	0.014756352
73	0x3c68d750	0.014211491
74	0xbd68d76a	-0.05684606
75	0xbcd166b0	-0.02556166
76	0xbcc42938	-0.023945436
77	0x3ccbf4ec	0.024897061
78	0x3c157e58	0.009124361
79	0x3c80e4b4	0.015734054
80	0xbc358c08	-0.011080749
81	0xbba69bd0	-0.0050844923
82	0x3cd66050	0.026168972
83	0xbbf059c0	-0.007334918
84	0x3d194d06	0.03742697
85	0xbd2b2d4c	-0.041791245
86	0xbd7ace5c	-0.061231956
87	0xbc047448	-0.008084364
88	0xbc037a60	-0.008024782
89	0xbbaffd90	-0.005370803
90	0x3d45c1a6	0.04828038
91	0xbca4d09c	-0.020119004
92	0xbd5808d8	-0.05274281
93	0xbd308c1a	-0.04310236
94	0x3c1d06d8	0.009584151
95	0xbd17fde0	-0.03710735
96	0x3c9a5234	0.018838026
97	0xbc2aaba8	-0.010416903
98	0x3d77d5c4	0.060506597
99	0xbcc4a6f4	-0.02400539
100	0x3c0816a0	0.0083061755
101	0xbd739ef2	-0.059477754
102	0xbcc62a54	-0.024190105
103	0xbd7c1f74	-0.061553434
104	0x3bff8c40	0.0077987015
105	0x3d3be9f0	0.045877397
106	0xbd1e67b4	-0.038673118
107	0x3c9efde4	0.019408174
108	0xbd3d571c	-0.046225652
109	0xbc40fb18	-0.011778615
110	0x3cf86174	0.030319907
111	0x3ce09d8c	0.027418874
112	0x3d504d80	0.05085516
113	0xbd2ade56	-0.041715942
114	0x3cb3f4d4	0.02196733
115	0x3d134300	0.035952568
116	0x3d6638de	0.056206577
117	0xbd7fc856	-0.062446915
118	0x3c79d7d0	0.015249208
119	0xbd51dd5a	-0.051236488
120	0xbcc046a0	-0.023471177
121	0xbd1bf720	-0.038077474
122	0x3ccee884	0.025257356
123	0xbd750e64	-0.059828177
124	0x3d3c6798	0.045997232
125	0xbb9f3160	-0.004858181
126	0x3ca0699c	0.019581608
127	0x3d12f14c	0.03587465
128	0x3c984b04	0.018590458
129	0x3d515528	0.051106602
130	0xbc64aa98	-0.013956688
131	0x3ce2ec1c	0.027700476
132	0xbb4346a0	-0.0029796734
133	0xbca22ec8	-0.019797698
134	0xbd6fb188	-0.058518916
135	0xbcbb34b4	-0.02285228
136	0xbd0aab3a	-0.0338547
137	0x3cd44b58	0.025914833
138	0x3d3fc4a2	0.046818383
139	0x3ae1c540	0.0017224923
140	0x3d476a68	0.04868546
141	0xbc83bb10	-0.01608041
142	0x3b5700e0	0.0032806918
143	0x3d1a709c	0.03770505
144	0xbd5d8b8a	-0.054088153
145	0x3c1c3470	0.009533986
146	0x3d2dc14e	0.042420678
147	0x3d5cca8c	0.0539041
148	0xbd2b8444	-0.041874185
149	0xbc2b88d0	-0.01046963
150	0x3d083754	0.03325589
151	0xbbdae140	-0.006679684
152	0x3d1a4d4a	0.037671365
153	0xbb494f20	-0.0030717328
154	0xbb9af320	-0.00472869
155	0x3d0fb3fe	0.035083763
156	0xbc5acf48	-0.013355084
157	0xbd694fb4	-0.056960776
158	0xbd23a9b8	-0.03995678
159	0xbcf865cc	-0.030321978
160	0x3d236b9e	0.039897554
161	0xbd59f1ca	-0.053209104
162	0x3d668f8c	0.05628924
163	0xbd635c6e	-0.05550807
164	0x3aa1f1c0	0.0012355372
165	0x3d0c45de	0.034246318
166	0xbca08c68	-0.0195982
167	0x3cb91fa0	0.022598088
168	0xbc926000	-0.017868042
169	0xbc032160	-0.008003563
170	0xbd61d094	-0.055130556
171	0xb985fa00	-0.00025554
172	0x3b646c00	0.0034854412
173	0xbd3a25a6	-0.04544606
174	0x3cf2177c	0.029552214
175	0x3d477b22	0.048701413
176	0xbd4ba432	-0.049717136
177	0x3d5574ee	0.052113466
178	0x3bf2f940	0.007414967
179	0x3d08a8ee	0.03336423
180	0xbb8c9de0	-0.004291281
181	0xbcebef30	-0.028800577
182	0x3bee12a0	0.007265404
183	0xbd7248a6	-0.059151314
184	0x3d64c2d0	0.05584985
185	0x3d6e0aea	0.058115877
186	0xbd078f38	-0.03309557
187	0xbc080c80	-0.0083037615
188	0x3cab8954	0.020939507
189	0x3c9ed260	0.019387424
190	0xbbbb1d20	-0.005710259
191	0xbd6e4d1c	-0.058179006
192	0x3d36a3a6	0.04458966
193	0xbd6dfada	-0.05810056
194	0x3be82020	0.0070839077
195	0x3b52b720	0.0032152608
196	0x3d158602	0.036504753
197	0x3c359a40	0.011084139
198	0xbd2bd3ec	-0.04195015
199	0xbd712850	-0.058876336
200	0x3d054b74	0.03254266
201	0xbd055396	-0.032550417
202	0x3c0334a0	0.008008152
203	0xbd3a770e	-0.045523696
204	0x3d6d06fa	0.05786798
205	0xbd24acf6	-0.04020401
206	0x3d5c9f3c	0.053862795
207	0xbd06ac3c	-0.0328791
208	0x3d50a3c8	0.050937444
209	0xb85a5800	-5.2057207e-05
210	0xbd7327c8	-0.05936411
211	0x3d2bd1d0	0.04194814
212	0x3d13b4f4	0.036061242
213	0x3d0b94ba	0.034077384
214	0xbd790a64	-0.060800925
215	0xbcf1ae70	-0.029502124
216	0x3cd276b8	0.025691375
217	0xbaf2c080	-0.0018520504
218	0xbd4c2820	-0.049842954
219	0xbca091a4	-0.019600697
220	0xbc8d68bc	-0.017261855
221	0x3bf5f3e0	0.007505879
222	0xbd1830d4	-0.03715594
223	0xbbe3e880	-0.0069552064
224	0x3c1d6820	0.009607345
225	0x3d361182	0.04445029
226	0xbd73d570	-0.05952972
227	0xbd4821a0	-0.048860192
228	0x3ce4aba8	0.027913883
229	0xbd061680	-0.0327363
230	0x3c8a9cac	0.01692041
231	0x3d1c15a0	0.03810656
232	0x3d61a640	0.05509019
233	0xbc9e666c	-0.019335948
234	0xbb00afe0	-0.001963608
235	0xbd7a2fdc	-0.0610808
236	0xbc96abac	-0.018392406
237	0x3d4c9462	0.049946196
238	0xbd16c768	-0.036811262
239	0xbd3bf12c	-0.045884296
240	0x3cfcc324	0.030854769
241	0xbd300f90	-0.04298359
242	0xbd4c98fe	-0.049950592
243	0xbcb94c3c	-0.02261936
244	0xb8b15400	-8.455664e-05
245	0xbd5a5b24	-0.053309575
246	0x3c0667b0	0.008203432
247	0x3d507102	0.050889023
248	0xbd2a6c8a	-0.041607417
249	0x3d563d32	0.052304454
250	0xbcbcea70	-0.023061007
251	0xbcbc7cbc	-0.023008697
252	0xbd23de3c	-0.04000686
253	0xbc5a70e0	-0.013332576
254	0xba9a16c0	-0.0011756048
255	0x3d647a1c	0.055780515

fc2.bias f4 [256]
0	0x3d79ef56	0.061019264
1	0x3d24ce5a	0.040235855
2	0xbd6caf4c	-0.057784364
3	0x3cf10f1c	0.02942615
4	0xbcd43820	-0.025905669
5	0x3d431e9e	0.04763662
6	0x3d0ea15a	0.034821846
7	0x3cad98d8	0.021191046
8	0xbd684612	-0.05670745
9	0xbd633cea	-0.055478014
10	0x3cd2735c	0.025689773
11	0x3d4cc6ae	0.049994163
12	0x3c90ada0	0.017660916
13	0x3cc5a590	0.024126798
14	0x3d1e180a	0.038597144
15	0x3cbe3e74	0.02322314
16	0xbd27a3ea	-0.040927805
17	0xbd241370	-0.0400576
18	0xbd10b1ce	-0.035325818
19	0x3d16263c	0.036657557
20	0xbd6e1416	-0.058124624
21	0x3d6612e6	0.056170367
22	0x3d071992	0.03298337
23	0x3ce08478	0.027406916
24	0x3d6b58b8	0.057457656
25	0x3cb8fcfc	0.02258157
26	0x3d26b5f4	0.040700868
27	0xbcf1c710	-0.029513866
28	0x3c955328	0.018228129
29	0x3ccca7b0	0.024982303
30	0xbbec3810	-0.0072088316
31	0x3d76817c	0.06018208
32	0xbc3e79f0	-0.011625752
33	0xbcbcc1b8	-0.023041591
34	0xbd6d9b44	-0.0580094
35	0xbd2fad66	-0.042889975
36	0xbc9e72e8	-0.019341901
37	0xbce77af4	-0.02825687
38	0xbd667822	-0.05626691
39	0xbcd18c48	-0.025579587
40	0x3c156dc0	0.009120405
41	0xbd7db87e	-0.061943524
42	0xbce66c28	-0.028127745
43	0xbcfba87c	-0.030719988
44	0xbcc9286c	-0.024555407
45	0x3d01f312	0.03172595
46	0xb8a2f400	-7.7702105e-05
47	0xbd34b260	-0.044115424
48	0x3d2a33ba	0.041553237
49	0x3d5fb2ae	0.05461376
50	0xbd1014c8	-0.03517607
51	0x3ac2f480	0.0014873892
52	0xbd09c220	-0.033632398
53	0x3b21daa0	0.002469696
54	0x3a37f000	0.0007016659
55	0xbcc7d448	-0.024393216
56	0x3c80b474	0.015711047
57	0xbd125bd0	-0.03573209
58	0xbd1bc274	-0.03802724
59	0xbcdc51f0	-0.02689454
60	0x3cab120c	0.020882629
61	0x3ce2b478	0.027673945
62	0xbd2c6fee	-0.042098932
63	0xbd1ce966	-0.038308524
64	0x3cd8d784	0.026469953
65	0xbc5af6f8	-0.013364546
66	0xbd6a5f6a	-0.0572199
67	0xbc489b98	-0.012244128
68	0x3c288d10	0.010287538
69	0xbd22b2ac	-0.039721176
70	0x3d413874	0.04717298
71	0xbd1175a4	-0.03551258
72	0x3d4c6708	0.049902946
73	0x3d6c06b0	0.057623565
74	0x3d69cfe6	0.057083033
75	0xbc89dca8	-0.01682885
76	0x3d264650	0.0405944
77	0x3b92e340	0.0044826567
78	0xbd66b974	-0.056329206
79	0xbd76ab26	-0.060221814
80	0x3bde5b70	0.0067858025
81	0xbc7d0b60	-0.015444607
82	0xbb59b380	-0.0033218563
83	0x3cc9c338	0.02462922
84	0xbd7ae6fc	-0.06125544
85	0xbd0791e0	-0.0330981
86	0x3d667e48	0.056272775
87	0xbd46f736	-0.048575602
88	0x3bf3b520	0.0074373633
89	0x3c014d48	0.00789196
90	0xbccad18c	-0.024758123
91	0x3d7ec19a	0.06219635
92	0x3d358d5e	0.04432427
93	0xbd1a1156	-0.03761419
94	0xbd72ee34	-0.0593092
95	0xbd4eb02c	-0.05046098
96	0x3cd17aa8	0.025571182
97	0xbbddd7c0	-0.006770104
98	0xbbf41bd0	-0.0074496046
99	0xbcfe5794	-0.03104762
100	0x3b5152e0	0.0031940266
101	0x3c800458	0.015627071
102	0xbcae0118	-0.021240756
103	0x3ca42a7c	0.02003979
104	0xbd4fed54	-0.050763443
105	0xbd2f0904	-0.042733207
106	0xbd363b96	-0.04449042
107	0xbb905ce0	-0.004405603
108	0x3c0084b8	0.007844143
109	0x3cb1ae80	0.021689653
110	0xbc1a8770	-0.009431705
111	0xbd3e2742	-0.046424158
112	0x3d71d656	0.059042297
113	0x3c38b188	0.0112727955
114	0x3badf870	0.005309157
115	0xbd0f5ef4	-0.035002664
116	0x3ca3df4c	0.020003937
117	0xbd52a22c	-0.05142419
118	0x3d7d5df4	0.06185718
119	0xbc732610	-0.014840618
120	0x3d4f692c	0.05063741
121	0x3d1b45a4	0.03790821
122	0xbd69c16e	-0.057069235
123	0x3d1078a8	0.035271317
124	0xbd2d79e8	-0.042352587
125	0xbd065806	-0.03279879
126	0xbd384a40	-0.044992685
127	0x3d28c5fe	0.041204445
128	0xbd09c18a	-0.03363184
129	0xbd0f069a	-0.034918405
130	0x3d433ef8	0.047667474
131	0xbcdeb268	-0.02718468
132	0x3ccecd4c	0.025244378
133	0x3d1e8512	0.038701124
134	0x3d06b5c4	0.03288819
135	0xbca620f0	-0.020279378
136	0x3cf32c50	0.029684216
137	0xbd0bc6ba	-0.034125067
138	0xbcc834f0	-0.024439305
139	0x3d1d4676	0.038397275
140	0xbd36d366	-0.0446352
141	0xbd602882	-0.05472613
142	0x3d6ee93c	0.0583279
143	0xbd0b5234	-0.034013942
144	0xbd419c4c	-0.047268197
145	0xbd65335a	-0.055957176
146	0xbcc8155c	-0.024424247
147	0x3d630648	0.055425912
148	0x3d4c890c	0.049935386
149	0xbd7d3178	-0.061814755
150	0xbc5411a0	-0.012943655
151	0x3c15d7a8	0.009145655
152	0x3d4fbe96	0.050718866
153	0xbd005032	-0.03132648
154	0xbca54738	-0.020175561
155	0x3d08bac8	0.033381253
156	0xbc0cb738	-0.008588605
157	0xbd241294	-0.04005678
158	0xbcd9eab8	-0.02660118
159	0xbd5202ae	-0.051272087
160	0x3d47d4f2	0.048787065
161	0xbbaf9ae0	-0.0053590387
162	0xbcb85358	-0.022500679
163	0xbb0ab340	-0.002116397
164	0xbca6fe0c	-0.02038481
165	0xbc547cd0	-0.012969211
166	0x3d001e7a	0.031279065
167	0x3d4a4daa	0.049390472
168	0x3ae87bc0	0.0017737076
169	0x3c3bc3c8	0.011460252
170	0x3c8f7f80	0.017516851
171	0x3ca86dcc	0.020560168
172	0x3d293d12	0.041318007
173	0x3cb461dc	0.02201932
174	0xbcff2268	-0.031144336
175	0x3d5bb8c6	0.05364301
176	0xbc5db950	-0.0135329515
177	0x3d40cf4c	0.047072694
178	0xbcf4ac5c	-0.029867344
179	0xbd1421a6	-0.036164902
180	0x3d7ca25a	0.061678268
181	0x3c8b1634	0.01697836
182	0xbd2b1820	-0.041771054
183	0x3c962990	0.018330365
184	0x3c9adef4	0.01890514
185	0xbc68c770	-0.014207706
186	0xbd3db882	-0.04631854
187	0xbd338dd6	-0.043836437
188	0xbc4fc498	-0.012681149
189	0xbcba0b60	-0.022710502
190	0x3d718ce0	0.05897224
191	0xbc942008	-0.01808168
192	0xbcf0fc94	-0.029417314
193	0x3a00b080	0.0004909113
194	0x3c6f8f20	0.014621526
195	0xbd65ca8c	-0.056101367
196	0x3c403958	0.011732422
197	0x3c14b4e8	0.009076335
198	0xbd2a3220	-0.04155171
199	0x3d753ca0	0.05987227
200	0xbcfeb8a0	-0.031093895
201	0xbba23d20	-0.0049511343
202	0xbd3362e4	-0.04379548
203	0xbc4bfb50	-0.012450054
204	0x3d48ca60	0.049021125
205	0x3ccf3424	0.025293417
206	0xbd21d5dc	-0.039510593
207	0xbba11020	-0.0049152523
208	0x3be8c4f0	0.007103555
209	0x3c9ba184	0.018997915
210	0x3cabdddc	0.020979814
211	0x3c183528	0.009290017
212	0xbd0b5910	-0.034020483
213	0xbcabc654	-0.020968594
214	0x3d4ef5f4	0.050527528
215	0x3c7d2e60	0.015452951
216	0x3cf44840	0.029819608
217	0x3d72a32c	0.059237644
218	0x3c821260	0.015877903
219	0x3d3a6294	0.045504168
220	0xbc168070	-0.009185895
221	0xbcadeb24	-0.021230288
222	0xbc9fc738	-0.019504175
223	0xbbce1110	-0.006288655
224	0xbd42f324	-0.04759516
225	0x3d072f4a	0.033004083
226	0xba2e7900	-0.00066556036
227	0x3d15f5d4	0.036611393
228	0x3b7bc980	0.0038419664
229	0x3d140e60	0.03614652
230	0x3d7e9a6c	0.062158987
231	0x3d70b19c	0.05876313
232	0xbccbb454	-0.02486626
233	0x3c0fc630	0.008775279
234	0x3d434d18	0.047680944
235	0xbce7c854	-0.028293766
236	0x3c55f2b8	0.013058357
237	0xbd0e91e8	-0.034807116
238	0xbced9f6c	-0.029006682
239	0xbd46ac52	-0.04850418
240	0xbd3ebcb2	-0.046566673
241	0x3d005156	0.031327568
242	0x3c587060	0.013210386
243	0x3d1e4802	0.03864289
244	0xbc2fe180	-0.010734916
245	0xbcc8c1a0	-0.02450639
246	0x3d55c57c	0.05219029
247	0x3d544dbe	0.051831953
248	0x3d6c43b2	0.057681747
249	0xbd736f94	-0.05943258
250	0x3d32be52	0.043638535
251	0xbd496b04	-0.049174324
252	0xbd10d16a	-0.035355963
253	0xbd197014	-0.0374604
254	0xbccc5e7c	-0.024947397
255	0xbcb53c28	-0.022123411

fc3.weight f4 [2, 256]
0	0xbd7d5212	-0.061845846
1	0x3cd09138	0.02545987
2	0x3c604e08	0.013690479
3	0xbcbf443c	-0.023347966
4	0x3d173280	0.036913395
5	0x3d46de52	0.048551865
6	0x3cbad83c	0.022808187
7	0x3d1b86b8	0.037970275
8	0xbce1b820	-0.027553618
9	0x3b775ea0	0.003774561
10	0x3d6ce3ee	0.05783456
11	0x3d7b4134	0.06134148
12	0x3d29b278	0.041429967
13	0x3d5481f4	0.051881745
14	0xbd2048a2	-0.039131768
15	0xbca2d824	-0.019878455
16	0xbd421796	-0.047385775
17	0xbc2b3360	-0.0104492605
18	0xbcd4c5c0	-0.0259732
19	0xbc7de9a8	-0.0154976025
20	0xbbcfaf70	-0.0063380525
21	0x3cf0bcb8	0.029386863
22	0xbd45501e	-0.04817211
23	0xbc976164	-0.018479057
24	0xbd31d340	-0.043414354
25	0xbd05b382	-0.032641895
26	0xbc9fa3e8	-0.019487336
27	0x3d1721d2	0.036897488
28	0xbd7ae77e	-0.061255924
29	0x3d2a286e	0.041542463
30	0x3c5406b0	0.012941048
31	0xbd194d84	-0.03742744
32	0x3d6c0cba	0.057629324
33	0x3ab41d80	0.0013741702
34	0x3d61f1b6	0.055162154
35	0x3d7ed590	0.062215388
36	0x3d1bbc70	0.038021505
37	0xbd431008	-0.04762271
38	0xbc3705d0	-0.011170819
39	0xbd184480	-0.0371747
40	0xbb9b3510	-0.00473655
41	0x3ce0f7c4	0.027461894
42	0x3cefebb0	0.02928719
43	0x3d3a6b28	0.04551235
44	0x3d5f6bc6	0.05454614
45	0xbce50a14	-0.027958907
46	0xbce9cda0	-0.028540432
47	0x3d7d82da	0.061892368
48	0xbd221ecc	-0.03958015
49	0x3d671ab4	0.05642195
50	0x3d5d8b1e	0.05408775
51	0xbc0d7300	-0.008633375
52	0xbbc090b0	-0.005876623
53	0x3d1cd7a6	0.038291596
54	0xbcde6f50	-0.027152687
55	0xbccd3764	-0.025050826
56	0x3d7c2630	0.061559856
57	0x3c732fc8	0.014842935
58	0xbd7ba898	-0.06144008
59	0xbc380cb0	-0.011233494
60	0x3d01a034	0.031646922
61	0x3d6f535e	0.058429115
62	0x3d1ff97c	0.039056286
63	0x3c3f8200	0.011688709
64	0x3d7136d2	0.05889017
65	0xbd092fca	-0.03349284
66	0x3cd4a538	0.025957689
67	0xbb8bce00	-0.0042665005
68	0xbcecd650	-0.028910786
69	0x3d32fbac	0.043697044
70	0xbd2047e4	-0.03913106
71	0x3d34282c	0.043983623
72	0x3d2251b8	0.039628714
73	0x3c9e6bc8	0.019338503
74	0xbb025920	-0.0019889548
75	0xbd17cbc6	-0.037059568
76	0x3d6e8ea0	0.058241487
77	0xbd3acc0e	-0.045604758
78	0x3c036748	0.00802023
79	0xbc8db1e8	-0.017296746
80	0x3cb58e10	0.022162467
81	0xbd60ce9c	-0.054884538
82	0xb902ec00	-0.00012485683
83	0xbd6bf204	-0.05760385
84	0x3c960d08	0.01831676
85	0xbd63c01a	-0.055603124
86	0x3d654238	0.055971354
87	0x3d16d178	0.03682086
88	0x3d17a78e	0.037025027
89	0xbd56524e	-0.052324586
90	0x3c7fc568	0.01561103
91	0xbbdb7270	-0.0066969916
92	0x3ba87990	0.0051414445
93	0x3c0717d0	0.008245423
94	0xbcfd2114	-0.030899562
95	0xbcd6e4e4	-0.02623219
96	0x3bb9c1b0	0.0056688413
97	0xbd58eb88	-0.052958995
98	0xbd606f26	-0.0547935
99	0xbb794020	-0.0038032606
100	0xbd00a5fe	-0.031408302
101	0xbd073424	-0.03300871
102	0xbd2797cc	-0.04091625
103	0x3bd98ec0	0.0066393316
104	0x3d758f8c	0.05995135
105	0x3c98ec44	0.018667348
106	0x3d5aea9e	0.053446405
107	0x3c9a468c	0.018832467
108	0x3d084c86	0.033276103
109	0xbd17abb0	-0.03702897
110	0x3d7699a2	0.06020511
111	0xbc9f23a0	-0.019426167
112	0xbd5118f6	-0.051049195
113	0xbd0a495e	-0.033761375
114	0x3d4e87be	0.050422423
115	0x3d48ae16	0.048994146
116	0xbca2715c	-0.019829445
117	0xbd25d6fa	-0.04048822
118	0xbd467ab2	-0.048456855
119	0x3d29fc8e	0.04150062
120	0x3cbdb33c	0.023156755
121	0x3c440400	0.011963844
122	0x3d0bf9ee	0.0341739
123	0x3c867e78	0.016417727
124	0xba265000	-0.00063443184
125	0x3d054aac	0.032541916
126	0xbcbca8ac	-0.023029648
127	0xbbc2e800	-0.0059480667
128	0xbb7f8320	-0.0038988069
129	0xbcad11f4	-0.021126725
130	0x3d1f648e	0.038914256
131	0x3d3b0ada	0.045664646
132	0xbc07abf0	-0.008280739
133	0x3d1438a6	0.036186837
134	0x3d047056	0.032333694
135	0xbcf7f7a4	-0.030269451
136	0x3d101646	0.03517749
137	0xbca14e08	-0.019690529
138	0x3cd096d8	0.025462553
139	0x3d640814	0.055671766
140	0x3d0cd75e	0.034385078
141	0x3ccfa9d0	0.025349528
142	0x3d48f376	0.049060307
143	0x3cd5970c	0.026073001
144	0xbcbaaabc	-0.02278649
145	0x3d5b9990	0.053613245
146	0x3d1e53b0	0.03865403
147	0xbbfbd3f0	-0.007685177
148	0xbd1ec9b0	-0.038766563
149	0x3be3c000	0.0069503784
150	0xbd70db7a	-0.05880306
151	0x3d5f27c0	0.054481268
152	0x3c9329a4	0.017964192
153	0xbb7cdb60	-0.0038582906
154	0x3d2f2b84	0.04276611
155	0xbd49d730	-0.049277484
156	0xbd3e5eb0	-0.04647702
157	0xbd1c5a10	-0.038171828
158	0xbd4e3f28	-0.0503532
159	0xbbe4f610	-0.0069873407
160	0x3c68ab30	0.0142009705
161	0xbd45a94a	-0.04825715
162	0xbb8fde90	-0.004390545
163	0x3d00cace	0.03144341
164	0x3c92594c	0.017864846
165	0xbd79db88	-0.061000377
166	0xbd16dd5a	-0.03683219
167	0xbca24c9c	-0.01981192
168	0x3d4a429e	0.049379937
169	0x3d252510	0.04031855
170	0x3d62863e	0.055303805
171	0x3c5c5cb0	0.013449833
172	0x3d579a4a	0.052637376
173	0x3d436ae6	0.04770937
174	0x3c0e2b98	0.008677386
175	0x3be57370	0.0070022866
176	0xbd5a8cee	-0.053357057
177	0xbc5770f0	-0.013149485
178	0x3cc83650	0.02443996
179	0x3cb431c8	0.021996394
180	0xbd26568a	-0.040609874
181	0x3c7740b8	0.015091114
182	0x3d42bd96	0.047544084
183	0x3d33f09c	0.043930635
184	0x3cb62380	0.022233725
185	0x3d15dc6a	0.036587156
186	0xbd675db8	-0.05648586
187	0x3c10b398	0.008831881
188	0x3c29a2c8	0.0103537515
189	0xbd5dd0f0	-0.054154336
190	0xbd71585e	-0.058922164
191	0xbc9ca9d0	-0.019123942
192	0x3d5fb2f0	0.054614007
193	0x3bd9d840	0.0066480935
194	0xbd2e3602	-0.042531975
195	0x3d5a4956	0.053292595
196	0x3cc40814	0.023929633
197	0xbcb589fc	-0.022160523
198	0x3d5f9472	0.054584928
199	0xbcff1730	-0.031138986
200	0xbd38e5d4	-0.045141056
201	0x3ce8cc50	0.028417736
202	0x3c457d38	0.01205378
203	0xbc666230	-0.014061496
204	0x3d4abbd4	0.049495533
205	0x3d16e8ca	0.0368431
206	0xbce391b0	-0.02777943
207	0xbd5312ca	-0.05153159
208	0xbd11e094	-0.035614565
209	0xbd73d11a	-0.059525587
210	0x3cadf964	0.021237083
211	0x3d37ad0a	0.044842757
212	0x3d47a294	0.04873903
213	0x3cd0a278	0.025468096
214	0x3d08a92c	0.03336446
215	0xbc1b3148	-0.009472199
216	0x3c3de2b0	0.011589691
217	0x3c85b414	0.01632122
218	0xbd3f829a	-0.04675541
219	0x3c3c6e40	0.011500895
220	0x3cb051c8	0.021523371
221	0x3cac11ac	0.02100452
222	0x3afef9c0	0.0019453093
223	0xbd331550	-0.043721497
224	0xbd5b9d48	-0.053616792
225	0x3d1e4d00	0.03864765
226	0xbc2df4e8	-0.010617472
227	0x3cb50a5c	0.022099666
228	0xbd5586c8	-0.05213049
229	0xbd575052	-0.052566834
230	0xbccf506c	-0.025306903
231	0xbb6d3c00	-0.0036199093
232	0x3c9164d8	0.017748281
233	0x3d46c190	0.04852444
234	0xb99b7200	-0.0002964884
235	0x3bc0e080	0.0058861375
236	0x3ca1ef4c	0.019767426
237	0x39bc3100	0.00035894662
238	0xbb61da00	-0.0034462214
239	0x3cc13be4	0.023588128
240	0xbd0cd61e	-0.034383886
241	0xbd5ff54a	-0.054677285
242	0x3d03730c	0.03209214
243	0x3c89b550	0.01681009
244	0xbd0ee0ee	-0.03488248
245	0x3d01169a	0.031515695
246	0x3ce38128	0.027771547
247	0xbc24c908	-0.010057695
248	0x3c1f6c60	0.009730428
249	0x3d300122	0.04296983
250	0x3cb44b54	0.022008575
251	0x3d7dc4e0	0.061955333
252	0xbbe21240	-0.006899148
253	0x3d5bff80	0.05371046
254	0xbd28805a	-0.04113803
255	0x3d7241b2	0.059144683

fc3.bias f4 [2]
0	0x3d0b8cc2	0.034069784
1	0xbd5c01e8	-0.053712755
