rl-cartpole/saved_models/cartpole_01.pt (torch, 272683 bytes, 6 tensors)

fc1.weight f4 [256, 4]
000000 75 cb 42 3e bb 26 84 3e b0 77 39 bf 06 e1 f4 be
       0.19022925 0.258108 -0.72448254 -0.4782793
000010 27 fa e0 be 28 5d 59 3e 9b b3 0c 3f 30 20 14 3f
       -0.4394085 0.21226943 0.54961556 0.57861614
000020 d2 96 1e 3e 0d 44 01 3e 60 f8 18 bf 44 5f 98 be
       0.15487221 0.12623616 -0.5975399 -0.29760182
000030 27 f0 09 bf bf e0 29 bf 51 33 ec be 9b c2 de 3b
       -0.5388207 -0.6635856 -0.461329 0.006798101
000040 ee f1 fd 3e 65 de 8c 3e 10 f2 32 bf 65 aa 94 be
       0.4959864 0.27513424 -0.6990061 -0.2903625
000050 33 07 0a be f5 a6 f5 3e a8 01 5a 3e 23 c5 c1 3e
       -0.13479309 0.4797894 0.21289694 0.37845716
000060 7c a9 60 bc 69 d9 c7 3d f8 f4 72 3e d4 b6 18 bf
       -0.013712283 0.097582646 0.2372626 -0.59653974
000070 92 40 12 bf b0 e2 3c bd c1 f5 33 3e 05 a2 f8 3e
       -0.57129776 -0.046114624 0.17574216 0.4856111
000080 0c 01 8a bd 03 a9 10 be b8 95 29 bf dc e9 21 bf
       -0.06738481 -0.14126973 -0.6624408 -0.63247466
000090 cf a6 16 bf 4f de 99 3e f5 89 27 3f e2 d6 cf 3e
       -0.5884828 0.3005242 0.6544488 0.4059363
0000a0 85 3f bc 3e 71 9a d7 bc 71 43 c1 bd bd 4c 1e bf
       0.36767212 -0.02631876 -0.094366916 -0.61835843
0000b0 22 b7 36 bf 39 b0 81 be 77 a1 21 3f 36 13 d0 3e
       -0.7137319 -0.2532976 0.63137 0.40639657
0000c0 12 fa e4 be 94 e1 b0 3d 61 43 55 3f b6 d6 22 3f
       -0.44722039 0.086367756 0.8330594 0.6360887
0000d0 51 8a 08 3f 11 e2 c7 3d de 85 44 3c 4b 38 c7 be
       0.53336054 0.097599156 0.011994807 -0.38910136
0000e0 ca 28 2e 3e fd d4 d3 be 05 21 32 bf 86 4a 01 bf
       0.17007747 -0.41373435 -0.69581634 -0.5050434
0000f0 f9 f8 9a 3e 56 c3 8d 3e 74 8f a9 be af f0 05 3e
       0.30268076 0.27688092 -0.3311726 0.13080095
000100 b2 6f 52 3e 47 d6 e6 3c db aa 15 3f 19 39 7f 3e
       0.20550421 0.028178347 0.5846383 0.24924125
000110 e6 74 c0 3e 5a 0f 14 3f 81 b3 0a bf 83 27 9e be
       0.37589186 0.57835925 -0.5418015 -0.3088952
000120 cf 4d 41 be d2 63 60 3e 1e 81 59 3f 14 d7 1e 3f
       -0.18877338 0.21913078 0.8496264 0.62046933
000130 28 70 81 3e d0 12 de be 4d fa a9 be b9 4a 00 bf
       0.2528088 -0.43373728 -0.33198777 -0.5011402
000140 44 ff ed be 1d 22 0b 3f d7 90 a4 3e 91 97 1d bf
       -0.46483815 0.5434893 0.32141754 -0.61559397
000150 d6 72 ac 3e f7 c2 18 be 2e a1 e4 be 2d db 86 be
       0.33681363 -0.14918123 -0.4465422 -0.26339093
000160 be be 3c 3e 8f 48 60 be fd 5e ae 3e ec 46 a2 3e
       0.18432137 -0.21902679 0.34056845 0.31694734
000170 4f d2 14 3f 58 71 e2 3d 51 8d 64 bf 7a 21 e0 be
       0.58133405 0.11056775 -0.8927813 -0.4377554
000180 04 87 f7 3e 2e 50 db 3d 1c bc 55 bf b2 91 ba be
       0.48345196 0.107086524 -0.8349016 -0.36439282
000190 fb 0b 0f 3f ca bc e8 3e 6c 7b bd be f4 23 81 be
       0.55877656 0.45456535 -0.37008226 -0.25222743
0001a0 e3 ae 9c be 0a cd 5b bc fa b9 38 bf fd 57 06 bf
       -0.30602178 -0.013415584 -0.7215878 -0.5247801
0001b0 3d c4 57 be f8 67 19 3e 3e 32 9c 3e 81 d0 db 3e
       -0.21070953 0.14981067 0.30507082 0.42932513
0001c0 37 29 83 be 70 2c 17 3f fb 5a 9c 3e ab 76 00 bf
       -0.25617382 0.5905218 0.30538163 -0.5018107
0001d0 ae 60 e9 bd 8c db f3 3d 5a 0b 6c 3e a2 cb 18 3e
       -0.11395393 0.119071096 0.23051205 0.1492143
0001e0 e0 c2 29 be 40 65 38 3d 38 b5 91 3e 51 bb cd 3e
       -0.16578245 0.045018435 0.2845857 0.40181974
0001f0 5a ad 92 be 14 99 8e be bf d5 ee be 14 14 c1 be
       -0.28647882 -0.27851164 -0.4664745 -0.3771063
000200 fd e6 9c bd 32 f6 17 bf c8 58 3a be cd fe 5c 3e
       -0.07661245 -0.5936004 -0.1819793 0.21581574
000210 f1 8d ac be ef 23 fd 3d 74 d2 29 3f aa ac cd bb
       -0.33702043 0.123603694 0.6633675 -0.0062766867
000220 fb ce 9c bd 41 c0 14 3e d3 4d d3 3e af 3c a9 3e
       -0.07656666 0.14526464 0.41270313 0.3305411
000230 a1 e6 0c 3f 7d d4 20 3f 00 bc 54 3f 7e 3c 03 3e
       0.5503941 0.6282423 0.83099365 0.12816045
000240 8e 8a 62 bf 97 5f 69 be fb fa 3b 3f 98 0d 05 3e
       -0.8849267 -0.22790371 0.7342984 0.12993467
000250 b0 28 3e 3e de 41 19 bf 17 00 7f bf 38 26 ca be
       0.18570209 -0.5986613 -0.9960951 -0.39482284
000260 46 50 db bc 05 54 a3 3e 4d 93 16 3e c0 76 04 bf
       -0.026771676 0.3190004 0.14704628 -0.517437
000270 02 7a ed 3e e1 ac f1 be 94 be ca be 45 21 53 be
       0.46382147 -0.4720221 -0.39598525 -0.2061816
000280 5c 99 ba 3d 91 d1 48 be 6d d5 56 bf a8 58 05 bf
       0.09111282 -0.19611193 -0.8391941 -0.52088404
000290 c0 08 ef be dc 4b 23 3d a3 f4 95 3e d6 c0 ba 3e
       -0.46686363 0.039867267 0.29288206 0.36475247
0002a0 dd 3b 8a be 50 a4 a6 be 7f d1 31 be 91 dd af be
       -0.26998797 -0.32547235 -0.17365073 -0.3434873
0002b0 ec c7 14 3f d3 b7 92 3e ae a3 6e be a5 cc e9 3e
       0.58117557 0.28655872 -0.23304626 0.45663944
0002c0 0c 39 90 3e c4 1a 8f be ed 99 2f bc cf b4 ee be
       0.28168523 -0.27950108 -0.010717851 -0.4662232
0002d0 68 e1 f3 bc 0b db 4e 3d 71 2d 33 3f b4 c2 4b 3e
       -0.029770568 0.050501864 0.69991213 0.19898492
0002e0 2f 75 03 3f 03 7d 49 3e 0a 46 ce be ae f1 ba bd
       0.5135068 0.19676594 -0.4028781 -0.09128128
0002f0 41 a5 30 bf 32 1e 86 3e 0c 96 68 3f d6 23 00 3f
       -0.6900216 0.26194912 0.90853953 0.5005468
000300 6c 98 bf bd f4 2f 89 bd ea 02 48 bf 74 d1 b6 be
       -0.09355244 -0.066985995 -0.78129447 -0.35706675
000310 30 2c 95 be 34 f9 2e 3e c4 8d 98 be 00 ba 32 bc
       -0.29135275 0.17087251 -0.2979566 -0.010908604
000320 ea 7d e3 3d be 4a a2 3e 2b 7e 24 bf 9d cb de be
       0.111080006 0.3169765 -0.6425502 -0.4351472
000330 47 52 94 be 1a 83 b3 3e f2 b3 38 be 9a 9a d7 3e
       -0.28969023 0.3506096 -0.18037394 0.4211014
000340 c4 7a a7 3e 79 aa 34 3e e2 3d dd 3d d3 35 51 bc
       0.3271085 0.17643155 0.10802819 -0.01276918
000350 81 73 26 be 61 40 2d 3d 52 78 21 3f bb d8 53 3e
       -0.16254999 0.042297725 0.6307422 0.20688145
000360 1f 4f 9c bd 5f e6 b7 be 7a 6d 45 bc 4a df f2 be
       -0.07632279 -0.35917947 -0.012050027 -0.4743598
000370 01 9b fc 3b 2e f2 54 3f 24 ed db 3e 30 8a ba bb
       0.0077089076 0.83182037 0.4295436 -0.0056927428
000380 03 08 4a be cf 26 c5 3d fb a5 3b bf 55 31 55 be
       -0.19729619 0.09626543 -0.7330014 -0.208196
000390 f5 53 e4 be fa 22 06 3c 52 7e 03 3f 74 c0 13 3f
       -0.44595304 0.00818705 0.51364625 0.57715535
0003a0 2d d9 d6 3d 92 21 1a 3f 5e 24 a6 3e 5a 2e c1 be
       0.10490642 0.60207474 0.3244962 -0.37730676
0003b0 6b 82 89 3e 33 1a 26 bf ae 15 0c bf c4 e4 80 3d
       0.26857314 -0.64883727 -0.5472058 0.062936336
0003c0 59 c8 62 3e 00 50 13 3f 91 1c 49 be 06 20 1f be
       0.22146739 0.57543945 -0.19639803 -0.1553956
0003d0 9b 46 13 3f 01 13 0b bf b3 b5 f6 bd ec 20 f5 be
       0.5752961 -0.5432587 -0.12046375 -0.4787668
0003e0 5e ef c5 3d c4 d5 d5 bd 47 18 b9 be 71 87 cc 3d
       0.09664796 -0.10441163 -0.36151335 0.09986771
0003f0 55 9b 2c 3f 33 67 17 bd f0 a1 ff be 86 62 98 be
       0.6742452 -0.036963653 -0.49928236 -0.29762667

fc1.bias f4 [256]
000000 5a 05 94 bd 6d 83 aa be 64 af 60 be b8 d9 9b 3e
       -0.07227583 -0.33303395 -0.21941906 0.30439544
000010 a4 6f e7 bd d1 17 1c 3f 81 1a 19 3f 38 ef 4d 3e
       -0.11300591 0.6097384 0.59806067 0.20110786
000020 9b c9 2b be 16 ca 86 be 2f a6 3f 3d 4c 04 ba 3d
       -0.16776125 -0.26326054 0.046789344 0.09082851
000030 2d be b2 be c9 0d 71 bd 12 46 be be a7 fa 06 3f
       -0.34910718 -0.058851037 -0.37162834 0.52726215
000040 19 2d 2d be a6 1a 23 3f f9 ef 87 be 8a 3e a2 be
       -0.16911735 0.6371254 -0.26550272 -0.3168834
000050 be 9d dc 3e 43 60 57 3e f0 db 0e 3f 2a 1e 82 3e
       0.43089098 0.21032815 0.5580435 0.25413638
000060 05 b1 ba be 70 8d 04 3f 70 bf 47 be fd 80 61 be
       -0.3646318 0.51778316 -0.19506621 -0.22021861
000070 77 2e 06 3f 1b f6 14 3f 84 9b 8e be 15 43 6e be
       0.5241465 0.5818803 -0.27853024 -0.23267777
000080 d4 ed 17 3f be 7c c4 3e 3c 3e 23 3f 61 af 5f 3d
       0.5934727 0.3837642 0.6376684 0.054610614
000090 7e 9c 39 bd e4 be 35 3f 1c c1 e7 3e 02 e8 39 3f
       -0.04531526 0.709944 0.45264518 0.7261964
0000a0 e2 ea af be ef 1e 37 be 15 98 72 bd a3 20 bc be
       -0.3435889 -0.17882894 -0.059227068 -0.3674365
0000b0 dc 18 a4 3e 74 ca 10 3f bc b8 c0 3e 05 77 1d be
       0.32050216 0.5655892 0.3764094 -0.15377434
0000c0 2a 27 a7 3e 10 7f a2 be b1 74 34 3f 92 e1 fe be
       0.32647067 -0.31737566 0.70490557 -0.49781471
0000d0 3c 45 c2 be ab f9 4c bd c2 df 28 3f a3 ce e3 3d
       -0.37943447 -0.05004279 0.6596643 0.11123397
0000e0 37 3d b8 3e 2a 85 93 be bc 99 b5 3e f7 ae 33 3e
       0.35984203 -0.28812534 0.35468853 0.17547213
0000f0 0c cc bd 3e a9 2c 1b 3f fc aa ef 3e bc 6f 93 3d
       0.37069738 0.6061502 0.46810138 0.07199046
000100 01 7f 62 bd 73 a3 a7 be 0c 6f 59 be 27 8e 1c 3f
       -0.0552969 -0.3274189 -0.21233767 0.6115441
000110 61 2a 73 be 25 4b ff 3e b6 4b e4 bc 9a 1c ad bc
       -0.23746635 0.49862018 -0.027868133 -0.021131802
000120 dc da 80 3e 42 cc b2 be ce 3c 47 3e 46 4e c9 3d
       0.25166976 -0.3492146 0.19456789 0.098293826
000130 10 5b cc 3d b3 57 06 be 63 86 1d 3f 86 be 12 3f
       0.09978306 -0.13119392 0.6153318 0.57321966
000140 80 81 ad be 60 a5 c5 3e 3e 66 c5 be 5b d9 ff bc
       -0.33887863 0.38602734 -0.38554567 -0.031231573
000150 2d 69 8b 3e d2 cb dd 3c fe 26 97 be 8b 6f a8 be
       0.2722868 0.027074728 -0.29521936 -0.328976
000160 11 07 74 be d2 43 d1 3e 6f e5 f7 be e2 5c d0 be
       -0.2383082 0.40872055 -0.4841723 -0.40695864
000170 af b1 da 3d fa 46 bf be 2c 64 d0 be f6 45 60 be
       0.10678422 -0.37358838 -0.40701425 -0.21901688
000180 01 f5 1f be c4 ef e4 be e3 9c 4b be 35 23 e4 3c
       -0.15620805 -0.44714177 -0.19884066 0.02784882
000190 b5 b8 b1 be c4 94 12 be 8d a3 6b be 73 9a 59 be
       -0.34711233 -0.14314562 -0.23011608 -0.21250324
0001a0 1f 72 ac 3e 8c af 8c be 1b d8 b6 be 8e 31 00 3f
       0.33680817 -0.27477682 -0.3571175 0.50075614
0001b0 07 5a 38 3e 93 d9 32 3f ef 31 07 be 58 e3 b5 bc
       0.18003093 0.6986324 -0.13202642 -0.022203133
0001c0 d2 bf 68 3c 04 5d d8 bc ca 8b 20 3f 9d 1e d0 be
       0.01420589 -0.02641154 0.627133 -0.40648356
0001d0 c0 3c 94 3d 58 ae cf 3e 4b 5e 6d be 84 15 82 be
       0.0723815 0.405627 -0.23180501 -0.2540704
0001e0 40 5e b9 3e 11 e0 d5 be 61 31 95 3e 81 5b 84 be
       0.3620472 -0.41772512 0.29139236 -0.25851062
0001f0 02 d1 9c 3e ee e3 da be 8b c7 03 3f 84 56 f2 be
       0.3062821 -0.42752022 0.51476353 -0.4733163
000200 ef ba 7c be e0 a5 de 3d 39 9f 22 3f be 3c db be
       -0.24680685 0.10871482 0.63524204 -0.4281978
000210 b9 19 91 be 42 50 0f 3f 58 da e8 3c c3 0d ef 3e
       -0.28339937 0.5598184 0.028424427 0.46690187
000220 eb de 9a be 61 62 b9 bd f5 b9 9a 3d 43 51 23 3f
       -0.30248198 -0.090519674 0.07555 0.6379587
000230 3e 25 b3 3e 62 ac 11 be 8a bb 84 3e f3 9c 77 3e
       0.3498935 -0.14225915 0.2592433 0.24180965
000240 2c 16 3b be 11 ee 25 bb 22 46 b2 bd fc 13 24 3f
       -0.18270177 -0.00253189 -0.08704783 0.64092994
000250 f7 9f 9a be ef 35 c2 be 72 f2 09 be 00 bd 3c 3d
       -0.30200168 -0.37931773 -0.13471392 0.046078682
000260 cd d7 83 3e d2 cf 54 bd 45 f8 5b be 09 61 be be
       0.2575058 -0.051956005 -0.21481426 -0.37183407
000270 34 4b e9 bd 11 db 03 be 94 a5 1c 3f 03 92 b2 be
       -0.11391297 -0.12876536 0.6119015 -0.34877023
000280 ba 4a a3 be 76 d2 bc be ab d5 65 be 54 c0 1b 3f
       -0.3189295 -0.3687932 -0.22444789 0.60840344
000290 57 09 2b 3f d8 45 a1 be 89 2c ca bd b4 95 fd 3e
       0.66811126 -0.314986 -0.09871776 0.49528277
0002a0 56 2b b4 3e 2b 8a 29 3f cc 35 63 3e 01 c9 8e be
       0.35189313 0.6622645 0.2218849 -0.2788773
0002b0 8f a5 08 3f d1 f7 0d 3d be 56 fa 3e d8 59 fc bd
       0.5337762 0.034660164 0.48894304 -0.12321824
0002c0 11 00 b1 3e 85 47 22 3f b7 e3 3a 3f 96 3f cd be
       0.34570363 0.6339038 0.73003715 -0.40087575
0002d0 5e da b2 be ae f8 08 be d7 a4 87 be 93 3b 30 3f
       -0.34932226 -0.13376114 -0.2649295 0.68840903
0002e0 b7 14 7e be b0 d0 a9 be fa 21 26 be c4 67 8d be
       -0.2481259 -0.33167028 -0.16223899 -0.2761823
0002f0 ce cd cc 3e 37 d7 c1 be 97 46 ba be 4c 36 ee be
       0.40000767 -0.37859508 -0.3638198 -0.465258
000300 af 39 93 3e 65 98 e6 3e 00 99 97 be 8f 5b 19 3e
       0.28754947 0.45038143 -0.29608917 0.14976333
000310 08 59 23 3f 35 07 54 3e 47 d6 85 bd 67 00 0c 3e
       0.63807726 0.20705874 -0.06535011 0.13672028
000320 06 24 03 bd b4 75 ca 3e 96 0b 88 be 36 1c 07 3f
       -0.032016777 0.39542925 -0.2657134 0.5277742
000330 92 ea 00 3f 34 d7 c3 bd dd a2 28 3f 7c 2b 3b 3f
       0.50357926 -0.09562531 0.6587351 0.73113227
000340 98 67 02 3c ad f7 7d 3d e9 49 ef 3e 4f a1 8c be
       0.007959269 0.06200378 0.46736076 -0.2746682
000350 bd 1a a0 3e c9 ef 8b 3e f7 f2 1b 3f 83 b3 8f be
       0.312704 0.2733138 0.6091761 -0.28066644
000360 5a 96 ac be 9d f6 d8 3e 3c 74 5b 3e 90 fe 92 be
       -0.3370846 0.4237565 0.21431059 -0.2870984
000370 23 0f 93 be 2f b4 a6 be 16 65 c4 be 1d a5 40 be
       -0.28722486 -0.32559344 -0.38358372 -0.18812986
000380 46 93 1f 3f 0c 5b e6 bd 09 89 0b 3f f9 2b 31 3f
       0.62334096 -0.112478346 0.54505974 0.6920772
000390 7b 29 e1 3e 35 08 9d be 0b 07 d9 3e 39 56 00 3f
       0.4397696 -0.30670324 0.42388186 0.50131565
0003a0 24 ac 1b 3f f4 86 fc be 0d 74 16 3f 3a 15 1a 3f
       0.6080954 -0.4932171 0.5877083 0.6018864
0003b0 ef ce e0 be c8 2b 63 3e 22 b4 25 3f c8 3d 99 be
       -0.43907878 0.2218467 0.64727986 -0.29929948
0003c0 5d c3 13 3e 5d 52 dc 3e 6c 4b 62 3e 2c d9 38 3f
       0.14429994 0.43031588 0.22099084 0.7220638
0003d0 30 14 26 3f 29 82 16 3f 2f c0 48 3e 8b 5f 1c 3f
       0.64874554 0.5879236 0.19604562 0.61083287
0003e0 d4 91 ee be 26 25 8a be 06 5e 99 be 9a f8 51 be
       -0.46595633 -0.26981467 -0.29954547 -0.2050499
0003f0 df d2 2d 3f 60 a3 ff 3e 14 19 11 3f b8 8c 08 3f
       0.6789989 0.49929333 0.5667889 0.5333972

fc2.weight f4 [256, 256]
000000 ce 97 de bd a1 3a 93 3e 70 5b 20 bd 32 d7 11 bd
       -0.10868798 0.28755668 -0.0391497 -0.035605617
000010 75 5a b0 3d 03 ca 59 3d df 15 76 be a0 00 e3 3d
       0.08611003 0.05317117 -0.2403178 0.110841036
000020 76 4a 9f bd ed 07 be 3e c3 8a 6a bb b4 86 0c 3e
       -0.07777874 0.37115422 -0.0035788275 0.1372326
000030 52 04 5a 3e 71 c6 4d 3d da 91 e3 bd 33 ab b8 bd
       0.2129071 0.050238077 -0.11111803 -0.09017029
000040 f2 b3 8a 3e 91 61 0a be 07 f2 9e 3e 08 c9 cf bd
       0.27090412 -0.13513781 0.31044027 -0.101457655
000050 32 5d fa bd c8 09 50 bd 33 c4 33 3d 5b a8 a7 bd
       -0.12224807 -0.050790578 0.043888282 -0.08186408
000060 fa d7 e2 bc a9 64 87 bd df da 8b bd ec 9d 3c 3e
       -0.027690876 -0.06610996 -0.06828856 0.18419617
000070 1f 00 10 be af e9 ba 3c 47 31 80 3e ad 09 c9 bd
       -0.14062546 0.022816507 0.25037596 -0.09816299
000080 54 2e 40 bd 1e 0f 66 3d df 4a 6d 3d d7 13 e9 3d
       -0.046919182 0.05616676 0.05793273 0.11380737
000090 64 13 2d 3e 4a 12 12 bf ba 4f c0 bd 66 4d 4d be
       0.16901928 -0.57059157 -0.09390207 -0.20049056
0000a0 a7 5b d5 bc d9 35 74 3e 23 b0 a1 bd 83 9d 37 3d
       -0.02604468 0.23848666 -0.078949235 0.04482795
0000b0 51 91 60 be 6c cb b9 3d e0 50 01 be de 26 80 3e
       -0.21930434 0.09072003 -0.12628508 0.25029653
0000c0 55 23 25 be d8 a0 0b bd 25 18 6a be c1 57 5d bd
       -0.1612676 -0.03408894 -0.22860773 -0.054038767
0000d0 1c 43 d9 3d 8f ea 48 3e d6 6e 9a be 14 12 dd 3c
       0.10608503 0.19620727 -0.30162686 0.02698616
0000e0 13 94 de be 29 ed 2a 3e 69 d5 9d bc c5 11 4a bd
       -0.43472347 0.16692032 -0.019266801 -0.049333353
0000f0 37 e4 85 bd 98 3c db be e8 99 bc bd 19 4e 59 bc
       -0.06537669 -0.42819667 -0.09209043 -0.013263249
000100 d8 ea 06 bc ef 98 ba 3e 78 09 0e 3e 17 9e 91 be
       -0.008234702 0.36444804 0.138708 -0.28440925
000110 5b 60 12 3c 2e a6 4e 3c 8d e5 0f bd 03 57 0b 3e
       0.008934106 0.0126128625 -0.035131026 0.13607411
000120 2e 87 c1 3d ce d6 fe 3c 13 15 13 be a5 55 98 3e
       0.094496116 0.031108286 -0.14363508 0.29752842
000130 fc 8f 3a bc 3c 60 30 bd f2 36 59 3d cf ea 63 3d
       -0.011386868 -0.043060526 0.053030916 0.055643853
000140 66 20 0d 3d 7a d5 14 3e 5e 4c 89 bd e4 a0 dc 3d
       0.034454726 0.1453456 -0.06704019 0.10772875
000150 69 0d 47 3e 46 ca 22 3e 96 cb ed 3e 27 1d 86 3e
       0.1943871 0.15897474 0.46444386 0.26194116
000160 b9 eb ab 3e 75 d6 c0 bc 52 9c 05 bd c0 d2 ba 3d
       0.3357828 -0.023539761 -0.03261978 0.091222286
000170 97 ca 5d ba 64 c3 53 bd 80 c6 ad 3e e7 a0 17 3e
       -0.0008460669 -0.05170001 0.33940506 0.14807473
000180 f0 33 97 3e db 52 95 bb d0 b8 50 3d 44 46 95 3d
       0.29531813 -0.0045569963 0.0509575 0.07288793
000190 74 22 82 3e 56 d7 5e 3d 7f 2e b6 bc ea 49 1c bc
       0.2541691 0.05440458 -0.022238968 -0.009539107
0001a0 54 d1 f6 3d d5 7b 2c 3e b2 05 2e bd d9 88 cf bc
       0.12051645 0.16844113 -0.0424859 -0.025333809
0001b0 1c 82 11 be f1 2b b8 be 1b e0 12 3d 82 a8 07 3e
       -0.14209789 -0.35971025 0.035858255 0.13247874
0001c0 8a e7 e1 3d b0 30 2c 3e 42 bf 3b be 10 5c 26 bd
       0.11030491 0.16815448 -0.18334678 -0.04061514
0001d0 80 df fd bb 7b ea 47 3d 9f c0 61 bc a0 22 b8 bb
       -0.0077475905 0.048807602 -0.013778835 -0.005619362
0001e0 e5 e3 a0 bc d3 57 8a 3e ed 0c 9e bd 29 f9 65 3e
       -0.019639919 0.2702013 -0.07717309 0.22458328
0001f0 50 47 b1 3d 20 e5 b1 3b 87 ef 45 3d 50 cc d5 bc
       0.0865618 0.005428925 0.048324134 -0.0260984
000200 f7 93 5d 3e 8a ff 3d bd 7c 30 c7 be 18 c7 69 bc
       0.21638475 -0.04638628 -0.38904178 -0.014268659
000210 ca 8c 45 3e 9a 17 4e bd 8e f8 c6 3c 3d 28 d0 be
       0.19291988 -0.050315477 0.024288442 -0.406557
000220 c1 8b e6 3d 0c fa b1 bd b7 5a 65 bd 20 4d e6 3c
       0.11257125 -0.08690271 -0.055994716 0.028112948
000230 65 43 6f 3c 04 ce cb 3c f2 44 06 3e 71 59 d7 3b
       0.01460347 0.02487851 0.13112238 0.0065719415
000240 bf 4c 99 3c 92 4a a1 bd 58 b9 18 3e 69 64 be bd
       0.018713353 -0.07875551 0.14914453 -0.092964955
000250 67 7f a8 3e a3 f0 bb 3e 31 bd f0 3c b2 95 af bd
       0.329097 0.3670703 0.029387088 -0.08573474
000260 f1 6d 67 bd 8c 08 41 3d e3 81 a0 3e f1 1f b0 bc
       -0.056501333 0.04712729 0.31349096 -0.021499606
000270 32 a8 0a 3e ed 6c 82 3e 20 eb 27 be 6c 80 21 3d
       0.13540724 0.2547373 -0.16398287 0.039429113
000280 58 2e f4 bc 79 41 b8 3e 49 fe 84 bd 35 ef 06 bf
       -0.029807255 0.35987452 -0.064938135 -0.5270875
000290 b8 3b 69 3c 54 bb 9c 3c 82 cc 51 3e 9b 17 0c be
       0.0142354295 0.019132294 0.2048817 -0.1368088
0002a0 26 c1 da 3d ea a7 bb bd 0f d4 8d bd cf 90 9a 3d
       0.106813714 -0.091628864 -0.069252126 0.07547151
0002b0 79 70 dc bd 4c 09 3c 3c 4e 1a 1e ba 26 da 6f bd
       -0.1076364 0.011476826 -0.00060311414 -0.058557652
0002c0 30 68 79 3d a5 18 21 be 27 74 1a bd 59 59 bc 3e
       0.060890377 -0.15732057 -0.037708428 0.36786917
0002d0 af 60 82 bd ce 92 3a 3d ed 00 91 3d bd d4 2d bd
       -0.06366097 0.04555016 0.07080255 -0.04243921
0002e0 67 c5 9f bd 34 f4 58 bd 1e 05 99 3d 90 d2 08 3d
       -0.078013234 -0.052967265 0.07471679 0.033403933
0002f0 1f 13 01 3e 8f 15 8d bd 5f e3 ab 3e 24 ff b9 3d
       0.1260495 -0.068888776 0.33571908 0.09081867
000300 22 0e 02 bd ed 1e d5 bc 1c 78 83 bd bf b8 ff 3b
       -0.03175176 -0.026015723 -0.064193934 0.007804006
000310 82 74 22 bf c7 5e bb 3d af 1f 88 3d ca bf d9 bd
       -0.63459027 0.09148937 0.06646668 -0.10632284
000320 ed 6b 27 3d dd c7 91 3c 54 58 59 bd 75 a0 13 bd
       0.04087441 0.017795498 -0.053062752 -0.036041696
000330 1f b6 2f 3e 29 59 5e 3d af 14 ce bd 4c e5 a3 bd
       0.17159317 0.05428425 -0.10062539 -0.08002719
000340 3b 68 d0 3a d5 4b b3 3b fb b9 16 3e 0e 77 67 3e
       0.0015900204 0.0054716864 0.14719383 0.2260401
000350 78 fb f7 3d 54 b9 16 be ab f6 0a bf 68 79 c3 3d
       0.12108511 -0.14719135 -0.54282635 0.09544641
000360 3f ae 2e 3d ac fd 40 be 14 75 2d 3e 5b 66 98 3d
       0.042646643 -0.18846768 0.16939193 0.07441398
000370 8c d5 83 3d 62 13 d5 bc db 0d c1 3e 69 59 60 3e
       0.06437215 -0.026010219 0.37705883 0.21909107
000380 b5 b4 df 3c 6c 57 82 3e 41 7c 0d bf 74 30 4c 3d
       0.027307848 0.25457323 -0.5526772 0.049850896
000390 0b 26 d4 3d 12 22 50 3e 75 d9 50 bd 38 5f 19 bf
       0.103588186 0.20325497 -0.050988633 -0.5991092
0003a0 c1 99 2d be 8c 69 6a bd 86 82 15 bf 3b 32 05 be
       -0.16953184 -0.057229564 -0.5840229 -0.13007443
0003b0 98 b7 3d bc 18 bd e8 bd 4e ca 91 3c 93 57 22 3e
       -0.011579417 -0.11364192 0.017796662 0.1585372
0003c0 9b 53 c5 bd 01 e7 72 be 58 d4 db 3d 00 f4 e8 bd
       -0.09635087 -0.23720933 0.10733861 -0.11374664
0003d0 e5 3c 35 3d cd cb f7 bd 20 a2 78 be 3e 44 82 3d
       0.044247527 -0.12099419 -0.24280596 0.063606724
0003e0 10 0f be bb 0c 60 b9 bc eb dd 54 bb f7 a2 ab bd
       -0.0058001354 -0.022628807 -0.0032480906 -0.083806925
0003f0 f8 07 61 3d 7b 6d e8 bb fc a8 aa bd 7f 31 b9 bd
       0.05493924 -0.007093129 -0.083330125 -0.09042644

fc2.bias f4 [256]
000000 77 b3 c7 bd 4c cd f9 bc 1c 31 9e 3d 65 df b5 3c
       -0.09751027 -0.030493401 0.077242106 0.02220125
000010 6f fa b9 3d 7c 75 69 bd 48 de 39 bc 58 e4 67 bd
       0.090809695 -0.056996807 -0.0113445 -0.05661425
000020 74 11 79 bd 6c 45 be bc fe f0 2c 3d 6c 51 16 bd
       -0.06080766 -0.023226462 0.042222016 -0.036698744
000030 de 5f d7 3b 51 97 28 3e 2e 49 0c 3e eb 82 44 3e
       0.0065727076 0.16463973 0.13699791 0.19190566
000040 83 5f c9 bd c8 6d 30 3d 8a 98 75 3b e6 a0 88 3d
       -0.098326705 0.043073446 0.0037474954 0.06671314
000050 6d 42 67 3d 80 a5 80 bd c3 79 47 3e 4f ee 15 3e
       0.056459833 -0.062815666 0.19480042 0.14641689
000060 48 43 57 bd 15 9a 29 3e 57 14 04 bc a4 e2 4f bc
       -0.0525544 0.16562684 -0.00806149 -0.012688313
000070 6d 6c e6 3c 77 fe fc 3d 94 4d f8 3d c2 bf dd 3d
       0.028127873 0.12353223 0.12124172 0.108275905
000080 31 9c 9f bd 6c 9c 92 3c 2f 85 08 3e 70 79 df bd
       -0.07793463 0.017896853 0.13332056 -0.10911834
000090 83 5c 35 3e 2e 57 08 bd 00 73 fa bc e2 8e ee 3b
       0.17711072 -0.033286266 -0.030572414 0.0072802166
0000a0 f0 4c aa bd 79 f5 1b bd 34 87 c5 3c d6 cc 1f bd
       -0.08315456 -0.038075898 0.024112321 -0.039013706
0000b0 1c 60 9d 3d 6d 5b cc 3d d2 f5 17 bd d6 c5 ec 3d
       0.07684347 0.099783756 -0.037099667 0.11561172
0000c0 34 f7 c2 bc f6 a6 6d 3d 4c 29 54 bd 40 a4 0c 3c
       -0.023799516 0.058020554 -0.051797196 0.008584082
0000d0 a6 00 20 3e 36 80 0d 3e de 55 ed 3d d9 c8 d2 bb
       0.15625247 0.1381844 0.115886435 -0.0064326343
0000e0 21 e7 d0 3b 00 c9 36 3e f3 a0 8c bd 8c 05 25 3e
       0.006375209 0.17850113 -0.06866636 0.16115397
0000f0 c5 1e 99 bd 0e 2e 61 bd 09 bb 15 3e b3 67 82 bc
       -0.07476572 -0.05497556 0.1462213 -0.015918588
000100 7a 2e 22 bd 06 41 46 3e 4f 6a ed bc 0f 68 ba bd
       -0.039595105 0.19360742 -0.028981356 -0.09101879
000110 0c 7a a5 bc 9d d6 d5 bd 9c 91 32 3e 5e 99 03 3d
       -0.020199798 -0.10441325 0.17438358 0.032128684
000120 e2 64 2a 3e 20 87 49 3e c1 60 cb 3d 61 a3 92 3d
       0.16640046 0.19680452 0.09930564 0.07160068
000130 a1 65 a8 3d 45 70 38 3d dc e0 16 3d cc be 50 3e
       0.08222509 0.045028944 0.036835536 0.20385283
000140 c8 ae f5 3b fd 9d 85 bc f2 3e 23 3e 88 c3 51 bd
       0.007497642 -0.016310686 0.1594198 -0.051211864
000150 2d a8 15 3d 55 5c 1e 3e e4 07 12 3d f3 3c fc bc
       0.036537338 0.1546491 0.035652056 -0.030790782
000160 58 95 87 bd 3a a7 57 3d 82 33 83 3c 31 31 eb 3c
       -0.06620282 0.052649714 0.016015772 0.02870998
000170 76 b9 43 bd c9 0b dd 3d a8 66 8f bc 88 51 6e bd
       -0.04778429 0.107932635 -0.017505005 -0.058183223
000180 e5 d1 7c bc f6 5c cf 3d 50 49 a8 bd ca 00 29 3e
       -0.015430902 0.10125153 -0.08217108 0.16504207
000190 8d 8e 41 bd 81 4d 93 bd 1b 8f 2c 3e 39 bf 38 bd
       -0.047255088 -0.07192517 0.16851465 -0.04510424
0001a0 39 36 3c 3e 66 18 be bc 12 a6 7c 3d 3a 9a 2a bc
       0.1838006 -0.023204993 0.061681814 -0.010412747
0001b0 42 b9 16 bd 28 b0 8f bd 74 01 16 3e 97 f8 56 bd
       -0.03679777 -0.07016021 0.14648992 -0.052483167
0001c0 c9 db 2c 3e 6c 91 01 3e 63 7d 31 3e 86 c6 91 3c
       0.16880716 0.1265313 0.17332987 0.017794859
0001d0 da 59 07 bd 25 e2 c1 3d d0 67 ab 3d b1 a3 4b 3e
       -0.033044674 0.09466962 0.0836941 0.19886662
0001e0 cb e1 e8 3c 99 5d b7 3d 94 0e 19 3e 30 7f b8 3d
       0.028427979 0.08953399 0.14946967 0.09008634
0001f0 53 97 35 bd 09 17 a3 3d 17 ce 87 bd 23 46 5a 3d
       -0.044333767 0.07963378 -0.066311054 0.053289544
000200 3a e8 d5 bc 37 09 51 3d 21 c9 b2 3d e3 a6 97 bd
       -0.02611171 0.05103418 0.087297685 -0.07404878
000210 ad d9 03 3e f1 2f dc 3a 0c ad a2 bc 00 39 16 3d
       0.12876005 0.0016798956 -0.019857906 0.036675453
000220 14 59 34 3e 74 44 a5 3c 66 74 17 bd 9b 26 68 bd
       0.17612106 0.020174243 -0.03697624 -0.056677442
000230 77 a3 17 bd b4 00 45 3e c3 0c 47 bd ee 99 8d bd
       -0.037021127 0.1923855 -0.048596155 -0.069141254
000240 4a 6c 2c 3d 6c 00 0f be c0 67 1e bb 80 6e bd bd
       0.04209546 -0.13965005 -0.0024170727 -0.09249592
000250 3e 21 3e 3d 35 d5 1e 3e 26 07 83 bd 69 86 d1 bd
       0.04641842 0.1551102 -0.06397848 -0.10230715
000260 99 8a d8 3d 30 e8 be 3a d0 52 26 3c d4 b4 ea 3c
       0.105733104 0.0014565047 0.01015158 0.028650679
000270 31 bf c8 3c d7 51 0c bb 3f a9 c7 3d 2f 61 d6 3d
       0.02450523 -0.0021411085 0.09749078 0.10467755
000280 cb d0 43 bd 2f df 02 3d 38 4f 2e bd fd de 7a bd
       -0.047806542 0.031951126 -0.042556018 -0.061247814
000290 50 9a c2 bc c7 67 65 bd 85 01 83 3c d2 08 c4 3d
       -0.023755223 -0.056007173 0.015991936 0.09571995
0002a0 6a 61 c2 3d d9 41 06 3e 8a 7e 6c 3d 7c 75 09 3e
       0.094912365 0.13111056 0.057737865 0.13423723
0002b0 21 fd 4d 3d 6a 0f eb 3d 3e a3 ec bc 5d 06 6b 3c
       0.05029023 0.114775494 -0.028886434 0.014344779
0002c0 4a 9c 97 3d a3 43 fa 3d 6b 8e 43 3e f6 ac 06 3c
       0.07402857 0.12219932 0.19097297 0.008219948
0002d0 9c 72 2b 3e 15 5f 2d bd 90 80 33 bb 53 76 01 3d
       0.16742939 -0.042327005 -0.0027389862 0.031606983
0002e0 e8 5b 6a bc 84 da 95 bd cf af 94 3d d1 e8 f1 3d
       -0.014304139 -0.07317069 0.07260095 0.11811984
0002f0 81 4e 24 bd 36 36 a7 3d 48 ee a7 bc c8 1e 9f 3c
       -0.04011393 0.08164637 -0.020499364 0.019423857
000300 06 a8 52 3d f3 38 0c 3e 18 35 1c 3d b7 b2 72 bc
       0.05142977 0.136936 0.03813657 -0.014813117
000310 32 ae 89 bd a0 51 ba 3c 5d 67 2a bd be 9a 20 3e
       -0.06722678 0.022744 -0.04160248 0.1568403
000320 e6 14 54 3d 3d fa b0 3c 00 a5 08 be 3b 07 87 3d
       0.051777743 0.021603698 -0.13344193 0.06593176
000330 70 dd c8 3d e9 94 bb 3d 55 ed 78 3a ab 38 14 3e
       0.09807861 0.09159262 0.00094958144 0.14474742
000340 8c 65 da bc 4e a3 2e bd 42 3a d3 3c 96 2e e6 3c
       -0.02665975 -0.04263621 0.025784615 0.028098386
000350 b0 e8 54 3e 0a 2a 8c 3d 8d 09 c8 3d c2 36 18 bd
       0.20791888 0.06843956 0.09767447 -0.037161596
000360 b8 91 81 bb 20 39 d2 bc e6 46 19 3d 74 96 57 bd
       -0.0039541386 -0.025662005 0.03742113 -0.052633718
000370 5a 4c 14 3e 20 2b 60 bd b9 59 ae bd 02 51 30 bd
       0.14482251 -0.054728627 -0.08513207 -0.043046005
000380 ce 92 3c 3b f5 9d 02 3e af bd 3a bc f6 16 4d 3c
       0.0028774026 0.12755568 -0.011397763 0.012517681
000390 f2 92 41 3e e3 b3 d9 bc 82 01 f5 3c d5 9a a6 bb
       0.18903711 -0.026575034 0.029907946 -0.0050843754
0003a0 7c 7d 06 3e 60 80 d6 3d 8d a2 31 3e 9c 52 2b 3d
       0.13133806 0.10473704 0.17347164 0.04182683
0003b0 e4 ce eb 3d c9 19 8b 3d 34 f7 56 3e b2 5a 48 3e
       0.11514071 0.067920275 0.20992738 0.19565848
0003c0 31 d9 48 3e 47 33 51 bd a1 46 4d 3e d3 fe 31 3e
       0.19614102 -0.051074293 0.20046474 0.17382364
0003d0 6b 73 a6 bd 6c 6c 07 bd 41 20 d8 3d a8 ac ef 3c
       -0.08127483 -0.033062384 0.10553027 0.029257134
0003e0 fc 18 8d 3d 59 c6 a6 bd 39 d0 3a bc 18 c2 37 3e
       0.06889531 -0.081433006 -0.011402183 0.17945135
0003f0 68 67 57 bc fc 7a bb 3d b5 3b b0 bc 61 5a a5 3c
       -0.013147213 0.09154317 -0.021512846 0.020184698

fc3.weight f4 [2, 256]
000000 84 c8 58 be 78 65 b2 bc 8b 78 a0 3e 43 2c 87 be
       -0.2117024 -0.0217769 0.31341967 -0.26400957
000010 c6 ba 55 be 7d 5a 28 bb 66 c9 42 be ee 99 78 3d
       -0.2087203 -0.00256887 -0.1902214 0.060693674
000020 fc 85 9a bc 78 2f a0 3c f7 bc a4 be e9 c7 cd be
       -0.018862717 0.019553885 -0.3217542 -0.40191582
000030 31 a6 f6 3c 29 ca d4 3e 73 71 e7 3e 16 c3 e1 3e
       0.030108543 0.41560486 0.45203742 0.4409415
000040 3a 95 55 be 6c d4 f6 bd 82 a2 51 be 64 0c b2 bd
       -0.20857707 -0.12052235 -0.20472148 -0.086937696
000050 36 5b a4 3c 8f 8a 45 be 2d d1 02 3f fe bc a3 be
       0.020063024 -0.19291137 0.51100427 -0.31980127
000060 fc 6d 3e 3d 19 ce 00 3f 50 02 95 be 1b d1 5a be
       0.046491608 0.5031448 -0.29103327 -0.2136883
000070 7e 61 1c be 96 2e 28 bd dc 23 d0 3e 6b 17 a1 be
       -0.15271565 -0.041060053 0.4065236 -0.3146318
000080 e6 99 3e be dc 2a c3 bc ca 37 f7 3e 39 fb aa be
       -0.18613395 -0.023824148 0.4828475 -0.33394793
000090 de a0 f2 3e 41 59 62 3d 91 9a ff 3e e5 d2 42 be
       0.47388357 0.0552609 0.49922612 -0.19025762
0000a0 16 51 37 be 52 aa 22 be a3 70 b0 be 5c 14 ba be
       -0.17902026 -0.15885285 -0.34460935 -0.36343658
0000b0 fa c6 9d be 9c 55 8a be b0 ee 68 be b0 58 ea 3e
       -0.3081587 -0.2701844 -0.22747302 0.45770788
0000c0 7d 73 55 be af d9 90 be f2 bc 98 be c8 18 4c 3d
       -0.20844837 -0.2829108 -0.29831654 0.04982832
0000d0 07 36 09 3f 7d 35 99 be 16 16 0b be f1 b4 49 be
       0.53598064 -0.2992362 -0.13582644 -0.1969793
0000e0 ee a2 98 be 30 e1 d1 3e e5 1f 81 be aa 26 d2 3e
       -0.29811805 0.40992117 -0.25219646 0.41045123
0000f0 46 e8 c0 be e9 0a 2d bd c2 ee f1 3e 2d c1 79 3c
       -0.3767721 -0.042246733 0.4725247 0.015243811
000100 4c b2 4d be 4c 42 27 3e b1 0e d4 bc 42 a3 7a be
       -0.20087546 0.16333884 -0.025885912 -0.2447634
000110 a4 35 3c bd 1e 40 db be d4 b9 d2 3e a0 be 2e bd
       -0.045949593 -0.42822355 0.411574 -0.042662263
000120 59 4c de 3e fb c8 ec 3e b6 80 6c bd a3 6d 7d 3e
       0.43417624 0.46247086 -0.057739936 0.24748854
000130 2b 2a a1 be e9 b4 3c 3c 6c 86 88 be ce ff 4a 3e
       -0.31477484 0.011517742 -0.26665056 0.19824144
000140 73 4c 2c 3d 63 4b 42 be ca 69 9b be 34 ec 95 bc
       0.042065095 -0.1897407 -0.30354148 -0.018301107
000150 cc 46 0c 3d e6 19 db 3e 81 c4 d0 bd 79 e2 ca be
       0.034247205 0.42793196 -0.1019373 -0.3962591
000160 dc be 83 be 1f 48 29 be c5 cb 7d be 5c 1d af bc
       -0.25731552 -0.16531418 -0.24784763 -0.021376304
000170 c8 5a 76 be 9f b9 53 3e 0d 07 9d be ae 34 d0 be
       -0.24058068 0.20676278 -0.30669442 -0.4066519
000180 a2 70 8a be ba e7 37 3c 2b 02 62 be 9b 04 be 3c
       -0.27039057 0.0112246815 -0.2207114 0.023195555
000190 9a eb 3f be fe 6b 45 be a4 7b e0 3e 99 d3 c2 be
       -0.18742219 -0.19279477 0.4384433 -0.3805206
0001a0 5c 35 be 3e 09 b4 a6 3c 8b c9 1b bd f2 a5 7a be
       0.37150085 0.02034952 -0.038034003 -0.24477366
0001b0 cf e1 d7 3c 1d 2d 4f be 9e f9 08 3f 6b d0 27 be
       0.026352791 -0.20232053 0.53505886 -0.16388099
0001c0 1d d8 85 bd 3b 64 2a be 8b 1c cc 3d 22 22 15 3f
       -0.06535361 -0.16639797 0.09966382 0.5825521
0001d0 60 93 17 3d 2c 20 e1 3e 69 8e 1d bd dc 97 f3 3e
       0.037005782 0.43969858 -0.03846589 0.47576797
0001e0 d8 42 9e be 32 53 9a bd 79 5d fd 3e dc da 62 3e
       -0.30910373 -0.075353995 0.49485376 0.221538
0001f0 67 cd 39 3a 80 af f0 3e 79 30 b2 be 32 cc 6b 3d
       0.0007087797 0.47008896 -0.34802607 0.057567783
000200 0f 8c e3 3c 82 b1 ae be f6 22 d3 3e fb 06 83 be
       0.027776746 -0.34119803 0.4123761 -0.25591263
000210 45 36 97 be 10 5e 5f be e0 8a eb bc 74 34 72 bd
       -0.29533592 -0.21813226 -0.028752744 -0.059132054
000220 d7 63 ed 3b ba e7 5d bc f4 31 cb 3c 8b 0a ce be
       0.007244568 -0.013544017 0.024804093 -0.4024242
000230 79 9a 9f be 28 32 d7 3e 85 16 4c 3d c0 f5 52 be
       -0.3117254 0.42030454 0.049826164 -0.20601559
000240 e8 f0 2d bd 0e 2a 9b be f8 15 0e bd 54 14 8b be
       -0.042466074 -0.30305523 -0.03468892 -0.27163947
000250 39 20 39 3d a6 28 ee 3e 09 e6 bd be 24 9d 60 be
       0.045196746 0.46515387 -0.37089565 -0.21934944
000260 f3 7e fd 3e 7b 9d 7c be 30 7d ec 3c ce 09 0b 3d
       0.49510917 -0.24669449 0.028868288 0.033944897
000270 fe dd b7 be 4c 18 3d be ca e1 f1 3e df 3e 00 bd
       -0.35911554 -0.184663 0.47242576 -0.03130996
000280 ca 9f 6a be 98 e3 a6 be 4e 3c 6c be b9 66 5c 3d
       -0.22912517 -0.32595515 -0.2306988 0.0538089
000290 1b ad 5a be ab d2 a6 be 2d 0b 41 be 10 f6 dc 3e
       -0.21355097 -0.32582602 -0.1885192 0.4315648
0002a0 42 3f 19 bd 02 1f fd 3e 18 e3 72 3c dc 65 48 3e
       -0.037413843 0.4943772 0.014824651 0.19570106
0002b0 9d 78 3c 3d 2b d2 2e be 09 91 b2 3e 72 d0 47 3d
       0.046013463 -0.1707236 0.34876278 0.048782773
0002c0 0e 2f eb 3a cd 9c 37 bd 71 52 f4 3e 40 13 25 bb
       0.00179431 -0.04482727 0.47719148 -0.0025188476
0002d0 c9 e9 d6 3e fa 99 89 3c f3 e6 85 be 44 e5 5d be
       0.4197524 0.016797055 -0.26152763 -0.21669489
0002e0 04 e6 f3 bc 32 08 16 be 90 22 93 be 81 4b d9 3e
       -0.029772766 -0.14651564 -0.28737307 0.42440417
0002f0 0c 18 7e be 55 c3 fd bd a3 8b 39 bd 06 58 62 be
       -0.2481386 -0.12390772 -0.045299184 -0.22103891
000300 ec 24 e0 bd 3c cd d5 3e 62 cd 27 bd 5f 5b 47 bc
       -0.10944542 0.41758144 -0.040967353 -0.012167781
000310 6e 2b 9a be b4 6b 56 3d 82 f5 84 be 63 e4 1d 3e
       -0.3011126 0.052348807 -0.25968558 0.15419154
000320 a1 27 4e 3c 41 90 8f be 64 77 94 be 17 e8 ce bd
       0.01258269 -0.28039744 -0.28997338 -0.101028614
000330 ad a5 23 be 41 67 77 3e 16 ad 78 be de 7a f4 3e
       -0.15981169 0.24160482 -0.24284777 0.4774999
000340 40 36 b3 bc 2a 72 3b 3d 40 2b de 3c 7f 6c ee 3b
       -0.021876454 0.045763172 0.027120233 0.0072761173
000350 69 10 eb 3e 63 c7 9f 3e 6c 7e d9 bc 56 c5 34 3d
       0.45910957 0.31206807 -0.02654954 0.044133507
000360 9a 19 59 be 62 fe 76 be 77 89 a7 be 04 88 a0 bc
       -0.21201172 -0.24120477 -0.32722065 -0.019596107
000370 3e 0a d5 bc b8 16 bc bc ce 25 7e be 78 c5 16 bd
       -0.02600586 -0.022960052 -0.24819109 -0.036809415
000380 90 0f ba be 95 4b 42 bd dd e1 55 be 48 ae 9d be
       -0.36339998 -0.047435362 -0.20886941 -0.3079703
000390 d0 6a d5 3e b4 c7 9f be 9f a3 51 be 06 4e 58 bc
       0.41683054 -0.3120705 -0.20472573 -0.013202196
0003a0 8e 48 85 bd a6 e9 f1 3e 48 79 de 3e d5 0c ef 3c
       -0.06507979 0.47248572 0.43451905 0.029180923
0003b0 05 38 ff 3e a4 22 25 3d 75 47 b1 3e 89 a4 dd 3e
       0.49847427 0.04031624 0.3462483 0.43289593
0003c0 c6 8a 53 3e 45 5b 82 be 3a ca a3 3e 3a ac da 3e
       0.20658407 -0.25460258 0.31990224 0.42709523
0003d0 68 a7 a7 be a6 cd 35 3c f0 8f 01 3f 75 2d a6 be
       -0.32744908 0.011096394 0.50610256 -0.32456556
0003e0 7f 9b 92 be 84 32 6c be c1 2a af be b3 2c 00 3f
       -0.2863426 -0.23066145 -0.34212306 0.50068206
0003f0 ce 12 d4 be c6 75 a6 be 1b 99 4a be 72 90 52 be
       -0.41420597 -0.3251173 -0.19784968 -0.20562914

fc3.bias f4 [2]
000000 4e 7b 00 3d 7e 16 ab 3d
       0.031367593 0.083538994
