rl-cartpole/saved_models/cartpole_lben_00.pt (torch, 535413 bytes, 7 tensors)

mon.linear_module.psi f4 [256]
000000 69 12 80 3f 3a c5 7f 3f 78 11 d4 3e 74 25 3c 3f
       1.0005618 0.9991032 0.41419578 0.7349465
000010 80 c8 90 3e df ce 1b 3f c9 3b 81 3f c4 69 1d 3f
       0.2827797 0.60862535 1.009637 0.6148951
000020 53 10 e4 bc 8b 72 e2 3d a9 b5 c3 3e 58 f6 0f 3f
       -0.027839815 0.110570036 0.38224533 0.56235266
000030 84 66 ce 3e 47 f0 38 3f 6c 20 7e 3f 93 4a 1f 3f
       0.40312588 0.72241634 0.9926822 0.62223166
000040 3e 24 80 3f de 4f 81 3f 07 be 36 3f c1 47 45 3f
       1.001106 1.0102499 0.7138371 0.7706261
000050 e0 db 22 3e c2 da 52 3d ca 4f 51 3f 02 b3 80 3f
       0.15904188 0.051478155 0.81762373 1.0054629
000060 76 8e 16 3f 6c b7 21 3f 94 b4 b9 3e 2b 11 98 3e
       0.5881113 0.63170505 0.36270583 0.29700598
000070 7e 5a 80 3f 0a 48 73 3e d4 be cd 3e bc 62 2e 3f
       1.0027616 0.2375795 0.40184653 0.68119407
000080 bb e6 29 3e 01 0e 1b 3f 86 8a 2a 3f ae 52 54 3f
       0.16591923 0.60568243 0.6661762 0.8293866
000090 cd 9b 55 3f a7 06 51 3f c3 f2 0e 3f 7a 9a 80 3f
       0.8344086 0.81650776 0.55839175 1.0047143
0000a0 c1 b8 80 3f 01 6e 81 3f f4 89 18 3f 43 de 50 3f
       1.0056382 1.0111696 0.595855 0.81589144
0000b0 b1 b9 fb 3e 87 6d 3d 3f ca db 80 3f db f5 7f 3f
       0.4916511 0.7399525 1.0067074 0.9998452
0000c0 ad 53 f1 3e 72 33 03 3f 96 03 7f 3f 7e c5 53 3f
       0.47134152 0.51250374 0.99614847 0.82723224
0000d0 dc 3b ed 3e 77 10 24 3f 5e e9 80 3f d9 55 32 3f
       0.46334732 0.64087623 1.0071218 0.69662243
0000e0 b1 3f 5b 3f b3 cf 9c 3d 20 50 7e 3f f4 31 dc 3e
       0.8564406 0.07656803 0.9934101 0.4300686
0000f0 82 f1 07 3f 17 2f 7f 3f 86 56 19 3f 10 f2 c3 3e
       0.53102887 0.9968123 0.5989765 0.38270617
000100 c7 a1 22 3f 00 00 80 3f 56 7c 80 3f 18 d7 7e 3f
       0.635281 1.0 1.0037944 0.99546957
000110 55 e9 09 3f b0 62 41 3f 99 c4 80 3f 14 4b 7e 3f
       0.5387166 0.7554121 1.0059997 0.9933331
000120 4a 9e 93 bc 18 e9 b4 3e 0a a4 65 3f 57 1a ad 3f
       -0.018019814 0.35334086 0.8970343 1.3523663
000130 98 53 7e 3f 7f 80 f4 3e aa 34 ef 3e 02 e5 4f 3f
       0.99346304 0.47754285 0.46719867 0.81208813
000140 9c 14 7d 3f 41 74 7f 3f dc 08 3a 3f ce d8 31 3f
       0.9885957 0.99786764 0.7266977 0.6947144
000150 28 5a 46 3f 84 ca 08 3f ac 04 3d 3e 75 7a 60 3e
       0.7748132 0.53434014 0.18458813 0.21921714
000160 6a 25 33 3f b3 92 6e 3e fa b1 7e 3f a1 c2 80 3f
       0.69978964 0.23298149 0.9949032 1.0059396
000170 1e b3 7f 3f 17 b7 7e 3f 0b cb 7f 3f a8 72 11 3f
       0.99882686 0.9949812 0.99919194 0.56815577
000180 90 9c 15 3f 33 d5 1a 3f 4b fe 7e 3f ef dc 01 be
       0.5844202 0.60481566 0.9960677 -0.12681936
000190 a8 cf 1d 3f 91 2e 5e 3f 34 6b 38 3f 71 86 4d 3f
       0.61644983 0.86789805 0.7203858 0.80283266
0001a0 aa 86 73 3e e2 b8 4e 3f ca 2b 7e 3f b7 14 7f 3f
       0.23781839 0.8075086 0.99285567 0.99640983
0001b0 6e 49 50 3f ad 29 7f 3f 72 86 d1 3e 79 4e 1e 3f
       0.81362045 0.9967297 0.40922886 0.6183849
0001c0 b0 93 80 3f 45 2b 1d 3f 8a 96 3c 3f e2 83 7e 3f
       1.0045071 0.6139415 0.73667204 0.9941999
0001d0 28 a8 b3 3e 15 18 3d 3f a5 28 80 3f 08 3d 80 3f
       0.3508923 0.7386487 1.0012404 1.0018625
0001e0 f5 0e 02 3f ba 2f 13 3f b2 74 e9 3e 00 00 80 3f
       0.5080407 0.574947 0.45596844 1.0
0001f0 60 b3 47 3f 0b 59 5b 3f 1c 17 ed 3e de db 64 3f
       0.7800808 0.85682744 0.46306694 0.8939799
000200 96 4f 80 3f a8 60 3c 3f ee c9 6e 3f e4 52 80 3f
       1.0024288 0.73584986 0.9327687 1.0025296
000210 33 6d 7c 3e 67 fd 7f 3f 40 e1 7e 3f ce e7 29 3f
       0.24651031 0.99996036 0.99562454 0.6636933
000220 ac d9 05 3f 38 0d 7f 3f 6f e0 2a 3f b2 4c bc 3e
       0.52285266 0.99629545 0.6674871 0.36777264
000230 c8 34 8b 3e f0 26 4a 3f 88 ed 8b 3e 37 b4 45 3f
       0.27188706 0.78965664 0.2732966 0.7722811
000240 21 dd 7e 3f 30 1e 06 3f 67 b1 3c 3e f9 35 87 3e
       0.99556166 0.5238981 0.18427049 0.26408365
000250 a0 45 80 3f 57 1c 34 3f b1 09 d0 3e 19 61 f4 3e
       1.0021248 0.70355743 0.40632394 0.4773033
000260 c7 3b c1 3d 20 8c a2 3e 4d dc 7e 3f bb 6d d7 3e
       0.0943523 0.31747532 0.995549 0.42075905
000270 7d 2a 80 3f 68 ff 25 3f e4 6b 62 3f 10 47 b2 3e
       1.0012966 0.64842844 0.8844588 0.3481984
000280 e1 c8 06 3f 27 82 7f 3f 85 45 38 3f 7a 4c 29 3f
       0.52650267 0.9980797 0.7198108 0.6613232
000290 14 c0 6b 3f 1b 32 80 3f 17 09 c4 3e 94 d3 10 3f
       0.9208996 1.0015291 0.38288185 0.5657284
0002a0 89 f7 3b 3f 81 c9 43 3f a8 97 68 3f c2 db 7f 3f
       0.73424584 0.76479346 0.9085641 0.999447
0002b0 3e 9f 7d 3f 54 4b 15 3f cf 22 45 3f 4c 37 1e 3f
       0.9907111 0.58318067 0.7700624 0.61803126
0002c0 dd 06 56 3f 01 77 20 3f 40 cc da 3e 5b 52 5f 3f
       0.8360422 0.62681586 0.42733955 0.8723504
0002d0 64 a8 de 3d d8 fb 21 3f 9b fe 1f 3f 4f f2 35 3e
       0.10871962 0.6327491 0.6249787 0.17768215
0002e0 02 ef 04 3f 03 df 1f 3f 76 e1 49 3f 11 ea 95 3e
       0.51927197 0.62449664 0.7885965 0.2928014
0002f0 84 4e b8 3e 25 99 80 3f b7 3f 80 3f b7 ef 65 3f
       0.35997403 1.0046736 1.0019444 0.898189
000300 51 f3 19 3f f7 7f 7f 3f 86 b8 72 3f 97 27 3a 3f
       0.60136896 0.99804634 0.9481281 0.7271666
000310 85 3a 80 3f 1b 09 3b 3f 28 ea 80 3f 42 ee 5c 3f
       1.0017859 0.7306077 1.0071459 0.8630105
000320 9e f7 23 3f 7b 3f 7c 3f 89 11 7f 3f 51 34 80 3f
       0.6404971 0.98534364 0.9963613 1.0015966
000330 fc 71 0a 3f 92 02 13 3f 5b ff 1f 3f 00 00 80 3f
       0.54080176 0.57425797 0.62499017 1.0
000340 d2 29 23 3f 53 40 48 3f 66 22 80 3f d7 86 ff 3e
       0.6373569 0.7822315 1.0010498 0.49907562
000350 9f 56 80 3f cc b0 80 3f 51 83 46 3f 37 1c e1 3e
       1.0026435 1.0053954 0.7754412 0.4396684
000360 c0 02 1a 3f e6 92 57 3f f6 b2 67 3e c2 ce 2b 3f
       0.60160446 0.84208524 0.22626862 0.6711236
000370 9d a0 0e 3f 7f 48 4f 3f 8f 2b d5 3e f5 94 80 3f
       0.55713826 0.80969995 0.41634795 1.0045458
000380 5e ce 53 3f 3d 96 7b 3f ae 6b d6 3e 7f 0f 8b 3e
       0.82736766 0.9827612 0.41879028 0.2716026
000390 c5 21 1e 3f d8 20 80 3f 56 0d 03 3f f7 9f 7f 3f
       0.6177028 1.0010023 0.51192224 0.9985346
0003a0 dd 07 6b 3f 7d ed fd 3e a8 10 1c 3f 46 a1 7e 3f
       0.91808873 0.49595252 0.60962915 0.99464834
0003b0 4d 9e 7e 3f b3 d8 32 3f 59 53 0b 3f 56 42 80 3f
       0.994603 0.69861907 0.54424053 1.0020244
0003c0 92 d8 21 3f de cc 5a 3f ed 29 eb 3e f1 69 6d 3e
       0.63221085 0.8546885 0.45930424 0.23184945
0003d0 97 95 4e 3f 0b 12 80 3f 6f 6a 58 3f fb 00 7d 3f
       0.80697006 1.0005506 0.84537405 0.9882962
0003e0 b6 0e ae 3e c1 e8 4f 3f 26 72 41 3f cc 79 38 3f
       0.339956 0.8121453 0.755648 0.7206085
0003f0 f2 2d 80 3f 0e eb 7d 3f e5 a1 80 3f f4 20 7f 3f
       1.0014021 0.9918679 1.0049406 0.9965966

mon.linear_module.B.weight f4 [256, 4]
000000 17 4d a5 3d ba 53 4e 3e 74 32 86 be 94 07 79 3e
       0.08071344 0.20149127 -0.26210368 0.24319297
000010 b8 17 f2 bd c3 97 00 bd 18 74 93 be 5e df 4b be
       -0.1182093 -0.03139473 -0.2879951 -0.19909427
000020 7e d8 e0 be 15 5a d9 3e ef 7d a9 be 6f bb 96 be
       -0.4391517 0.4245154 -0.33103892 -0.29439875
000030 8e f1 bc 3e 1e 40 3e 3e b3 c2 84 bf 2a 01 09 bf
       0.36903042 0.18579146 -1.0371917 -0.535174
000040 b7 3b 0a 3d 4e 3f 99 be 22 e5 66 bf 8f f1 b3 be
       0.033748355 -0.2993111 -0.9019338 -0.35145232
000050 47 90 ef be 9b 7a 0e bd 21 24 ab 3f 92 2b 1f 3f
       -0.46789762 -0.034784894 1.3370401 0.6217586
000060 11 96 00 bc e1 ca 98 3e e0 19 c5 3e 67 4c c6 3d
       -0.007848279 0.29842284 0.38496304 0.09682541
000070 a3 02 86 3e 4b 9f a4 3d 1b 82 84 3f 57 23 46 3f
       0.26173887 0.08038195 1.0352205 0.77397674
000080 13 c1 1e 3f 32 83 e3 be 81 7e f3 be 0c 5d 47 bf
       0.6201336 -0.44436032 -0.47557452 -0.77876353
000090 5e 6e 95 3e 31 0d 4a 3f ea fb a7 3f eb 78 46 3f
       0.29185766 0.7892638 1.3123753 0.77528256
0000a0 c5 f9 2d bf ab b7 22 bf f8 23 70 bf 88 1a e9 bd
       -0.67959243 -0.63561505 -0.93804884 -0.113820136
0000b0 15 19 0c 3f 8d ad 05 3f 77 d6 16 bf 20 fe 59 be
       0.5472577 0.5221794 -0.58921 -0.21288347
0000c0 17 bf 3a bf 79 bd 1d bf 58 6c 44 bf 2b d6 62 be
       -0.7294783 -0.6161724 -0.7672782 -0.22152011
0000d0 f5 c4 5b bd 85 0c d1 be 24 9b b6 be f8 27 47 bf
       -0.05365463 -0.40829864 -0.35665238 -0.7779536
0000e0 90 64 9c 3d ff f4 b4 3e a1 af 02 be 3d 66 a7 3e
       0.07636368 0.35343167 -0.1276231 0.3269519
0000f0 4c 64 47 3f 7f aa 53 3f c3 3c a1 3e c0 44 b7 3e
       0.77887416 0.8268203 0.3149167 0.3579464
000100 03 e9 be be 14 ce f7 be 7f ce ca be 6b d4 23 3e
       -0.3728715 -0.48399413 -0.3961067 0.15999
000110 fb 9a 31 3e b1 b9 6f 3c 7d 75 00 bc d7 2f ec 3d
       0.17344277 0.014631675 -0.007840511 0.11532562
000120 42 ec 3e be 8d 36 24 be 2b a3 7f bf 8b 08 07 bf
       -0.18644813 -0.16036434 -0.9985835 -0.5274741
000130 f2 b0 ae be bd 11 c8 bb 16 13 39 3f 02 2f 1f 3f
       -0.34119374 -0.00610563 0.7229475 0.62181103
000140 64 79 1b bf ce a5 f1 3e 22 b9 5e 3f 1e e9 3d 3f
       -0.607321 0.4719681 0.8700124 0.74183834
000150 44 a1 ed be 39 01 21 3f 90 33 a3 3f 1f 24 1e 3f
       -0.46412098 0.6289249 1.2750111 0.61773866
000160 3f e1 c1 ba 6e b5 0c bf 09 49 8c 3d 2e 43 7f 3e
       -0.001479186 -0.5496434 0.06849868 0.24927971
000170 1e a8 92 3e 4a 75 00 be 04 b6 f9 be 0d 40 a9 3d
       0.28643888 -0.12544742 -0.4877168 0.0826417
000180 aa e9 7a be 32 59 ee 3b 04 00 49 bf 06 17 8e be
       -0.24503198 0.0072738165 -0.7851565 -0.2775194
000190 46 aa c4 be 91 50 d8 be bb 4f 40 3f 96 c7 14 3f
       -0.38411158 -0.42248967 0.7512166 0.58117044
0001a0 32 0a 27 be c7 d2 42 3e 82 d6 4c 3f 7a a9 06 3f
       -0.16312483 0.19025718 0.8001481 0.5260235
0001b0 cd ce 90 be 69 d9 46 bf c9 2c ae be 2b a9 29 bf
       -0.28282776 -0.7767549 -0.34018543 -0.66273755
0001c0 ea 2d 88 bd 94 3c 23 be 0f 47 90 be 24 89 0c be
       -0.066493824 -0.15941077 -0.28179213 -0.1372419
0001d0 e1 13 a0 3e ec 2d 65 3f 51 c6 3c 3f 73 be 0b 3f
       0.31265166 0.89523196 0.73740107 0.5458748
0001e0 6e dc c8 be 1a 3a 22 bf d8 67 e5 be fa cf a4 3e
       -0.39230675 -0.63369906 -0.4480579 0.32189924
0001f0 ff 43 a5 bd 04 a9 35 be bb 48 9f bf 8c 6e 18 bf
       -0.0806961 -0.17740256 -1.244407 -0.5954368
000200 70 3f a8 be d8 9e 2e 3f 56 e5 1c 3f ec dc 4c 3f
       -0.328609 0.68211126 0.6128744 0.800246
000210 f5 7a 0c bf fb dd 40 bf 33 a5 f2 3d 47 4b 80 be
       -0.5487512 -0.75338715 0.118479155 -0.25057432
000220 cc 6d 0e bf 39 92 d6 be bc 66 f6 3d 35 9c 2e 3f
       -0.55636287 -0.41908434 0.12031314 0.68207103
000230 cf d8 a2 3e b7 13 a2 bd 50 e4 1f 3f 17 8a 21 3f
       0.31806037 -0.079139166 0.6245775 0.63101333
000240 b1 af b1 3e c8 c1 8a 3e a2 79 27 bf df 29 2f bf
       0.34704354 0.27100968 -0.6541997 -0.68423265
000250 23 6f 85 be 4f e1 d7 3e 7e 52 ed 3e ee 8b 84 3d
       -0.26061353 0.42164084 0.46352 0.06472002
000260 f7 94 b2 3e 28 2f 39 3f b7 44 7a 3f e3 3d 0f 3f
       0.34879276 0.7233758 0.977611 0.55953807
000270 a8 00 ee 3e 97 bc d3 be c1 0e b1 3e cf 64 e3 be
       0.46484876 -0.4135482 0.3458157 -0.44412848
000280 36 87 ea be 78 60 80 3e 32 ee ed be 6d c4 4c 3e
       -0.45806283 0.250736 -0.4647079 0.19996805
000290 7c e5 9d 3e c3 cd 1e be ec a7 3a bd d3 f1 af bc
       0.30839145 -0.1550818 -0.0455703 -0.021477615
0002a0 6a e1 4d 3f fd 0e 84 3f 7f 1a 03 3d 85 a9 03 bd
       0.8042208 1.0317074 0.03200769 -0.03214409
0002b0 e5 a4 96 bd d2 13 03 bf be 03 1d 3f 2d 30 b5 3d
       -0.0735567 -0.5120212 0.61333835 0.088470794
0002c0 26 60 2d be 02 bf b8 3e 1f 74 d5 be ae 13 e5 be
       -0.16931209 0.36083227 -0.41690156 -0.44741577
0002d0 62 70 68 3e cb 25 d8 bc 44 34 5a bf a5 93 3d bf
       0.2269912 -0.026385209 -0.85236 -0.7405341
0002e0 86 a7 34 3d 68 be f2 3c c5 25 6f bd d9 63 cc 3d
       0.044105075 0.029631808 -0.05838563 0.09979982
0002f0 fd d9 aa 3e 26 d5 c9 3e 06 6c b4 3e 80 28 db be
       0.33369437 0.39420432 0.35238665 -0.42804337
000300 6b 0f ec 3e 01 42 5e be 24 4c 0a 3f ee 43 16 3f
       0.46105513 -0.21704866 0.5402243 0.586974
000310 c1 7a d8 3d bd 1d 5f be 71 44 80 3f bb 7c 43 3f
       0.105702884 -0.21788688 1.0020887 0.763622
000320 e0 0e a5 be 30 61 ba be db af f6 3e f8 83 bd be
       -0.3223791 -0.36402273 0.48181042 -0.37014747
000330 88 c4 3b 3e e8 09 72 bc ee 8d 17 bf 9a f7 f1 be
       0.1833669 -0.01477287 -0.5920094 -0.47259218
000340 bf 13 98 3e 4c 07 9d bd 6c 6b 6e 3f bd 6d 00 3f
       0.29702565 -0.076674074 0.9313266 0.5016745
000350 a8 03 aa bd a2 36 59 bc e1 d3 11 3f 30 d2 41 3f
       -0.083014786 -0.013257654 0.56963927 0.75711346
000360 cf 7c f0 3d 5f 3a a9 3d 7b 7f 8b be ec 2c 50 bd
       0.11742555 0.082630865 -0.27245697 -0.05082409
000370 92 07 bf 3e 77 c1 ff bb 73 9a 74 3f 4b 7b 19 3f
       0.37310463 -0.007805045 0.9554817 0.59953755
000380 78 d9 80 be c0 24 24 3f 58 93 11 3f f8 a8 ba bd
       -0.25165915 0.64118576 0.56865454 -0.091142595
000390 8a 37 07 3f 64 6c 22 bf 49 ea a0 bf fc 67 25 bf
       0.5281912 -0.6344664 -1.2571498 -0.6461179
0003a0 fc 2a f8 3d eb c7 a8 3d 68 4f df 3e 38 ab 0d be
       0.121175736 0.08241256 0.4361527 -0.13834846
0003b0 8e b9 05 3f cc 7a 8b be ed fb ac bf f4 2a 2b bf
       0.5223626 -0.27242124 -1.3514382 -0.66862416
0003c0 f9 31 f9 be 2c 06 d7 be ca 05 57 3f 0d 6d 2a 3c
       -0.4867094 -0.41996896 0.8399321 0.010401976
0003d0 8b 9a c3 be 28 52 d6 3e f5 eb c6 be 1c 2f 67 be
       -0.38203844 0.41859555 -0.38851896 -0.22576565
0003e0 8a 22 b2 3e bf 18 77 3e ac 30 ee be ca 5e d3 be
       0.34791976 0.24130534 -0.4652151 -0.41283256
0003f0 dd 83 72 3e 7e 98 6d 3f 36 c9 8a 3e 32 c7 1a be
       0.23683114 0.9281081 0.27106637 -0.1511505

mon.linear_module.B.bias f4 [256]
000000 7f 66 4f bd d2 88 cc be 40 e8 59 3f bc c7 14 3b
       -0.050634857 -0.39948136 0.8512001 0.0022702059
000010 c2 ea f0 be bf 2c 51 3d 32 9b de 3d 50 d3 4d bd
       -0.47054106 0.051068064 0.10869445 -0.05025035
000020 f7 4a da be 1f c5 30 3f 2f 75 1e 3f 50 bb a4 be
       -0.4263532 0.6905078 0.6189756 -0.32174158
000030 7b 59 a4 be 7e 31 9e 3e ea 46 d7 be 11 92 b3 3d
       -0.32099518 0.30897135 -0.4204629 0.08768094
000040 59 b5 19 be 26 0e b1 3e df de dd 3e ea 20 d0 3e
       -0.15010585 0.34581107 0.433341 0.4065011
000050 55 5e 46 3f 05 19 49 be dd de 56 be 13 b2 a6 3d
       0.7748769 -0.1963845 -0.20983453 0.08139434
000060 09 ff 10 bf 78 29 ed be 3e e5 93 be 89 df 6e 3f
       -0.5663915 -0.463207 -0.28885835 0.9330984
000070 8c 30 0d bd 92 9d 78 3f 5f 33 68 3f e6 b2 c5 3e
       -0.034470126 0.97115433 0.90703386 0.3861305
000080 df 47 7c be 1e a8 15 be 02 9a b2 be 53 16 29 3e
       -0.24636792 -0.14614913 -0.34883124 0.16512422
000090 d2 c3 8a 3e 83 d7 23 be 09 ae 3d 3e 4f 74 f7 3d
       0.27102524 -0.1600018 0.1852342 0.12082731
0000a0 ba 4f d6 3e 6f bd 08 3e 15 27 38 3e c0 be f8 bd
       0.41857702 0.13353513 0.17983659 -0.12145758
0000b0 83 5c 08 bf 9e 4d b8 3e 41 e5 dd be 9b 91 8f be
       -0.5326616 0.35996717 -0.4333897 -0.28040776
0000c0 23 19 45 3f 4c da 01 bf ef e3 5d be 93 10 a9 3e
       0.7699148 -0.5072372 -0.21668981 0.33020458
0000d0 fd 6b b3 be c2 10 ee bd c1 e8 84 3e 80 30 14 3d
       -0.35043326 -0.1162429 0.25958827 0.036179066
0000e0 1b 7b bd 3e 7b ce 45 be 17 55 2f bd 1c 30 2b 3d
       0.37007985 -0.19317047 -0.042805757 0.041793928
0000f0 a2 84 1c bf 4c 4f b4 be a9 62 8e be 57 b3 9a be
       -0.6113988 -0.3521675 -0.27809647 -0.3021495
000100 83 9b 17 3e ac e1 0e be f7 2e 48 3e 3b b6 48 be
       0.14805417 -0.13953274 0.19549166 -0.19600765
000110 25 60 f1 be 5a 43 d1 be c1 26 11 be 3e 24 ea be
       -0.47143665 -0.40871698 -0.1417494 -0.45730776
000120 a0 33 14 bf fa d9 3f be bc 44 c5 3e d7 fc b1 3b
       -0.57891273 -0.18735495 0.38529003 0.005431752
000130 1a a4 aa bd 78 fc 0a bf 8f 00 13 3f 91 c2 8b 3e
       -0.08332081 -0.54291487 0.5742273 0.2729688
000140 fa bf 4c be 11 92 f5 be d7 26 77 be a2 82 38 be
       -0.19995108 -0.47963002 -0.2413591 -0.18018582
000150 5a 02 8b 3e 3b b1 57 be dc fa 75 be 3b 4a 01 bf
       0.27150232 -0.21063702 -0.24021477 -0.5050389
000160 37 3d 36 3d fd f5 3d be db f3 8d be 34 2d df 3d
       0.044491973 -0.18550868 -0.2772511 0.10897294
000170 13 96 bc be db 03 d6 be 30 c0 cf be dd 66 60 be
       -0.36833248 -0.41799816 -0.40576315 -0.21914239
000180 78 95 de 3b fa 34 1a 3e 84 68 dd be 5c 43 e9 be
       0.0067927204 0.15059271 -0.43243802 -0.45559204
000190 96 58 49 3e 88 c0 0c bb 80 a8 d6 bd b6 42 fb 3d
       0.19662699 -0.0021477062 -0.104813576 0.122685835
0001a0 c6 b9 fd bd b8 b7 4e 3e 5c e8 96 be 93 43 8e be
       -0.12388949 0.2018727 -0.2947415 -0.2778593
0001b0 13 a4 99 3e 58 76 fb bd 28 aa 2e be 1e f6 eb be
       0.3000799 -0.12278432 -0.17057097 -0.4608621
0001c0 dd 4d c3 3d f6 ea d9 be c6 4f 65 3e cc e8 df bd
       0.095363356 -0.42562073 0.22393712 -0.10933074
0001d0 fe d5 81 3f b0 73 15 bf 6c b6 dd 3c b6 c4 26 3e
       1.014343 -0.5837965 0.027064525 0.16285977
0001e0 c5 aa b7 3e 29 2f 1e bf 30 d9 15 bf 1c a6 bb be
       0.35872474 -0.6179071 -0.58534527 -0.3665017
0001f0 d4 20 c6 3e c1 e9 c1 3e 6f 41 b6 ba d6 5b 40 be
       0.3869692 0.37873653 -0.0013904999 -0.18785033
000200 6b 69 71 bd e5 8b d9 3e 9f a4 20 3e 8b 18 c7 3d
       -0.058938425 0.42489544 0.15687798 0.09721478
000210 bd 74 ae be d5 33 65 be 45 ef 94 be 9d 4c ca 3d
       -0.3407344 -0.22383054 -0.29088798 0.09877894
000220 50 b8 9c 3e 28 bb ae be cb 0d 45 be 7d 76 64 bd
       0.3060937 -0.34127164 -0.19243543 -0.05577706
000230 58 87 67 3f 24 7d 81 3e d0 9d f1 be 91 c6 c1 3e
       0.90440893 0.25290787 -0.47190714 0.37846807
000240 cc 4b c0 be ea 18 6a 3d 3e 48 57 3f e6 4a 04 bf
       -0.37557828 0.057152666 0.8409461 -0.51676786
000250 e3 eb f6 be 1e a0 55 3e a6 6a 48 3c 43 36 cc be
       -0.48226842 0.20861861 0.012232458 -0.39885148
000260 cc 5e 87 3f fd d9 85 3f 92 88 c0 3e 91 e2 ae 3c
       1.0575805 1.045715 0.37604195 0.02134827
000270 ed cd e4 be da 82 d1 be fd 3a f0 3e 38 a6 62 3f
       -0.4468836 -0.40920144 0.46920004 0.8853488
000280 e7 ee 22 be 81 8b 8f 3e f5 b2 83 3e ed 09 2f 3e
       -0.15911447 0.2803612 0.2572247 0.1709363
000290 75 1d bd be d2 6b f1 3d cf 9e 50 be 76 e4 46 3d
       -0.36936536 0.11788143 -0.2037308 0.04855772
0002a0 c0 81 80 bd 87 9c 1a be 19 fc a4 3e d0 3a ae be
       -0.06274748 -0.15098773 0.32223585 -0.34029245
0002b0 58 0c bf be 86 00 6f be b8 33 16 3d 67 4b 0f bd
       -0.37314105 -0.23340043 0.036670417 -0.03498402
0002c0 ab 81 9e 3e f3 8d a9 3e 16 94 7e 3f b3 c6 d5 3e
       0.30958304 0.3311611 0.9944471 0.41753158
0002d0 19 10 88 3f 67 4c 93 be 0f 45 ce bd 33 f0 85 be
       1.0629913 -0.28769228 -0.10071766 -0.2615982
0002e0 8e f9 ee 3d 07 5c d2 be 83 ce 8c 3e 72 6f 19 be
       0.116686925 -0.41085836 0.27501306 -0.1498392
0002f0 5c 36 65 3f ec f9 aa 3e 03 6a a2 3e 41 ed 51 3e
       0.8953607 0.333938 0.31721506 0.20500661
000300 02 2f aa 3e 63 ab cc be 81 5a b5 be fd ff 3d be
       0.3323899 -0.39974508 -0.35420612 -0.18554683
000310 42 9a 77 3c b8 08 b5 3e 7b a1 e7 bd 88 8a f4 3e
       0.0151124615 0.35358214 -0.11310097 0.4776194
000320 f8 cf b6 3e a0 a4 bd be c8 e4 27 be de 8c ad be
       0.35705543 -0.3703966 -0.16395867 -0.33896536
000330 33 44 97 3e ff 87 e0 be b3 df b4 3d ee e7 a1 be
       0.2954422 -0.43853757 0.0883173 -0.3162226
000340 2d d6 38 be 98 82 8c 3e ce 77 a4 be be 5f 65 be
       -0.18050452 0.27443385 -0.32122654 -0.22399804
000350 dc be 34 3e 31 32 2b bc 22 55 6c bd bb f6 fb bd
       0.17650932 -0.010448978 -0.057698376 -0.123029195
000360 00 10 3c 3e e4 17 c5 3e 18 1e c9 be b0 b8 93 be
       0.18365479 0.3849479 -0.39280772 -0.28851843
000370 28 cd 8e be 11 29 96 3e 54 0a d3 be 46 ca e8 3d
       -0.27890897 0.29328206 -0.41218817 0.113667056
000380 6d 82 2a 3e c0 6e b5 be 76 db b2 3d b1 8b 9a be
       0.16651316 -0.35436058 0.08733265 -0.301847
000390 19 9a 61 3e d1 ea b4 be 38 f5 0d bf 69 38 f1 be
       0.2203144 -0.353354 -0.554523 -0.4711335
0003a0 1b 34 d2 3e 9e 63 0e be 78 2f 5f 3e aa a7 d7 be
       0.41055378 -0.13905188 0.21795452 -0.42120105
0003b0 ef 83 a3 be 90 ae 91 3e 7c 0e 7c be ab a2 d4 be
       -0.31936595 0.28453493 -0.246149 -0.41530356
0003c0 b1 0c 36 be de c5 59 bd 55 09 68 3c 43 3e 87 3f
       -0.17778279 -0.053167216 0.014162381 1.0565876
0003d0 73 86 ee 3e 7e 93 ec be 3c 9e b1 3d 77 28 f4 be
       0.46586952 -0.46206278 0.08672759 -0.47687122
0003e0 ac 12 76 be 60 b7 d6 3e 78 c2 23 bf 33 75 db 3e
       -0.2403056 0.4193678 -0.6396861 0.42862853
0003f0 c0 58 bc be 68 6d bd be c6 1e 9b bd 8f 14 da be
       -0.3678646 -0.36997533 -0.07574229 -0.4259381

mon.linear_module.V.weight f4 [256, 256]
000000 dc 39 82 3b ba 52 c4 bc 2a be 1c 3d 63 f6 37 3d
       0.0039741825 -0.023965228 0.038267292 0.044912707
000010 8f 17 59 bd 46 5c 27 3d b9 58 89 3c a2 76 83 3c
       -0.053000983 0.040859483 0.01676594 0.01604778
000020 b3 f0 4a bd ad b2 b2 3b b5 96 21 3d 2d 4d 88 3d
       -0.049545955 0.0054534287 0.039450366 0.06655345
000030 ad 0d a1 bc a4 a9 98 bd 51 e1 03 bd 3e b7 1e 3d
       -0.019659841 -0.074542314 -0.0321973 0.038748972
000040 a6 3b 0f 3d 8a 34 a6 bc fe 44 88 3c 72 d6 02 3d
       0.034968995 -0.020288724 0.01663446 0.031942792
000050 21 be 4f 3d 42 17 cb bc 86 97 7b 3d 22 e6 7c bc
       0.05071843 -0.024791364 0.0614238 -0.015435727
000060 46 97 ac 3b 94 32 1d bd 42 0c 05 bd b9 4f ab bc
       0.0052670566 -0.038378313 -0.032482393 -0.020912038
000070 9a b2 5e bd 51 aa 21 3b 91 bf 7e bd e7 88 53 bd
       -0.054369546 0.0024668167 -0.06219441 -0.051644232
000080 17 2d 23 bc 2d 89 9e bc bc 22 43 bd 0e 8c af 3c
       -0.009959481 -0.01935252 -0.047640547 0.021429088
000090 f7 55 20 3d d5 67 80 bd 93 f8 e5 3c 53 74 66 bd
       0.039144482 -0.062698044 0.028072631 -0.05626328
0000a0 ad 62 61 3d d6 58 8c 3c 27 3c 4b ba 62 f3 4e 3d
       0.055025745 0.017132204 -0.0007752799 0.050525077
0000b0 32 97 6f 3c 28 88 3a 3c 80 c7 20 bd 7b 0a 36 bc
       0.01462345 0.011385001 -0.039252758 -0.011110897
0000c0 c2 bf 1e bc db ea fd 3b ff 0d f9 3c 22 ef f5 bb
       -0.009689273 0.007748944 0.030402182 -0.0075053135
0000d0 1d 4e 12 3d 5b bf a0 bd e2 39 75 3d 3e 69 54 bd
       0.035719026 -0.07848998 0.059869654 -0.05185818
0000e0 fc 4f 2d 3d 3b 37 8e bc 02 d0 17 bd 30 ae 26 3d
       0.042312607 -0.01736032 -0.037063606 0.040693462
0000f0 97 9a 3d 3d 59 5b 83 3c a4 7e 06 3d 65 b8 1e 3d
       0.046290006 0.016034769 0.032835618 0.03875007
000100 bf eb 4c bd fc a0 50 3d e6 8f 00 bd 82 4c 0a bd
       -0.050029512 0.050934777 -0.031387232 -0.03376437
000110 8b 2d c4 3c 72 6f 74 bd 00 d2 c2 bc 63 0b 4a bd
       0.023947498 -0.059676595 -0.023781776 -0.049327265
000120 5e e7 cb bc e2 9f 16 b9 e8 ca 2b bd a3 57 86 3c
       -0.024890598 -0.00014364676 -0.041941553 0.01639921
000130 b3 22 11 3d 36 3b 41 bd ae aa 52 3b 76 a0 1b 3d
       0.035433482 -0.04717561 0.003214519 0.037994824
000140 05 69 58 bc de 29 ab bc db 48 6f bc 1d 5b 51 bd
       -0.013208632 -0.020893987 -0.014604772 -0.051112283
000150 d4 e4 52 bc b8 88 ba bb 08 2f 5f bc 91 34 b7 3c
       -0.01287194 -0.0056925677 -0.013622053 0.022363933
000160 d5 31 3a bd 6e d0 53 3d 75 32 27 3d 75 fc 7c 3d
       -0.04545768 0.051712446 0.040819604 0.0617642
000170 c1 ce 68 bc 4b ad 76 3d ea be 15 bd 48 22 94 bc
       -0.01420945 0.06022386 -0.036559023 -0.018082753
000180 c3 8a 54 bd 98 40 8c bc 0a cd 4b 3d 7d 10 f8 3b
       -0.051890146 -0.017120644 0.049756087 0.007570325
000190 9c 6b 8b ba 38 9a c3 bb 04 27 67 bd 75 d7 23 bc
       -0.0010636928 -0.005969312 -0.056433693 -0.010000099
0001a0 d3 4d c2 bc 58 50 37 3d f6 e7 97 3c 8e b4 bd bc
       -0.02371875 0.044754356 0.018543225 -0.023157384
0001b0 19 8b 2f 3c 53 33 3a 3d 62 3a 02 bd 48 ca da 3c
       0.010714316 0.045459103 -0.03179396 0.026707783
0001c0 b6 9c 5a 3d 3a e9 d5 3b cc 89 85 3d 5b eb b5 bc
       0.053372107 0.006528047 0.06520423 -0.022206953
0001d0 dd 85 db bc dc 83 41 3d 06 c3 80 bd 22 7e eb bc
       -0.02679723 0.04724489 -0.06287198 -0.028746668
0001e0 09 25 54 3d bf 98 17 3d 3c 68 46 bd e0 bd 1c 3d
       0.051793132 0.037010904 -0.04843925 0.038267016
0001f0 df 12 37 bd 22 2e 17 3b 4b ad b5 bc ae df 46 bd
       -0.04469573 0.0023068269 -0.02217736 -0.04855316
000200 2d 78 1d bd 41 f2 c3 3d fc ff ed 3c 28 47 7b 3c
       -0.038444687 0.09567691 0.029052727 0.015336789
000210 97 c8 25 3d b7 26 28 bd 04 a9 9e 3c 3c d0 2e 3c
       0.0404745 -0.041052546 0.019367702 0.010669764
000220 39 1e 87 bc ff 73 a9 bc 43 1a 61 3d 6e a4 10 3d
       -0.016493903 -0.020685194 0.054956686 0.035313062
000230 23 3e e0 3b e5 a7 30 3d c8 4c 22 bd fd 6c fa 3c
       0.006843345 0.043128867 -0.039624006 0.030569548
000240 6b 8f 1e 3d b9 15 3b 3c 29 47 2d bd fb 2d d7 3a
       0.038710993 0.011418753 -0.04230419 0.0016416901
000250 f7 37 20 3d 2e 40 80 bb f0 bc 0a bd e8 81 78 bd
       0.039115872 -0.003913901 -0.03387159 -0.060670763
000260 d7 bf 11 bd 51 e3 37 3d 14 1c a1 bc ea e9 76 3d
       -0.035583343 0.04489452 -0.019666709 0.06028167
000270 50 42 69 3d 12 d4 f3 bc 66 1e 8e 3c 28 5f e8 3c
       0.056948006 -0.029764209 0.01734848 0.028365687
000280 95 58 93 3b 3e 9f 04 bc 82 1b 8c bd f3 5d 21 3c
       0.004496644 -0.008094607 -0.06841184 0.009849059
000290 9e 29 16 bc c9 31 76 3c ba 6f 0c bd a8 b8 a7 3c
       -0.009165196 0.015026518 -0.03428624 0.020473793
0002a0 1f a9 22 3d c5 ad f2 bc f4 e4 a9 bb 1a 65 f2 3c
       0.039712068 -0.029623875 -0.005184764 0.029589225
0002b0 48 5e 7a 3d 75 57 5a 3d a8 8a 22 3d 74 13 62 bc
       0.06112507 0.05330606 0.039683014 -0.013798583
0002c0 17 2d 5a 3d 7d 1d 27 bd d8 f3 93 3b d5 ae 2f bc
       0.053265657 -0.040799607 0.0045151524 -0.010722836
0002d0 69 cf 14 bd c1 d1 62 3d 8e 7c 0c 3d 48 ea c7 3c
       -0.036330614 0.05537582 0.034298472 0.024403706
0002e0 66 f4 c0 bb 98 53 17 bc ef 6c 02 bd d5 3c 06 3d
       -0.0058885096 -0.009236239 -0.03184217 0.032772858
0002f0 7a 09 db bb dc 38 6a bd 91 d2 81 3d 24 a9 1c bb
       -0.0066844793 -0.05718313 0.063389905 -0.0023904527
000300 64 37 6b 3c 7d f1 3c 3d ac 79 93 3c 86 c7 85 3b
       0.014356468 0.04612874 0.018002354 0.004082623
000310 39 fb 58 bc 3f bc 70 bd d5 8f d4 3c 0d d3 4b 3d
       -0.01324349 -0.058773275 0.02594749 0.04976182
000320 be ae 18 bc f3 84 fc 3c bf 20 db bc a6 9b 2e 3d
       -0.0093190055 0.030825114 -0.026749013 0.042628907
000330 ff 73 85 3d 68 86 d8 3c e6 75 3e 3d fe dd 5c bd
       0.06516265 0.026431277 0.046499155 -0.053922646
000340 24 6f 05 3c ed 52 67 bd a0 77 88 3c d1 4f 50 3d
       0.008144174 -0.05647557 0.016658604 0.05085737
000350 a4 96 7c 3d f4 1f 01 3d 78 6b 5b 3d a0 9c 66 3b
       0.0616671 0.031524613 0.053569287 0.003518857
000360 45 aa e4 bc b5 48 6f 3c 92 e8 bd 3c da f6 44 3d
       -0.027913222 0.014604737 0.023182187 0.04808698
000370 d0 a0 56 3d f5 9e e3 bc 2b c1 31 bd b4 30 fd bc
       0.052399457 -0.027785758 -0.04339711 -0.030907013
000380 fb 04 60 bd 33 ff 37 3d 95 92 af bc c1 8d 05 3d
       -0.05469225 0.04492111 -0.0214322 0.03260589
000390 77 08 03 bc 71 49 c5 3c 71 ae 06 3d 27 f3 fb bc
       -0.007997624 0.024082871 0.032881204 -0.030755593
0003a0 6e 7c ed bc a3 92 9b ba cb 16 35 bc 17 63 b7 bc
       -0.028989997 -0.0011869263 -0.011052798 -0.022386117
0003b0 9d 31 0a 3d 72 e6 6d 3d ec 87 d8 bc 46 6d 3c bc
       0.03373872 0.058081098 -0.026432 -0.011500662
0003c0 e8 18 28 bc 58 4c b8 3c 28 07 13 bb d2 01 10 3d
       -0.010259844 0.022497341 -0.0022434685 0.035157986
0003d0 85 99 33 bc 8d 77 38 bd cc 76 d4 3b fc 77 40 3d
       -0.010961895 -0.045035888 0.0064838883 0.046989426
0003e0 ba 3e 45 bd 4d 06 87 bc c9 5d 7f 3d 06 ea bc 3d
       -0.048155524 -0.016482497 0.0623453 0.09224324
0003f0 a8 93 66 3d db 4e 93 3c ff 4b 3e 3d e3 87 bb bc
       0.05629316 0.017981937 0.046459194 -0.022891944

mon.linear_module.S.weight f4 [256, 256]
000000 10 97 fe 3c ae 69 19 3d 16 c7 22 bb 29 4e f6 bc
       0.031077892 0.0374543 -0.0024837903 -0.030066567
000010 c0 90 fc bc 58 2e 67 bc 00 95 a6 3c 85 6c a5 3c
       -0.03083074 -0.01411017 0.02033472 0.020193348
000020 b1 f2 3f 3d c5 5b 8e bd 03 85 8e bb c1 94 45 bd
       0.046862308 -0.069510974 -0.0043493523 -0.048237566
000030 49 8b 84 3c 60 2b 22 bc 89 0f 42 3d f9 ec a2 3b
       0.016179698 -0.009898037 0.047378097 0.004972097
000040 1d 0a 24 bd 80 87 f5 3c 3b 7d 76 bd f4 fa 39 3d
       -0.040048707 0.029971838 -0.060178023 0.045405343
000050 5a a7 28 3d 8b e4 aa bc e7 58 3a bc 60 c2 7b bd
       0.041175224 -0.02086093 -0.011373735 -0.061464667
000060 46 df 1c 38 c4 85 ed bc 71 cd 56 bc 75 81 34 3d
       3.7401238e-05 -0.028994448 -0.0131105045 0.044068772
000070 a8 a0 31 3d b7 4b b7 bb 49 2a 3d bd 20 b6 92 3c
       0.043366104 -0.0055937427 -0.046182904 0.01790911
000080 f8 0d c7 3c 35 50 5f bd 0f 4b e0 3c 51 ee cb bc
       0.024298653 -0.05451985 0.02737954 -0.024893912
000090 e7 e2 10 3d e3 35 e0 bb 9a 5a e4 bc 32 0e 0c 3d
       0.03537264 -0.0068423613 -0.027875233 0.034193225
0000a0 7f 39 c7 bc da 59 47 bd 5a c0 70 3d 9c ad 86 bd
       -0.024319408 -0.048669674 0.05877719 -0.06576082
0000b0 39 6b 7b bd 7a 1e 32 bc 1b 24 05 3b 32 17 ae 3c
       -0.061381552 -0.010871524 0.002031571 0.021251295
0000c0 5b de 06 3d 3e 14 0e bd ec 26 e2 bc 3c 41 c9 3c
       0.0329269 -0.034687273 -0.02760645 0.024567239
0000d0 93 fe 3f 3d 22 ef 0d bd 92 0a c8 bc dc d6 00 bc
       0.04687364 -0.034651883 -0.024419103 -0.0078637265
0000e0 85 3e 9b 3c bf c2 19 3d b6 8a ba bc 16 be 13 3d
       0.01895071 0.03753924 -0.02277122 0.036069952
0000f0 41 08 56 bc de 04 79 bd ad 6d 1e 3d f2 2c 80 3c
       -0.013063491 -0.060795657 0.038678814 0.015646432
000100 52 03 15 3d 56 3d 01 3d c0 ad d8 3a 43 50 01 bc
       0.03638012 0.031552635 0.0016531274 -0.007892671
000110 bf 52 bb bc 1a bb 26 bd 30 b0 cb 3c 37 fa f9 3c
       -0.022866605 -0.040705778 0.024864286 0.03051482
000120 28 5c 72 38 b2 59 d7 bc c5 a9 11 3d 4e 6e f5 3c
       5.7783123e-05 -0.026287887 0.035562295 0.029959824
000130 86 8b 31 bd 17 fc 05 3b ad 8a c1 3c 55 f0 de 3b
       -0.04334595 0.0020444447 0.023625696 0.006803552
000140 04 fe 4d 3c 12 9d af bb bf 7b 58 bd cc a3 83 bd
       0.012572769 -0.0053593004 -0.05285239 -0.06427726
000150 c5 cf 13 3d 74 98 4f bd b6 18 0f 3d 70 3f 38 3d
       0.036086816 -0.0506825 0.034935676 0.044982374
000160 63 4f 30 3d 6c 2d 6a bd 20 d3 3e bd 8c 7a 52 bd
       0.04304446 -0.057172224 -0.046588063 -0.0513864
000170 03 bb 92 bc 4c 82 63 3d 47 46 94 3c de 1a 37 bd
       -0.01791144 0.055544183 0.018099917 -0.044703357
000180 5e b1 0a bd 41 c6 53 3d af f2 9b bb fb ad d9 bc
       -0.033860557 0.05170274 -0.0047591547 -0.026572218
000190 ec 93 64 bd 45 4f 9f bc 9b 92 07 3d fd 8e cc bc
       -0.05580513 -0.019446978 0.0330988 -0.024970526
0001a0 11 5d 17 3d 47 c2 6e bd c4 25 9f bc e6 25 12 3c
       0.03695399 -0.058290746 -0.019427188 0.0089201685
0001b0 93 01 d7 3c 6c 23 79 bb 5d 1b 80 3c 95 57 f9 39
       0.026245868 -0.0038015498 0.015638048 0.00047558235
0001c0 fd b2 6f 3d 2e 5e 71 bd 8d f7 5b bd c0 e2 70 bb
       0.058520306 -0.058927707 -0.05370288 -0.0036756247
0001d0 b0 ed 2d 3c d8 2a f8 3c 04 0f 00 3d 56 12 7e 3d
       0.010615751 0.030293867 0.03126432 0.062029205
0001e0 ec 63 88 3b da 51 5f bd 2c e5 18 3c 38 48 21 bd
       0.0041623022 -0.05452142 0.009331983 -0.039375514
0001f0 d9 69 55 bd 9b f5 21 bd 33 35 8c bc 27 17 24 bd
       -0.052102897 -0.03954087 -0.017115211 -0.040061142
000200 72 cd 02 3d 92 8d a8 3c b1 dd 00 3d f0 b6 1c 3d
       0.03193421 0.020575318 0.03146142 0.0382604
000210 7c 81 0b bd 32 77 c9 3c 75 43 1b 3d 4a 6b 26 bd
       -0.034059033 0.02459297 0.03790613 -0.040629663
000220 a6 87 74 bd 68 9c 0a bc 37 e6 17 bd e0 39 bd 3c
       -0.059699677 -0.008460142 -0.037084784 0.023098886
000230 56 66 cd bc 65 92 57 3d a2 c9 f1 3c 08 4b 8a bd
       -0.025073212 0.052629847 0.029515091 -0.06752592
000240 85 a3 b4 bc e9 0c 2d bd 5b 6d a2 bb 40 e1 13 3d
       -0.022050628 -0.04224864 -0.004956884 0.036103487
000250 84 21 6e 3d 02 bf a3 3c 2d 95 fc bc 3e ec 5b bd
       0.05813743 0.01998854 -0.030832851 -0.053692095
000260 fa 3f 98 3c 25 37 17 bd d9 6d 2d 3c 5e f3 45 bd
       0.018585194 -0.036917824 0.010585272 -0.048327796
000270 63 07 a0 3c 61 f5 ac 3c 2d 98 fc 3b dd 01 9b 3c
       0.019534772 0.0211131 0.0077085705 0.018921787
000280 d8 1c f7 3b bb 20 aa 3c d4 d1 4c bd ce 05 8b 3c
       0.0075412802 0.02076756 -0.050004795 0.016970541
000290 64 6c 24 bc 11 73 38 3c d7 94 b7 bc 51 be 4e bd
       -0.010035608 0.011257903 -0.02240984 -0.05047447
0002a0 64 79 12 bc 5f fe b8 3c 48 cf 4c bd 65 55 83 bd
       -0.008940075 0.022582231 -0.050002366 -0.06412772
0002b0 07 6e 32 bd 66 e1 3e 3c 54 5c 5b 3d 69 a4 82 bd
       -0.04356196 0.011650419 0.053554848 -0.06379015
0002c0 da 05 2b b9 41 e0 b7 3c f1 b1 be bc 5a 85 46 3d
       -0.0001631001 0.0224458 -0.023278208 0.048467018
0002d0 cc c7 4f bd f1 fe 64 3d aa 24 33 bc 51 d6 28 bd
       -0.05072765 0.055907194 -0.010934034 -0.041220013
0002e0 ec c9 eb 3c a5 cb 01 3d d7 6f 0b 3d b5 dc ce 3c
       0.028782807 0.03168835 0.034042206 0.025251726
0002f0 fc 73 df 3c 38 cb 73 bd 40 f6 a0 ba 70 b4 0f 3c
       0.027276985 -0.059519976 -0.001228042 0.008771047
000300 fd c0 87 bc f2 f3 a6 ba 0e 47 08 3d 65 00 06 3d
       -0.016571516 -0.0012737496 0.033270888 0.03271522
000310 66 30 b0 3c ae a5 94 bb 4a 79 4f bd ff f1 5f bd
       0.021507453 -0.004536352 -0.05065278 -0.054674145
000320 bd 4a 58 bd 8a 62 49 3d 94 33 58 3c f5 2e 00 3d
       -0.05280565 0.04916624 0.013195891 0.03129478
000330 f8 a6 ff 3c bb 78 f7 bc 15 31 b7 3c 00 3f 5b 3b
       0.031207547 -0.030208936 0.022362271 0.00334543
000340 54 1e 7f bd d1 82 b9 3b 65 08 2b 3c 8c a9 f0 bc
       -0.062284783 0.0056613465 0.010439013 -0.029377721
000350 4b 46 d3 3c 6e 9f d5 3c 8f 54 08 bd 9b b7 b6 bc
       0.025790354 0.026076999 -0.033283766 -0.022304347
000360 0c b4 23 3d cb ed b4 bc dd 76 98 3c 4a 09 5d bc
       0.039966628 -0.022086045 0.018611366 -0.013490984
000370 c4 d2 2c 3d e0 c0 85 bd e2 04 63 bd a2 04 48 3d
       0.04219319 -0.065309286 -0.05542458 0.048832543
000380 b4 b5 21 bd b0 06 3d 3c 88 70 b1 3c 26 60 82 3c
       -0.039479926 0.011537239 0.021660104 0.015914988
000390 20 c8 db 3c c0 50 1f bb c3 f4 13 3d a4 94 7e bc
       0.026828825 -0.0024309605 0.036122095 -0.015538368
0003a0 94 48 02 3d 51 e0 56 3d fa 15 22 bd 1c 6e 14 3d
       0.031807497 0.05246002 -0.03957174 0.03623782
0003b0 be bd 40 3d 0b ed 4b 3d 64 2d 82 bd 10 d5 8f bb
       0.047055952 0.04978661 -0.06356314 -0.0043894127
0003c0 5b c7 51 3d 1d fa bd 3c e9 40 3a 3d af 00 68 bd
       0.05121551 0.023190552 0.04547206 -0.056641277
0003d0 15 15 cc bc 67 c2 77 bc c8 30 3c bd 18 79 86 3c
       -0.024912396 -0.015122033 -0.04594496 0.016415164
0003e0 28 d7 3e bd 00 2b 45 bd 30 6b 19 3d 9a 11 16 bd
       -0.046591908 -0.04813671 0.037455738 -0.03663788
0003f0 c3 78 58 3d 8a ec f8 3c 81 ee 17 bd 68 ae df 3c
       0.052849542 0.030386228 -0.03709269 0.027304843

mon.linear_module.G.weight f4 [2, 256]
000000 9e 29 42 3d 71 ca 91 3c 96 26 25 3f c0 31 bb be
       0.04740297 0.017796727 0.64512 -0.36561394
000010 ba 37 da be e9 1d 8f be 1d 95 24 bc 12 19 c6 be
       -0.4262064 -0.27952507 -0.010045317 -0.38691002
000020 9d 36 b9 be 3c 31 0e 3e 08 0c b0 bc a1 3b fe be
       -0.3617448 0.13885969 -0.021490112 -0.49654868
000030 cc f8 4b be a6 1e 9b be 4c 72 db 3c 85 79 c4 be
       -0.19919127 -0.3029682 0.0267879 -0.38373962
000040 23 a7 4d bc 3a f3 2c 3d 47 4f 1d 3b 76 8f 0b 3c
       -0.0125520555 0.042224146 0.0024003552 0.0085180905
000050 ef cc 6c 3e ad 11 f5 be e0 e9 d6 be 2f 25 24 3c
       0.23125051 -0.47865048 -0.41975307 0.010018631
000060 fe b2 d8 be ba 48 d2 be 94 e0 ca be c1 f6 52 3e
       -0.4232406 -0.4107111 -0.39624465 0.20601942
000070 5f d4 60 bd ae 52 16 3e cd e2 07 3e 1f 26 3b be
       -0.054890033 0.14679977 0.13270111 -0.18276261
000080 3e 4d e1 be 1f 3c bd be 26 f6 9d be 20 a0 c5 be
       -0.44004244 -0.3695993 -0.3085186 -0.38598728
000090 66 ec a5 be 39 be 19 bd 3b f7 ef be b1 d2 e7 bc
       -0.3240692 -0.037534926 -0.4686831 -0.028298708
0000a0 f8 9d 2a 3d 1a e6 44 3c d8 84 17 bb cc 01 e0 bd
       0.041654557 0.012017751 -0.0023119953 -0.10937843
0000b0 c8 51 af be 86 e2 a8 be 2c 95 b1 3c 56 12 50 3d
       -0.34242082 -0.32985324 0.021677576 0.050798737
0000c0 bc 60 d8 3c 5c 57 b5 be 06 78 59 3d 48 1b ae be
       0.026413314 -0.35418212 0.05309298 -0.3400519
0000d0 b5 27 ed be c2 65 9c be cd 4a 76 bd 74 be 69 be
       -0.46319357 -0.30546385 -0.06012993 -0.22826558
0000e0 45 17 a2 be 61 6b e1 be bd 7f 72 3d 0c 61 25 be
       -0.31658378 -0.44027236 0.059203852 -0.16150302
0000f0 f8 11 0f be a0 b8 23 3d b6 57 23 be 9e d5 88 be
       -0.13971698 0.039970994 -0.15951428 -0.26725477
000100 d1 fa 9c be 40 ff ee ba 0c ab aa 3b 10 4a fa 3c
       -0.30660108 -0.0018234029 0.0052083787 0.030552894
000110 1e 7d c8 be 59 b8 ee be 78 f7 66 3d c4 dd c4 3c
       -0.39157957 -0.4662502 0.05638835 0.024031527
000120 f2 dc ce be e7 3d dc be ba 7c 87 be 46 2f 16 3f
       -0.40402943 -0.43015978 -0.26462346 0.58665884
000130 53 5c 87 bd aa 70 8d be 40 17 44 3f de f5 8c bd
       -0.06609406 -0.27625018 0.76597977 -0.06882833
000140 28 18 f8 3c 6d 3e 80 ba 6f 40 f1 be c0 ff 94 be
       0.030284956 -0.0009784229 -0.4711947 -0.29101372
000150 4f 61 b4 be 02 df 6f be 31 dd df be a3 99 d9 be
       -0.3523049 -0.23424914 -0.43723443 -0.42500028
000160 80 58 b3 be 55 8b 8f be ff 40 68 3b f6 c6 c7 3c
       -0.35028458 -0.2803599 0.0035439131 0.024386864
000170 84 99 27 3d 58 30 81 3c 29 e1 4a 3d 05 51 e6 be
       0.04091789 0.015770122 0.049531136 -0.44983688
000180 8e d6 a9 be 1b 88 32 be 99 d6 90 3c 84 66 ee be
       -0.33171505 -0.17434733 0.017680453 -0.46562588
000190 8f f5 a8 be e4 8d 24 be a5 9f 8c be 54 9e af be
       -0.32999846 -0.16069752 -0.2746555 -0.34300482
0001a0 a8 c4 f5 be 92 d3 91 be 8e e2 42 bd 4c a5 1f 3d
       -0.480016 -0.28481728 -0.04757934 0.038976
0001b0 e6 d6 1c be 59 d2 d8 3c f1 e3 c6 be 0e 01 e6 be
       -0.15316352 0.02646749 -0.3884578 -0.4492268
0001c0 c1 82 bf 3c 26 cb f0 be ad e2 cc be 50 45 01 bd
       0.023377778 -0.4702999 -0.4001669 -0.031560242
0001d0 c1 0e e0 3e 22 08 0b bf 62 24 26 3d d3 e7 95 bc
       0.43761256 -0.54309285 0.04056204 -0.018299019
0001e0 31 d5 84 be 9b 0e ec be f7 98 e0 be 80 c9 76 3a
       -0.25943902 -0.46104893 -0.43866703 0.0009414181
0001f0 52 96 ca be 81 0a 9d be a2 28 c0 be ee f1 9f be
       -0.3956781 -0.30672076 -0.37531 -0.31239265
000200 a7 35 43 bb 38 3b f0 bd b0 c2 de 3d db b7 09 3d
       -0.0029786618 -0.11730045 0.108769774 0.033622604
000210 94 b5 ff be 5a e0 39 3d 04 3e 18 3b e8 90 c4 be
       -0.4994322 0.045379974 0.0023230324 -0.38391805
000220 03 93 91 be b9 78 6f 3d 3a 5f 94 be 95 50 ad be
       -0.28432474 0.05846474 -0.28978902 -0.33850542
000230 df 06 c2 3e 6b a7 ed bd 84 6a d0 be a7 65 16 be
       0.37895867 -0.11604198 -0.40706265 -0.14687215
000240 eb 28 e0 3c ec 31 7e be ee 93 6c 3e 12 41 b1 be
       0.027363261 -0.24823731 0.23103306 -0.34619957
000250 4f e9 1b 3d 35 7c d7 be 31 11 e0 be 30 7c 97 be
       0.038064297 -0.4208695 -0.43763116 -0.29586935
000260 a2 7f 1b 3f 83 fc 93 3e 29 2e 38 3d 21 34 c0 be
       0.6074163 0.2890359 0.044965897 -0.3753977
000270 78 cd a9 b9 37 99 a5 be e3 33 57 be 32 87 a7 3e
       -0.00032387278 -0.32343456 -0.21015887 0.32720333
000280 37 0c 9a be 8f 0a 28 3d 5d 34 e6 be 8d 7e 2f be
       -0.30087444 0.041025694 -0.44961825 -0.17138119
000290 3b 31 1d 3c c6 4d b9 bb f8 b0 ca be dc 29 a4 be
       0.009594257 -0.0056550233 -0.3958814 -0.32063186
0002a0 61 1f 9a be 37 fd d8 be 1b ce bc be 9e 83 04 3d
       -0.30102065 -0.42380688 -0.36875996 0.032352082
0002b0 c3 45 3d 3d dd 39 16 bf 92 0f b2 be d4 77 f6 be
       0.046209108 -0.5868204 -0.34777504 -0.48138297
0002c0 d3 a7 55 bd 0c 98 5f 3f b8 70 c3 3e 38 6b 75 be
       -0.052162003 0.8734138 0.38171935 -0.23966682
0002d0 d0 2b bb 3e b3 32 bf be ef 13 c6 be 9d f2 d4 be
       0.36556864 -0.37343368 -0.38687083 -0.4159135
0002e0 fb bb 9e be a1 e2 ea be 20 b8 b9 be 27 12 a4 be
       -0.31002793 -0.4587603 -0.3627329 -0.320451
0002f0 73 9d b1 3e c0 91 26 3d d5 1a ca bc 12 f0 cf be
       0.34690437 0.04066634 -0.024670998 -0.40612847
000300 e3 62 24 3d 39 f0 2a 3d 2f b8 b2 bc 9b 43 96 be
       0.04013337 0.041733 -0.021816341 -0.29348454
000310 6f 1c 50 3d 73 79 b6 be 1e 3a 3c 3c a3 60 89 be
       0.050808366 -0.35639533 0.011488466 -0.2683154
000320 3f 05 07 be 17 ef 7a 3c 68 40 64 3d dc 4f 4e bc
       -0.13185595 0.0153157925 0.055725485 -0.012592282
000330 79 aa 98 be 4a d8 a8 be 93 ea cb be e2 84 74 bd
       -0.2981756 -0.32977515 -0.39827403 -0.05969704
000340 f9 c6 93 be fe cf 02 bd be 45 ce ba 70 21 a6 be
       -0.28862742 -0.031936638 -0.0015737338 -0.32447386
000350 46 3c 61 3c f8 c0 e1 3c 08 0b 9a be 60 93 b2 be
       0.01374728 0.027557835 -0.3008654 -0.34878063
000360 83 ab cc be bb 6f 0a be f2 29 93 be de 51 e5 be
       -0.39974603 -0.13519184 -0.2874294 -0.44789022
000370 4f 4b b1 be 0b 37 38 be 5f f9 47 be 2d f1 0e 3d
       -0.34627768 -0.17989747 -0.19528721 0.034897972
000380 3e a9 bf be e6 51 19 3d b3 12 ac be db 00 26 be
       -0.3743381 0.03743162 -0.33608016 -0.16211264
000390 ca 1c 39 3c 0a 32 5f 3d 25 db c4 be bc b7 71 bc
       0.011298368 0.05449108 -0.38448444 -0.014753278
0003a0 77 6d 4e be 0a f5 d7 be 54 69 94 be f6 c7 25 3d
       -0.20158945 -0.42179137 -0.2898661 0.0404739
0003b0 32 72 a4 3c ea 12 4e be 55 00 f6 be 64 74 f3 bc
       0.020073984 -0.20124403 -0.48047128 -0.029718585
0003c0 42 ef 8e be 11 6a 07 bf 1f f6 c5 be fc 9e b7 3e
       -0.27916914 -0.5289622 -0.38664338 0.35863483
0003d0 9d 7c 5d bd 54 a6 28 3d 3d 55 04 3e e4 ad c9 bc
       -0.05407392 0.041174248 0.12923141 -0.02461905
0003e0 a7 c2 d3 be 0f 71 cd be 3b 3b 02 bf e3 3c 16 be
       -0.41359445 -0.4012532 -0.5087163 -0.14671664
0003f0 9f 80 bb 3c 9c 84 94 3d e3 4e dc bb 3d 33 1b bd
       0.02288848 0.07251856 -0.006723271 -0.03789066

mon.linear_module.G.bias f4 [2]
000000 5a d0 10 3f de ec 07 3f
       0.5656792 0.53095806
