rl-cartpole/saved_models/cartpole_04.pt (torch, 272683 bytes, 6 tensors)

fc1.weight f4 [256, 4]
0.33878154 0.8163323 0.7310726 0.4832503 0.3894202 -0.29744473 0.044092473 -0.4087673
-0.010957737 0.49642533 0.727934 0.20698385 -0.23698272 0.057596754 0.053743307 -0.42612228
1.2608232 0.43899292 0.3463763 -0.15490732 0.25007623 -0.6152094 -0.18105122 0.17434704
-0.2036801 0.19299369 0.9038205 0.33651114 0.48914385 0.0545678 -0.4715289 0.24378502
0.12850453 0.37373003 0.20794262 -0.51546854 0.60489684 0.599668 -0.15290366 0.2928275
0.84730566 0.31896186 -0.06627996 -0.20403048 0.005692168 0.17015077 0.7684242 0.09234661
0.7682329 0.23711064 -0.70880413 -0.21175924 -0.14345762 -0.15746005 -0.76483965 -0.40268677
0.9454813 -0.1423571 -0.10784502 -0.3673655 -0.31582776 -0.16658582 0.34676296 -0.11213014
0.43796718 0.41569808 -0.5576003 -0.18638612 0.4064497 -0.31418934 -0.6984079 -0.38735032
-0.30631313 -0.036091793 -0.75419974 -0.02599388 -0.3914757 -0.022963531 0.13004708 -0.3091084
1.019873 0.56492203 0.9465637 0.39061797 -0.27907586 -0.53078085 -0.60771227 -0.38248003
-0.13781422 0.13004088 -0.2937949 0.07030801 0.25516617 -0.21050806 -0.49722686 0.39505202
0.18937986 -0.18137378 -0.08232768 -0.050259404 0.4243201 -0.590692 0.26424065 0.12703797
0.17644267 -0.5090067 -0.03937752 -0.17142972 0.13833392 -0.6506896 -0.32456484 0.28922516
0.22659694 0.4216211 -0.9479835 -0.5015722 -0.02507916 0.3750214 -0.36128724 0.29003072
-0.008954509 0.1931065 0.133983 0.27712342 0.09798602 -0.5272775 -0.75388277 -0.29620922
0.16204251 -0.5015693 -0.18136458 0.06368315 0.20875667 0.30125165 0.4021373 0.03300298
0.011774376 0.22937873 0.6601884 -0.022227595 0.37697965 -0.108226076 -0.99292374 -0.24330659
-0.05724094 0.3848133 0.39176905 -0.2110003 -0.33546743 -0.5068136 -0.651913 -0.3650504
0.77164954 -0.13941087 -0.16547018 -0.12431194 -0.36468068 0.26130217 0.2592928 0.45385048
0.215538 -0.3136469 -0.04426141 -0.13432041 0.048651755 -0.28233156 0.07580901 0.45988956
0.023685321 -0.20749371 0.4622773 0.5481004 0.5292262 0.5114074 0.467565 -0.2990062
-0.10960548 0.1713248 0.9984589 0.5280134 0.35823607 0.09246711 -0.74180925 -0.5026988
0.0052823797 0.49556133 0.46651897 0.29819736 -0.07274721 -0.3026297 0.17662024 -0.30126858
-0.561591 -0.02460928 0.45199645 -0.019368887 1.1090028 0.22109342 0.6553483 -0.026138699
0.020112852 0.3351308 1.0842799 0.40677366 0.70730644 0.036440477 -0.6718624 -0.022312932
-0.18624097 0.42791927 0.37577465 -0.4040679 -0.094719484 -0.2711825 -0.39449704 -0.21588369
-0.15934101 -0.39389542 -0.78750336 -0.28456157 -0.36384958 0.40997416 0.84328586 0.46158284
0.28815207 -0.5618715 0.1844191 -0.070253685 0.1675325 0.3072716 -1.0064038 -0.22073849
0.25099602 0.39139152 1.0876803 0.3070091 -0.4128672 0.26760525 0.5866685 0.42437306
0.6115504 0.053909373 0.101073295 -0.3574561 -0.062069505 0.09951291 -0.47237843 -0.5242016
0.29213086 0.9478937 0.6596002 0.55326205 0.1238143 -0.5583137 0.0092504015 0.12289033
00000000: c674 ad3e 27fb 503f 9327 3b3f 956c f73e
00000010: 1662 c73e ad4a 98be 4f9a 343d f349 d1be
00000020: 1588 33bc 762b fe3e e259 3a3f 93f3 533e
00000030: 99ab 72be 93ea 6b3d f121 5c3d b32c dabe
00000040: a862 a13f aec3 e03e 3c58 b13e 06a0 1ebe
00000050: fe09 803e 5d7e 1dbf 7e65 39be 0888 323e
00000060: 8491 50be 23a0 453e c860 673f 304b ac3e
00000070: 1071 fa3e 7c82 5f3d 3c6c f1be c8a2 793e
00000080: b196 033e 8b59 bf3e e9ee 543e bff5 03bf
00000090: 85da 1a3f d883 193f c792 1cbe 7ced 953e
000000a0: 06e9 583f f84e a33e cabd 87bd 5eed 50be
000000b0: 5e85 ba3b 013c 2e3e 73b7 443f 3820 bd3d
000000c0: e9aa 443f 22cd 723e 3074 35bf 6ad7 58be
000000d0: 8ee6 12be 353d 21be 88cc 43bf f62c cebe
000000e0: 100b 723f 0fc6 11be dadd dcbd 5517 bcbe
000000f0: 2db4 a1be 7995 2abe ea8a b13e 7da4 e5bd
00000100: 3c3d e03e 61d6 d43e e5be 0ebf 01dc 3ebe
00000110: 2d1a d03e 6ddd a0be dcca 32bf c852 c6be
00000120: 13d5 9cbe fdd4 13bd 3c13 41bf 1ef1 d4bc
00000130: 816f c8be 041e bcbc 102b 053e 7543 9ebe
00000140: 338b 823f bb9e 103f 0052 723f 14ff c73e
00000150: 08e3 8ebe 41e1 07bf 0893 1bbf 6cd4 c3be
00000160: 2c1f 0dbe 7029 053e 496c 96be a5fd 8f3d
00000170: 24a5 823e 6d8f 57be 8594 febe 4244 ca3e
00000180: cbec 413e 0cba 39be 6a9b a8bd cedc 4dbd
00000190: 7c40 d93e 9737 17bf 8d4a 873e 3e16 023e
000001a0: 63ad 343e 434e 02bf 534a 21bd 468b 2fbe
000001b0: 68a7 0d3e 9893 26bf 5d2d a6be 5215 943e
000001c0: 0709 683e b9de d73e 0caf 72bf 0967 00bf
000001d0: d072 cdbc ce02 c03e a4fa b8be e87e 943e
000001e0: efb5 12bc b6bd 453e d732 093e 1fe3 8d3e
000001f0: e5ac c83d a9fb 06bf 76fe 40bf bca8 97be
00000200: 79ee 253e d866 00bf a3b7 39be 506c 823d
00000210: 4fc4 553e a83d 9a3e f1e4 cd3e 222e 073d
00000220: 50e9 403c 42e2 6a3e 1b02 293f a516 b6bc
00000230: 7a03 c13e a2a5 ddbd 4030 7ebf 5d25 79be
00000240: 7a75 6abd 4006 c53e f495 c83e 7610 58be
00000250: 63c2 abbe 89be 01bf c5e3 26bf e3e7 babe
00000260: d38a 453f b9c1 0ebe 0471 29be 4297 febd
00000270: 6db7 babe 66c9 853e 07c2 843e 175f e83e
00000280: feb5 5c3e 5496 a0be 744b 35bd 4a8b 09be
00000290: 1047 473d c38d 90be c141 9b3d a576 eb3e
000002a0: b807 c23c 3b79 54be 9caf ec3e 4f50 0c3f
000002b0: 5e7b 073f 98eb 023f ae64 ef3e 5717 99be
000002c0: d778 e0bd c56f 2f3e 019b 7f3f e32b 073f
000002d0: b86a b73e 655f bd3d 36e7 3dbf deb0 00bf
000002e0: d017 ad3b 37ba fd3e 93db ee3e 53ad 983e
000002f0: 7dfc 94bd 48f2 9abe f0db 343e e03f 9abe
00000300: 6ec4 0fbf 6799 c9bc 146c e73e 80ab 9ebc
00000310: cef3 8d3f 5066 623e e8c4 273f d320 d6bc
00000320: b5c3 a43c 4496 ab3e afc9 8a3f a344 d03e
00000330: 0912 353f 9c42 153d 2dff 2bbf 9cc9 b6bc
00000340: f4b5 3ebe 3c18 db3e 8965 c03e fde1 cebe
00000350: 4afc c1bd 6fd8 8abe 84fb c9be 9d10 5dbe
00000360: 4a2a 23be a9ac c9be d299 49bf 0eb2 91be
00000370: 7e4a babe 22e8 d13e 95e1 573f 9654 ec3e
00000380: ab88 933e d0d6 0fbf 5cd8 3c3e 2ae1 8fbd
00000390: a48d 2b3e b452 9d3e d7d1 80bf 4509 62be
000003a0: 8d82 803e 7864 c83e 1c39 8b3f 4c30 9d3e
000003b0: 5463 d3be 8e03 893e e82f 163f 6d47 d93e
000003c0: 918e 1c3f 13d0 5c3d 84ff ce3d 7c04 b7be
000003d0: 983c 7ebd 6dcd cb3d 96db f1be 1332 06bf
000003e0: 2d92 953e 29a9 723f 8fdb 283f 95a2 0d3f
000003f0: 5a92 fd3d a6ed 0ebf ff8e 173c edad fb3d

fc1.bias f4 [256]
0.37042847 0.4578038 0.07802852 0.30047888 -0.24336652 0.45340252 0.3030583 -0.023940504
-0.22214042 0.30324575 0.27494878 -0.19709828 -0.45474532 0.6519585 0.037530206 0.5037581
-0.491967 -0.28366047 0.030099394 -0.32623425 0.025710376 -0.04522991 0.4344652 -0.31732386
0.50558555 0.4620655 0.023750758 0.5342156 0.13620771 0.67540604 0.6539977 0.61405045
0.1513999 0.034957215 0.46154794 -0.056435306 0.5042785 -0.045868937 -0.07075777 0.41722667
0.3319545 0.55553 -0.13448122 0.53756505 -0.39269418 0.046461098 0.69679445 0.54775476
0.16928229 0.037443705 -0.38819492 -0.19695659 0.28810853 0.02105953 -0.20741579 -0.3633834
0.3608291 -0.17736728 0.044203155 0.41318384 -0.46755964 -0.5392255 0.34042636 0.26442507
-0.025781631 0.6914247 0.62960446 0.1808516 -0.41477406 -0.15453275 0.416745 -0.37159333
0.40264326 0.07427349 0.5397424 -0.123913676 0.09359986 0.04443402 0.41366592 0.2123737
-0.048264254 -0.33949795 -0.06322697 0.5773436 -0.21440218 -0.09795131 0.2676051 -0.330693
0.5362879 0.5811355 0.18875042 0.017063132 0.15805052 0.6491199 0.70703137 0.022675404
-0.21714343 -0.1746917 -0.0358174 0.14170314 0.6628398 0.03802451 0.5340931 0.0414513
-0.11603944 0.37105885 0.69815505 0.049729064 0.018227132 -0.07844532 0.5016883 0.03209678
-0.278853 -0.30535933 0.2554125 0.47225064 0.6256188 -0.017955402 -0.024466258 0.56063163
-0.30749437 -0.026456645 -0.2408275 -0.44974747 -0.2511865 0.003624594 0.25666672 0.25378016
-0.27618372 -0.19214812 -0.030063119 -0.12441185 0.40439355 -0.35936213 0.35254878 0.027027404
0.009020831 0.031290513 0.38399214 0.24682848 0.053171147 -0.38934374 -0.33949172 0.3502202
0.48529446 -0.029920809 0.017374804 -0.26149523 0.015788462 -0.12580116 0.56510407 -0.20254327
0.31816727 0.33233657 -0.35318613 -0.044718273 -0.37359634 -0.26931423 0.56266516 0.6145539
-0.23273458 0.43362823 -0.50162697 0.29298782 0.064581335 -0.15853849 -0.022468312 0.09184422
0.43469888 -0.20188777 -0.25241703 0.264223 -0.29969528 0.2057851 0.54420274 0.45853388
0.53893054 -0.26721787 0.034710787 0.6451522 -0.010578695 -0.36916193 -0.07048678 -0.107853994
0.5194995 0.3376048 -0.25030664 0.30091318 0.38509083 0.48235777 -0.20815 -0.108896784
-0.29631323 0.004073285 0.39671996 -0.053329226 -0.027225226 0.6381463 0.14224479 0.6314781
0.5694314 0.48320663 0.61063427 0.5575754 0.22425953 -0.23224732 -0.41761786 -0.33397645
0.2676823 0.020595128 0.2541451 -0.3946307 0.24628915 0.5783063 0.58421344 -0.48138428
0.23710293 -0.045417905 0.6852937 -0.0032559987 0.21043883 0.035607263 0.6248353 0.4711491
0.08196934 -0.11636104 0.014803117 0.30816734 -0.11828063 0.31344134 -0.13199656 0.3699344
0.61569005 0.37198722 0.03943787 0.6682447 0.54046327 -0.23697993 -0.34872445 -0.14908554
-0.18252178 -0.0732203 -0.14199102 -0.28312784 0.16628367 0.030631691 0.5682504 0.0012614868
0.00850894 0.6727685 0.012961563 -0.35699588 0.035347182 0.49360833 0.5788296 0.3772205
00000000: cda8 bd3e 4265 ea3e 6bcd 9f3d 5ed8 993e
00000010: 1335 79be 6024 e83e 752a 9b3e e01e c4bc
00000020: c778 63be 0743 9b3e 16c6 8c3e 22d4 49be
00000030: 61d4 e8be c1e6 263f 46b9 193d 4af6 003f
00000040: 19e3 fbbe f23b 91be 0193 f63c 2d08 a7be
00000050: 919e d23c 0043 39bd 3972 de3e 4678 a2be
00000060: 0e6e 013f d993 ec3e f390 c23c 5bc2 083f
00000070: 097a 0b3e 69e7 2c3f 656c 273f 6932 1d3f
00000080: 9308 1b3e 4c2f 0f3d 0350 ec3e b528 67bd
00000090: 6518 013f 11e1 3bbd 73e9 90bd bc9e d53e
000000a0: f1f5 a93e 3737 0e3f 72b5 09be dd9d 093f
000000b0: 360f c9be fe4d 3e3d 1f61 323f a839 0c3f
000000c0: 5658 2d3e 925e 193d 7cc1 c6be fdae 49be
000000d0: f682 933e 0985 ac3c ce64 54be 640d babe
000000e0: 97be b83e c59f 35be 5e0e 353d d58c d33e
000000f0: fa63 efbe af0a 0abf 5d4c ae3e b962 873e
00000100: 0034 d3bc 3601 313f c22d 213f 2931 393e
00000110: 445d d4be d53d 1ebe 9a5f d53e 7b41 bebe
00000120: 4227 ce3e b31c 983d 8f2c 0a3f 74c6 fdbd
00000130: 49b1 bf3d 7200 363d 05cc d33e 7e78 593e
00000140: bdb0 45bd add2 adbe 247d 81bd cacc 133f
00000150: 3f8c 5bbe b29a c8bd 8903 893e 9850 a9be
00000160: 2a4a 093f 4cc5 143f ca47 413e fbc7 8b3c
00000170: ffd7 213e b92c 263f 0200 353f c5c1 b93c
00000180: d95a 5ebe 62e2 32be 44b5 12bd a11a 113e
00000190: deaf 293f 97bf 1b3d 53ba 083f d7c8 293d
000001a0: 16a6 edbd 6dfb bd3e 4aba 323f b4b0 4b3d
000001b0: 1151 953c f1a7 a0bd a56e 003f ea77 033d
000001c0: d2c5 8ebe 0f58 9cbe 6dc5 823e d6ca f13e
000001d0: 8e28 203f 3517 93bc 766d c8bc 8e85 0f3f
000001e0: e76f 9dbe 9bbb d8bc 7c9b 76be 4d45 e6be
000001f0: 849b 80be 998a 6d3b d269 833e 79ef 813e
00000200: f467 8dbe 7ac2 44be ee46 f6bc a4cb febd
00000210: ac0c cf3e 50fe b7be 4681 b43e 9368 dd3c
00000220: 1ccc 133c 7b2a 003d 9e9a c43e 9bc0 7c3e
00000230: fdc9 593d 1058 c7be dcd1 adbe 1050 b33e
00000240: 8478 f83e 7c1c f5bc 9b55 8e3c b4e2 85be
00000250: ce56 813c 05d2 00be a9aa 103f 8167 4fbe
00000260: d2e6 a23e 0528 aa3e d0d4 b4be 822a 37bd
00000270: 0548 bfbe 8ee3 89be d30a 103f 6853 1d3f
00000280: f951 6ebe 8504 de3e a06a 00bf 8002 963e
00000290: 3843 843d ea57 22be 770f b8bc d318 bc3d
000002a0: da90 de3e abbb 4ebe ce3c 81be 3d48 873e
000002b0: a971 99be 54b9 523e df50 0b3f f4c4 ea3e
000002c0: 5af7 093f c8d0 88be e62c 0e3d b228 253f
000002d0: 4352 2dbc cb02 bdbe 5f5b 90bd 8ee2 dcbd
000002e0: ebfd 043f 89da ac3e 3128 80be 4b11 9a3e
000002f0: a02a c53e 99f7 f63e 4625 55be 4705 dfbd
00000300: 5eb6 97be 3179 853b e11e cb3e bf6f 5abd
00000310: 7007 dfbc 8e5d 233f 9ea8 113e 8ca8 213f
00000320: 42c6 113f dc66 f73e 8752 1c3f 43bd 0e3f
00000330: 4aa4 653e 3ed2 6dbe 02d2 d5be f6fe aabe
00000340: a80d 893e 1db7 a83c 4e1f 823e 090d cabe
00000350: 3933 7c3e e20b 143f 038f 153f 0078 f6be
00000360: 1ccb 723e 2008 3abd 686f 2f3f 9862 55bb
00000370: 477d 573e ecd8 113d 35f5 1f3f 743a f13e
00000380: 8bdf a73d b24e eebd c688 723c 1cc8 9d3e
00000390: 1d3d f2bd 627b a03e 1b2a 07be 0b68 bd3e
000003a0: dd9d 1d3f 1c75 be3e 9b89 213d 1612 2b3f
000003b0: cd5b 0a3f deaa 72be 038c b2be e1a9 18be
000003c0: fde6 3abe 86f4 95bd 1866 11be 22f6 90be
000003d0: 4446 2a3e 50ef fa3c dc78 113f 7958 a53a
000003e0: 1569 0b3c 8e3a 2c3f bc5c 543c 2ac8 b6be
000003f0: 35c8 103d 3bba fc3e 2d2e 143f 0c23 c13e

fc2.weight f4 [256, 256]
-0.15624645 0.03414863 -0.03343596 0.06292852 -0.35740414 -0.023630546 0.15200013 -0.7250976
-0.10878518 -0.09349284 -0.19224684 0.13810584 0.21304783 0.041773994 -0.5766863 -0.07112543
0.15611383 0.040754385 0.2967767 0.07136592 -0.2982477 0.27245748 0.064576805 0.081617065
0.058181424 -0.1696105 -0.051679112 -0.040066592 0.00358182 0.10858052 -0.07337426 0.11630606
0.029012175 -0.30891532 -0.109101996 -0.0125333825 0.02825762 0.33757228 0.24372773 -0.08037999
0.06949248 -0.047012758 0.07307277 -0.013813719 -0.013576877 0.068137266 -0.12929775 0.04269734
0.030575063 -1.1150804 0.042557266 0.3102733 0.15845397 0.28908753 0.40874314 -0.0029829866
-0.016831733 0.0646033 -1.0369695 0.0064584757 0.11026963 0.10841062 -0.2535692 -0.049179967
-0.3310543 0.041416317 -0.053980097 -0.36919636 0.26948676 0.093895905 0.048443608 -0.13298357
0.09160911 -1.0902815 0.13506567 -0.025237933 0.10364623 0.10178471 -0.102205746 0.12701166
0.10860032 0.15720573 -0.5107212 -0.026838874 0.17313993 -0.024426792 0.11117278 0.14908603
0.05833754 0.115829356 -0.062110167 -0.7021001 0.18417488 0.11990829 0.060184192 -0.3659443
0.21534017 0.091033906 0.16809016 -0.03544691 0.06617181 0.21159552 0.09987371 -0.47860196
-0.5382656 -0.06719279 0.02264651 0.22932741 -0.5616 -0.2788534 0.08548266 0.28200233
0.15331428 -0.16081995 -0.68017834 0.04282878 0.045072637 -0.95014596 -0.37086514 -0.38321006
-0.09181195 0.12489765 -0.0111407675 0.009782346 0.084363736 -0.7885397 -0.69306606 0.073467515
0.13060312 0.21797429 -0.6657651 -0.5489966 -0.02053207 0.25621694 0.026785899 -0.5077691
0.5418391 -0.8820221 0.032751974 0.06652966 0.13456813 0.18324088 0.1334001 -0.07310044
-0.19655876 0.29534826 0.02470869 0.09926454 0.140431 0.108875714 0.08319611 0.1800913
-0.11242333 0.04103085 0.13079384 -0.27905545 0.19783558 0.42915085 -0.13016559 -0.004906782
0.046472106 -0.328526 0.0071111247 0.0036625317 0.017739387 0.05731807 -0.16252114 -0.05142478
0.18016797 0.47527114 0.39906502 0.03778281 0.034287322 0.12715812 -0.18239938 0.071568534
-0.046879582 0.13366473 0.12493217 -0.128764 0.09489061 0.16134621 -0.23154277 0.04219479
0.027916446 0.124661356 0.17479627 0.1598979 0.054852244 -0.027288647 -0.039236233 0.1675155
0.15887178 -0.60711455 -0.039705567 -0.6164385 0.2482402 0.08010552 -0.68570787 -0.014324894
-0.06382346 -0.014256647 0.024597766 0.020816606 0.062980056 0.25564557 0.24814294 -0.020296171
-0.5532511 0.11473069 -0.55780834 0.11041991 0.06617649 0.053241424 -0.05986755 0.048680242
-0.08271197 -0.16973193 -0.003839897 -1.118541 0.061049443 0.20872173 0.1484441 0.25598955
0.1195223 -0.38031557 0.3170383 0.02159129 -0.15302274 -0.036057062 0.013535886 -0.016047208
-0.027793001 0.11390596 0.2698853 0.05211095 -0.204876 0.20300393 0.09362291 0.19791467
0.016809605 -0.17211185 -0.04285743 -0.27717668 -0.7311365 -1.1468323 -0.014819511 -1.1823916
-0.65121204 -0.114494756 -0.5189374 -0.003054899 -0.3230054 -0.005128977 0.08380156 0.13882169
00000000: 12ff 1fbe 6fdf 0b3d 25f4 08bd abe0 803d
00000010: adfd b6be d994 c1bc eca5 1b3e ff9f 39bf
00000020: c4ca debd 2d79 bfbd 5bdc 44be 9e6b 0d3e
00000030: 3629 5a3e 351b 2b3d b7a1 13bf 36aa 91bd
00000040: 4edc 1f3e 12ee 263d 1ef3 973e 4c28 923d
00000050: ecb3 98be 8c7f 8b3e d840 843d d926 a73d
00000060: a54f 6e3d 60ae 2dbe 7aad 53bd de1c 24bd
00000070: f8bc 6a3b 775f de3d 3e45 96bd df31 ee3d
00000080: f1aa ed3c 262a 9ebe de70 dfbd d158 4dbc
00000090: 867c e73c 46d6 ac3e c393 793e 449e a4bd
000000a0: 1352 8e3d 7390 40bd 2da7 953d f052 62bc
000000b0: 8d71 5ebc 8d8b 8b3d a166 04be 68e3 2e3d
000000c0: 8e78 fa3c f4ba 8ebf 8750 2e3d 24dc 9e3e
000000d0: c241 223e 4803 943e c846 d13e 367e 43bb
000000e0: b4e2 89bc bc4e 843d 6bbb 84bf 9fa1 d33b
000000f0: 0bd5 e13d 6306 de3d d2d3 81be ef70 49bd
00000100: f37f a9be 28a4 293d 3c1a 5dbd 4e07 bdbe
00000110: 2bfa 893e 7f4c c03d ce6c 463d d82c 08be
00000120: 8f9d bb3d 588e 8bbf a84e 0a3e c8bf cebc
00000130: 7a44 d43d 8174 d03d 3f51 d1bd 580f 023e
00000140: d869 de3d 8afa 203e a0be 02bf 33dd dbbc
00000150: 984b 313e b21a c8bc 8eae e33d 02aa 183e
00000160: 58f3 6e3d f137 ed3d 3b67 7ebd d5bc 33bf
00000170: 5798 3c3e 7a92 f53d b383 763d 0d5d bbbe
00000180: 2282 5c3e fc6f ba3d d41f 2c3e c730 11bd
00000190: 1685 873d 7fac 583e 968a cc3d 510b f5be
000001a0: c6cb 09bf 609c 89bd 2c85 b93c ced4 6a3e
000001b0: 05c5 0fbf dfc5 8ebe 8811 af3d 9c62 903e
000001c0: 6bfe 1c3e fcad 24be 2b20 2ebf 3b6d 2f3d
000001d0: 169e 383d c43c 73bf 09e2 bdbe 1c34 c4be
000001e0: e707 bcbd 57ca ff3d c487 36bc 2246 203c
000001f0: e5c6 ac3d bddd 49bf c76c 31bf 2376 963d
00000200: d3bc 053e a734 5f3e 956f 2abf 0b8b 0cbf
00000210: df32 a8bc de2e 833e 1a6e db3c 28fd 01bf
00000220: f8b5 0a3f 33cc 61bf ef26 063d b440 883d
00000230: 3acc 093e 7fa3 3b3e 099a 083e afb5 95bd
00000240: b346 49be e337 973e e169 ca3c 354b cb3d
00000250: 25cd 0f3e 3bfa de3d b962 aa3d db69 383e
00000260: 343e e6bd f70f 283d d2ee 053e 5be0 8ebe
00000270: 6995 4a3e a9b9 db3e 214a 05be 12c9 a0bb
00000280: 8959 3e3d 8f34 a8be 7004 e93b 1607 703b
00000290: 3152 913c 5ac6 6a3d f16b 26be caa2 52bd
000002a0: f47d 383e bd56 f33e 4052 cc3e 26c2 1a3d
000002b0: dd70 0c3d bd35 023e e7c6 3abe 8692 923d
000002c0: ce04 40bd 68df 083e 70dc ff3d b6da 03be
000002d0: 0256 c23d f137 253e 8c19 6dbe 72d4 2c3d
000002e0: 08b1 e43c 744e ff3d cbfd 323e 46bc 233e
000002f0: bfac 603d 718c dfbc 2cb6 20bd 2f89 2b3e
00000300: 49af 223e dc6b 1bbf 4ea2 22bd eace 1dbf
00000310: ae32 7e3e 5d0e a43d 8d8a 2fbf f6b2 6abc
00000320: e0b5 82bd b694 69bc 4181 c93c 9687 aa3c
00000330: b0fb 803d fae3 823e 2f19 7e3e 2844 a6bc
00000340: dda1 0dbf edf7 ea3d 87cc 0ebf d523 e23d
00000350: 8a87 873d ae13 5a3d ad37 75bd ef64 473d
00000360: e564 a9bd 35ce 2dbe c8a6 7bbb 5a2c 8fbf
00000370: fb0e 7a3d 26bb 553e bb01 183e 1011 833e
00000380: 1cc8 f43d b9b8 c2be d852 a23e 38e0 b03c
00000390: feb1 1cbe 92b0 13bd 9fc5 5d3c 6f75 83bc
000003a0: 26ae e3bc 8747 e93d 682e 8a3e 4b72 553d
000003b0: 04cb 51be 43e0 4f3e 5ebd bf3d 25aa 4a3e
000003c0: 4cb4 893c 173e 30be 468b 2fbd 1aea 8dbe
000003d0: c32b 3bbf 67cb 92bf 89cd 72bc 9c58 97bf
000003e0: d5b5 26bf 3a7c eabd 15d9 04bf b334 48bb
000003f0: f760 a5be fa10 a8bb 27a0 ab3d 4627 0e3e

fc2.bias f4 [256]
0.05131184 -0.07961547 0.00021654027 -0.027293418 0.066122614 0.10906194 0.08281091 0.0015047282
0.1690272 0.029065028 -0.065224014 0.067179985 0.13577397 -0.016561333 -0.06139175 -0.057566553
0.045489814 0.03420882 0.017416231 0.20243801 0.05332763 0.008520848 -0.060587592 -0.005830374
0.13785115 0.0832685 -0.027962556 0.002998014 -0.040900413 -0.07950274 0.003437757 0.060593486
0.050138697 -0.0491081 0.04514423 0.006935367 -0.13076591 -0.032101348 -0.06170284 -0.07485839
0.04532886 0.045450497 -0.016466767 -0.0078936955 0.00069497694 -0.08685164 -0.0021110503 -0.1218877
-0.09484854 -0.070920534 -0.0029356347 -0.0628102 0.0072878785 0.0065739607 -0.045156535 0.09392859
-0.09470448 0.01464509 -0.04531784 -0.027772857 -0.066845894 -0.053759303 0.019152695 0.20480679
0.031149795 0.007988944 0.14233355 0.1259665 0.15568909 -0.062381957 0.005854625 0.0090707615
0.21901596 0.1635017 0.051593732 0.050297115 -0.04890733 -0.07182195 -0.038844377 0.1294391
-0.015906833 -0.047129206 0.124168284 -0.011739213 -0.035322767 -0.024049068 0.021740824 -0.053952366
0.0054233046 0.12786521 0.18856847 -0.0011852643 -0.06226501 0.043236606 -0.1060685 -0.017676339
-0.014955927 0.12712137 0.03980424 0.14602862 0.040640067 -0.06649134 -0.003261434 0.21081977
0.013067132 -0.034971137 -0.021680333 0.017945632 -0.04321818 -0.00776425 -0.038891245 0.14047824
0.1584771 0.0010099132 0.022262763 0.0018730139 0.05647264 0.07848956 0.23063199 0.24431504
-0.0431306 0.015929248 0.009540429 0.026052788 0.24419852 -0.036664564 0.018996099 -0.02096795
0.10639435 -0.034871258 0.14650504 -0.0512961 0.09334806 0.05896652 0.053211715 -0.08965111
-0.033652186 0.10134738 0.018923458 0.11437536 0.09563337 0.020287625 0.14527889 0.050620243
-0.004801255 0.000545712 0.012107389 -0.08786375 -0.014199062 0.22611539 0.0010683228 0.017253954
-0.11793678 -0.02121529 0.02032016 0.21906206 -0.0067091133 0.0742517 -0.11824872 -0.0071271206
-0.042033885 0.13368881 0.025486935 -0.028532632 -0.14067483 0.08641448 0.040364165 0.2505114
-0.03029649 0.14130011 0.030771062 -0.08076031 0.023933215 0.040376518 0.13101076 -0.005912947
0.29315647 0.052206084 -0.023193846 0.24515693 0.1507968 0.027486794 0.08147456 0.15123188
0.18134975 0.09830424 -0.01622247 0.17094316 -0.053100865 0.020166323 0.13639005 -0.014189448
0.11901808 -0.07751139 -0.0005732417 0.036106315 0.15683605 -0.013521887 0.0034526594 0.103557274
0.007833631 -0.013416331 0.17806695 0.12758498 0.021917595 0.005996544 0.19250797 0.12496361
-0.027654652 -0.002421626 0.037147205 -0.01558416 0.032299846 0.10979477 -0.023998544 -0.024718396
0.042822413 -0.10847182 0.17801836 -0.00091208925 0.10566827 -0.05494046 0.15512876 -0.08359576
0.08898775 0.04293246 0.06810069 0.012535622 0.079365514 -0.05404764 0.032101948 0.16242354
-0.0923415 0.11668621 0.19777454 0.10472751 0.11344857 -0.014976333 -0.046209518 0.08414415
-0.15460011 -0.009717854 0.081902936 2.158424e-05 -0.027612869 -0.05030364 -0.008656472 0.05391575
0.19810319 -0.059114866 0.044294894 0.03011168 0.14210732 0.14339913 -0.01284323 0.20696458
00000000: 5d2c 523d 6f0d a3bd 160f 6339 7296 dfbc
00000010: 4b6b 873d de5b df3d c498 a93d 4d3a c53a
00000020: 7715 2d3e c819 ee3c 2b94 85bd a995 893d
00000030: 5508 0b3e a2ab 87bc ea75 7bbd e8ca 6bbd
00000040: 8753 3a3d 8c1e 0c3d 7cac 8e3c e94b 4f3e
00000050: 136e 5a3d 079b 0b3c b22a 78bd b90c bfbb
00000060: da28 0d3e ad88 aa3d bb11 e5bc 547a 443b
00000070: 3187 27bd 55d2 a2bd fe4b 613b e030 783d
00000080: 3c5e 4d3d 9325 49bd 28e9 383d 1342 e33b
00000090: 80e7 05be b47c 03bd 1ebc 7cbd 5b4f 99bd
000000a0: c1aa 393d 4d2a 3a3d 50e5 86bc 8f54 01bc
000000b0: 1d2f 363a 46df b1bd 8c59 0abb 42a0 f9bd
000000c0: f43f c2bd c93e 91bd c763 40bb a2a2 80bd
000000d0: 28cf ee3b 616a d73b 0ff6 38bd a25d c03d
000000e0: 6cf4 c1bd f6f1 6f3c 339f 39bd e783 e3bc
000000f0: 80e6 88bd b732 5cbd 1de6 9c3c dfb8 513e
00000100: db2d ff3c 0fe4 023c e3bf 113e 5dfd 003e
00000110: f66c 1f3e 3984 7fbd 27d8 bf3b 889d 143c
00000120: b845 603e fd6c 273e f353 533d 5904 4e3d
00000130: 0d53 48bd 6317 93bd 481b 1fbd af8b 043e
00000140: 0c4f 82bc 8e0a 41bd f14b fe3d d455 40bc
00000150: 9bae 10bd 8d02 c5bc d019 b23c 28fd 5cbd
00000160: fab5 b13b 19ef 023e 1818 413e df5a 9bba
00000170: 9809 7fbd de18 313d 713a d9bd f8cd 90bc
00000180: b409 75bc 1b2c 023e c509 233d 8788 153e
00000190: 3376 263d 9d2c 88bd c8bd 55bb 23e1 573e
000001a0: 8617 563c e53d 0fbd f49a b1bc b802 933c
000001b0: 8c05 31bd 406b febb 6d4c 1fbd 87d9 0f3e
000001c0: d247 223e 105f 843a 6660 b63c eb7f f53a
000001d0: db4f 673d 22bf a03d cb2a 6c3e b92d 7a3e
000001e0: b6a9 30bd 0e7e 823c 764f 1c3c a86c d53c
000001f0: 2d0f 7a3e 952d 16bd b59d 9b3c fac4 abbc
00000200: 48e5 d93d 2ad5 0ebd 6b05 163e dc1b 52bd
00000210: 452d bf3d e186 713d 87f4 593d 009b b7bd
00000220: e0d6 09bd 378f cf3d 5e05 9b3c a13d ea3d
00000230: 6edb c33d 3c32 a63c fdc3 143e 2c57 4f3d
00000240: d953 9dbb 1d0e 0f3a 125e 463c e9f1 b3bd
00000250: 2fa3 68bc cb8a 673e f706 8c3a 2a58 8d3c
00000260: d788 f1bd b0cb adbc 7776 a63c ce51 603e
00000270: 1fd8 dbbb 4611 983d 632c f2bd 9f8a e9bb
00000280: b92b 2cbd b8e5 083e fac9 d03c 44bd e9bc
00000290: 100d 10be 13fa b03d e554 253d 0843 803e
000002a0: 5830 f8bc fab0 103e 9813 fc3c a965 a5bd
000002b0: 970f c43c d961 253d af27 063e 65c1 c1bb
000002c0: 9b18 963e 0cd6 553d 0501 bebc 6b0a 7b3e
000002d0: 7a6a 1a3e fc2b e13c 22dc a63d 88dc 1a3e
000002e0: c0b3 393e bc53 c93d fce4 84bc b90b 2f3e
000002f0: 4b80 59bd d833 a53c d5a9 0b3e dc7a 68bc
00000300: c0bf f33d 4bbe 9ebd 9945 16ba 37e4 133d
00000310: a199 203e e88a 5dbc 0346 623b d615 d43d
00000320: a158 003c 2cd0 5bbc 2f57 363e a3a5 023e
00000330: 878c b33c a87e c43b cf20 453e ecec ff3d
00000340: 028c e2bc 24b4 1ebb ab27 183d b454 7fbc
00000350: d84c 043d 15dc e03d 9898 c4bc 3c7e cabc
00000360: 8e66 2f3d 7926 debd 724a 363e 4619 6fba
00000370: 9b68 d83d 3f09 61bd 13da 1e3e 4134 abbd
00000380: 363f b63d f2d9 2f3d 6078 8b3d 3662 4d3c
00000390: 638a a23d 0f61 5dbd 557d 033d 5b52 263e
000003a0: 8a1d bdbd 2ef9 ee3d 6985 4a3e 607b d63d
000003b0: b957 e83d 4b5f 75bc 3146 3dbd c553 ac3d
000003c0: 7e4f 1ebe a237 1fbc babc a73d cd0f b537
000003d0: 6234 e2bc 310b 4ebd e0d3 0dbc c3d6 5c3d
000003e0: 90db 4a3e 6e22 72bd 906e 353d c5ac f63c
000003f0: 9584 113e 39d7 123e 696c 52bc 86ee 533e

fc3.weight f4 [2, 256]
-0.37362954 -0.35456583 -0.08439962 -0.025426714 0.30251247 -0.19508559 -0.24803573 -0.053902704
0.500563 0.041355133 0.054934766 -0.16407299 0.19809343 -0.20543636 -0.21609478 -0.052243076
-0.15723293 0.43865415 -0.41806367 0.5340828 -0.039537407 -0.22084598 0.020213582 -0.24436499
0.41256073 0.33422628 -0.27706695 -0.2691604 -0.008213324 -0.23856439 -0.3299363 0.4068098
0.02084813 0.052600324 0.0068600904 0.016227545 -0.18907237 0.009040665 -0.38027334 -0.29894513
0.4569412 -0.21610957 0.005918443 -0.29277503 -0.020947864 -0.3799735 -0.34928715 -0.52217287
-0.23857212 -0.2711881 -0.25986397 -0.31127733 0.3075323 -0.19732307 -0.28539574 -0.087385066
-0.077439405 -0.2032958 -0.23568794 -0.3192207 -0.345791 0.0005399067 0.05348936 0.49443597
0.03897263 0.73623437 0.51204497 0.430409 0.4658772 -0.20784847 -0.3831351 0.027940584
0.40912604 0.29012492 -0.24390787 0.256722 0.13893947 -0.26961595 0.028303865 0.50543505
-0.25222927 0.61713195 -0.148197 -0.0093720965 -0.27601075 -0.34204474 -0.3957391 0.012023346
0.018793888 0.48230356 0.5233492 0.36403993 0.050892048 0.32735318 -0.335774 -0.400505
-0.29638073 0.4027915 0.31990546 0.44724822 0.017483652 -0.45152953 -0.3052933 0.44108674
-0.076160364 0.0097368965 -0.15351827 -0.24770686 0.034925506 0.052513644 -0.13671376 0.5540238
0.519872 0.67735845 -0.0013483339 0.037644777 0.4040392 0.17499332 0.50262713 0.4230964
0.010286756 -0.3133632 -0.1467689 0.03190455 0.46261424 0.0030221194 -0.3459054 0.033024274
0.053947896 -0.15352143 0.051750306 -0.20026466 0.2624517 0.015550392 -0.24814941 -0.29521418
0.014283189 -0.19418465 -0.2826568 0.34448767 -0.21072482 0.056893293 0.5427717 -0.2776223
-0.27205557 -0.020895036 0.15347455 -0.19435456 -0.19309328 0.39475706 -0.20587525 0.053061835
-0.24118589 -0.31827775 0.05786174 0.45210344 -0.19998686 -0.21238321 -0.39579305 -0.35504073
-0.22087656 0.003554225 0.027272195 -0.2752938 -0.25682792 0.4587178 -0.018486515 -0.30727726
-0.032380134 0.47632813 -0.23530628 -0.35774377 -0.39479297 -0.4554862 0.5341457 0.025375886
0.50873435 -0.22589958 -0.12790553 0.50609714 0.52142435 -0.2998962 -0.07995365 0.50402987
0.56352 0.057797763 -0.27833697 -0.30788702 -0.30973125 0.05190754 0.4714929 0.32706156
0.20097582 -0.25509545 -0.20946239 0.05983563 -0.2705731 -0.0056123137 -0.23357704 0.44041878
-0.010496916 -0.2187859 0.52773744 0.35265478 -0.3757311 -0.094192944 0.47048452 0.28945336
-0.29123992 -0.1655881 0.040013555 -0.32469523 -0.092318796 -0.2620811 -0.27550054 -0.19950794
-0.30347064 0.21690527 0.5047542 -0.28353503 0.45410803 -0.4344516 0.10129486 -0.36020106
0.4821433 0.05159562 0.5138431 0.05352389 -0.23171487 -0.29215688 -0.25910768 0.48366576
-0.22310255 0.041569855 0.36949536 0.14338186 -0.04589593 -0.2531187 -0.041689996 0.55427665
-0.23361674 -0.3822914 0.48138 0.05281769 0.04787513 -0.47404683 -0.52086675 0.015643954
0.12624082 -0.15235937 -0.047143955 0.39000627 0.5074285 -0.12466308 -0.24924509 0.36309832
00000000: 5f4c bfbe a789 b5be b5d9 acbd af4b d0bc
00000010: eae2 9a3e 84c4 47be 14fd 7dbe 15c9 5cbd
00000020: e624 003f 0064 293d 4703 613d c002 28be
00000030: 01d9 4a3e e95d 52be f347 5dbe d6fc 55bd
00000040: ab01 21be 4797 e03e 710c d6be a6b9 083f
00000050: faf1 21bd 7325 62be f496 a53c d13a 7abe
00000060: 293b d33e b51f ab3e b8db 8dbe 64cf 89be
00000070: 2d91 06bc 394a 74be 69ed a8be 6049 d03e
00000080: b3c9 aa3c 7073 573d 9cca e03b a1ef 843c
00000090: 309c 41be 4c1f 143c 30b3 c2be 560f 99be
000000a0: 32f4 e93e d44b 5dbe 80ef c13b 9ce6 95be
000000b0: db9a abbc e38b c2be c4d5 b2be 1fad 05bf
000000c0: 404c 74be 2bd9 8abe e40c 85be be5f 9fbe
000000d0: e074 9d3e 0f0f 4abe 641f 92be f1f6 b2bd
000000e0: 8d98 9ebd c62c 50be 2e58 71be e570 a3be
000000f0: 850b b1be 8688 0d3a a917 5b3d b626 fd3e
00000100: c4a1 1f3d db79 3c3f 6115 033f 925e dc3e
00000110: 7587 ee3e 3bd6 54be 492a c4be a7e3 e43c
00000120: f878 d13e 418b 943e fcc2 79be 1171 833e
00000130: 2646 0e3e 1a0b 8abe 82dd e73c 3164 013f
00000140: 3224 81be 5cfc 1d3f f4c0 17be 6c8d 19bc
00000150: 4851 8dbe 7d20 afbe 519e cabe 91fd 443c
00000160: a4f5 993c 7ef0 f63e 37fa 053f 7163 ba3e
00000170: 2e74 503d d69a a73e 92ea abbe fe0e cdbe
00000180: 37bf 97be b03a ce3e a6ca a33e b8fd e43e
00000190: e039 8f3c e12e e7be 674f 9cbe 1fd6 e13e
000001a0: f7f9 9bbd 8187 1f3c e533 1dbe dea6 7dbe
000001b0: 0c0e 0f3d 8c18 573d b1fe 0bbe 81d4 0d3f
000001c0: 5516 053f 5d67 2d3f 94ba b0ba 6931 1a3d
000001d0: 3ade ce3e 7331 333e 2cac 003f 17a0 d83e
000001e0: c889 283c 2471 a0be 964a 16be 58ae 023d
000001f0: c6db ec3e c00e 463b 831a b1be 7644 073d
00000200: 78f8 5c3d b934 1dbe 21f8 533d 2e12 4dbe
00000210: 1260 863e 12c7 7e3c e11a 7ebe 5026 97be
00000220: 0904 6a3c 57d8 46be 64b8 90be b060 b03e
00000230: 3fc8 57be f108 693d 16f3 0a3f 8324 8ebe
00000240: de4a 8bbe 112c abbc 6f28 1d3e e204 47be
00000250: 3fba 45be 991d ca3e f6d0 52be 5e57 593d
00000260: 6ff9 76be 4df5 a2be 6f00 6d3d 1a7a e73e
00000270: 5bc9 4cbe fc7a 59be 63a5 cabe e6c7 b5be
00000280: 772d 62be 00ee 683b f069 df3c 4ff3 8cbe
00000290: f37e 83be 0fdd ea3e 0871 97bc 7253 9dbe
000002a0: 08a1 04bd 48e1 f33e 21f4 70be 312a b7be
000002b0: 4e22 cabe 7d35 e9be c6bd 083f 17e1 cf3c
000002c0: 6a3c 023f 3852 67be abf9 02be 958f 013f
000002d0: 117c 053f ff8b 99be bdbe a3bd 1a08 013f
000002e0: d942 103f 59bd 6c3d 2f82 8ebe 5ea3 9dbe
000002f0: 1895 9ebe 009d 543d 8467 f13e 9d74 a73e
00000300: 9bcc 4d3e df9b 82be 4f7d 56be 3516 753d
00000310: 8f88 8abe 80e7 b7bb d22e 6fbe 927e e13e
00000320: 42fb 2bbc 6909 60be cd19 073f 2b8f b43e
00000330: d45f c0be 3be8 c0bd 59e3 f03e 3b33 943e
00000340: 661d 95be ed8f 29be 41e5 233d 743e a6be
00000350: a311 bdbd 7e2f 86be 680e 8dbe cf4b 4cbe
00000360: 8160 9bbe 6a1c 5e3e 9237 013f 812b 91be
00000370: d980 e83e 7170 debe ae73 cf3d 466c b8be
00000380: 7ddb f63e ee55 533d 398b 033f de3b 5b3d
00000390: aa46 6dbe 9695 95be c3a9 84be 0aa3 f73e
000003a0: ff74 64be 2745 2a3d 7f2e bd3e b2d2 123e
000003b0: 5ffd 3bbd c698 81be 21c3 2abd 13e5 0d3f
000003c0: 3a39 6fbe b3bb c3be 7077 f63e 5d57 583d
000003d0: b618 443d 44b6 f2be 8657 05bf c027 803c
000003e0: 4645 013e 1804 1cbe 051a 41bd e7ae c73e
000003f0: d6e6 013f 5b4f ffbd 1b3a 7fbe 06e8 b93e

fc3.bias f4 [2]
0.00045224864 0.06818763
00000000: c91b ed39 f5a5 8b3d
