rl-cartpole/saved_models/cartpole_02.pt (torch, 272683 bytes, 6 tensors)

fc1.weight f4 [256, 4]
0.16331702 0.50481564 0.4955946 0.5999086 -0.3940332 0.20105788 0.2882819 0.4261776
0.4644179 -0.18170558 0.7603004 0.12126847 0.5193052 0.054233637 0.20697267 0.051433712
0.27622166 0.13367808 -0.09223382 0.21199 -0.603496 0.015040575 0.28778505 0.4447986
-0.082623795 -0.49510247 -0.66106874 -0.27832502 0.08867772 -0.55028754 0.10817989 -0.54749906
0.16093703 0.083148 0.29745135 0.41380212 0.30917078 0.38049507 -0.29423097 -0.21235134
-0.026158791 -0.10579636 0.5891931 0.59583217 0.23770972 -0.1460273 0.4552615 0.19010615
0.3567534 -0.5035899 -0.7179364 -0.078351565 -0.6982365 0.7658678 0.50039554 0.23705424
0.5352516 -0.011792493 0.1477104 -0.4591687 -0.05597968 -0.5265248 0.0785013 -0.24512167
0.37316215 -0.08391853 -0.022839408 -0.46660897 -0.7392124 -0.085057124 1.1097099 0.27822214
0.8923646 -0.15653138 -0.6354614 -0.47672853 -0.66159815 0.17161557 0.5352869 0.4347935
-0.5817946 -0.28367177 0.7090387 -0.11958421 0.59286404 -0.102031656 -0.0450353 -0.5203152
-0.15162183 0.37259534 0.17964587 -0.12118243 0.6148002 0.28531379 -0.69424886 -0.41713244
0.69363487 -0.29220757 -0.5342661 -0.55526286 -0.11833985 0.041500274 -0.47366843 -0.49248436
0.18597919 -0.3974769 -0.6204888 -0.2140097 -0.7844185 -0.25575122 0.88868004 0.22264755
0.26867318 -0.3363275 -0.6047836 -0.4176402 0.36532322 -0.36757055 -0.57379276 -0.45028853
0.0765189 -0.24767311 -0.17814681 -0.28029037 -0.28283742 -0.21815684 -0.40567487 -0.57803184
0.24007651 -0.046247616 0.89374393 0.2365909 -0.18248683 0.33506668 -0.5142231 -0.31889617
-0.7266128 -0.39579198 0.55269724 -0.03841163 0.19466156 -0.41033173 0.37121457 -0.36702687
-0.40270615 0.26751256 0.86279476 0.53702396 0.50911975 -0.47373447 0.019574737 -0.12867053
0.03627217 -0.35404852 0.46681878 -0.27949125 0.40625173 0.29542017 0.09283336 -0.27183133
0.7466133 0.055829823 -0.29192597 -0.5960023 0.092618115 -0.06857147 -0.076240696 0.54662013
0.1477894 -0.5689532 -0.39415002 0.07211729 0.37902325 -0.22278602 -0.5108823 -0.1206198
-0.30507067 0.34919998 0.40525132 -0.5228905 0.15624703 0.46626347 0.15821268 -0.19046943
0.2699729 0.45977652 0.24445435 -0.105473585 -0.10584297 0.034252472 -0.10494414 -0.06756415
0.46728185 0.7534639 0.09182365 0.020539643 -0.25499755 0.11850664 0.7544678 0.23510745
-0.802603 -0.12760335 0.83969647 0.30803666 0.23280743 -0.33435622 -0.69965285 -0.5309721
-0.46801326 0.23227838 0.83840656 0.3677157 -0.7785923 -0.2394531 0.27600902 0.5749017
0.07232875 -0.12948537 0.20685762 -0.19044077 -0.094061345 0.622599 -0.10500527 0.12265029
-0.8294254 0.27061668 0.76084775 0.32558542 -0.4406459 -0.71284723 -0.47301826 0.4286458
0.2044625 0.68287915 0.71329916 0.45634785 0.27942714 -0.34908897 -0.8363828 -0.6409907
0.443302 -0.3188363 -0.48963678 -0.3680204 -0.10919005 -0.55097896 -0.39084822 0.27472976
0.06889984 0.43106544 -0.2943297 -0.39957902 0.19339834 -0.31895038 -0.6136899 -0.5727589
00000000: 943c 273e 993b 013f 93be fd3e 9c93 193f
00000010: b8be c9be 1ee2 4d3e af99 933e f333 da3e
00000020: 2fc8 ed3e 0711 3abe 0ca3 423f 9b5b f83d
00000030: 30f1 043f 1724 5e3d a5f0 533e 28ac 523d
00000040: ed6c 8d3e e8e2 083e 16e5 bcbd e813 593e
00000050: b77e 1abf be6c 763c 9058 933e a4bc e33e
00000060: aa36 a9bd 127e fdbe cd3b 29bf 9e80 8ebe
00000070: aa9c b53d a5df 0cbf 6b8d dd3d e628 0cbf
00000080: adcc 243e 8049 aa3d 8b4b 983e dfdd d33e
00000090: a24b 9e3e 40d0 c23e 71a5 96be a172 59be
000000a0: f64a d6bc c3ab d8bd 5cd5 163f 7588 183f
000000b0: 2d6a 733e 2e88 15be 0918 e93e 30ab 423e
000000c0: 62a8 b63e 45eb 00bf aeca 37bf c976 a0bd
000000d0: a1bf 32bf ea0f 443f ec19 003f 59be 723e
000000e0: 4006 093f 4d35 41bc 6541 173e 2918 ebbe
000000f0: f34a 65bd 54ca 06bf 4ac5 a03d 2d01 7bbe
00000100: 1c0f bf3e 7add abbd b619 bbbc 5fe7 eebe
00000110: 063d 3dbf 6e32 aebd f90a 8e3f 2273 8e3e
00000120: 0272 643f c349 20be 99ad 22bf c315 f4be
00000130: 7f5e 29bf febb 2f3e 9008 093f 419d de3e
00000140: 7ef0 14bf 6d3d 91be 8f83 353f 91e8 f4bd
00000150: f0c5 173f f9f5 d0bd ef76 38bd 6033 05bf
00000160: c142 1bbe d1c4 be3e 16f5 373e 7e2e f8bd
00000170: 8c63 1d3f a614 923e 4bba 31bf 6292 d5be
00000180: 0e92 313f 3b9c 95be aac5 08bf b525 0ebf
00000190: 2a5c f2bd 31fc 293d ab84 f2be e926 fcbe
000001a0: 5471 3e3e 1882 cbbe 5bd8 1ebf 5c25 5bbe
000001b0: a7cf 48bf d3f1 82be 8980 633f b8fd 633e
000001c0: 888f 893e 1e33 acbe 19d3 1abf f0d4 d5be
000001d0: a50b bb3e 3532 bcbe 15e4 12bf 388c e6be
000001e0: f1b5 9c3d 059e 7dbe 1e6c 36be 3882 8fbe
000001f0: 11d0 90be 8264 5fbe 9eb4 cfbe e5f9 13bf
00000200: 9ed6 753e 246e 3dbd 67cc 643f e344 723e
00000210: d4dd 3abe dc8d ab3e 20a4 03bf 5c46 a3be
00000220: 4c03 3abf 3fa5 cabe 917d 0d3f 8355 1dbd
00000230: 5c55 473e 0017 d2be d60f be3e f2ea bbbe
00000240: 802f cebe 68f7 883e 1ee0 5c3f 677a 093f
00000250: ac55 023f 538d f2be 335b a03c 35c2 03be
00000260: 2092 143d d945 b5be df02 ef3e 7a19 8fbe
00000270: 3a00 d03e 5041 973e 6b1f be3d 7a2d 8bbe
00000280: 0d22 3f3f d0ad 643d 5277 95be 9b93 18bf
00000290: 91ae bd3d 336f 8cbd 1524 9cbd 4cef 0b3f
000002a0: 1b56 173e eba6 11bf 08ce c9be 3bb2 933d
000002b0: 560f c23e 0522 64be 2fc9 02bf 8407 f7bd
000002c0: 3932 9cbe 57ca b23e 1a7d cf3e 27dc 05bf
000002d0: 39ff 1f3e 16ba ee3e 8102 223e 6b0a 43be
000002e0: e339 8a3e d467 eb3e 3e52 7a3e 8902 d8bd
000002f0: 33c4 d8bd 524c 0c3d f4ec d6bd 135f 8abd
00000300: 913f ef3e 03e3 403f 0a0e bc3d c142 a83c
00000310: 0a8f 82be 9cb3 f23d cd24 413f 02c0 703e
00000320: 6477 4dbf 74aa 02be 59f6 563f fbb6 9d3e
00000330: 1265 6e3e bd30 abbe 731c 33bf caed 07bf
00000340: 6f9f efbe 62da 6d3e d0a1 563f 3b45 bc3e
00000350: d351 47bf 3233 75be 0e51 8d3e c22c 133f
00000360: 1821 943d d097 04be 7cd2 533e e802 43be
00000370: 3ca3 c0bd a662 1f3f 010d d7bd 1330 fb3d
00000380: 3955 54bf 458e 8a3e ebc6 423f 22b3 a63e
00000390: 579c e1be 287d 36bf 732f f2be 7677 db3e
000003a0: 9e5e 513e 2bd1 2e3f c69a 363f 6da6 e93e
000003b0: 1311 8f3e cabb b2be 2f1d 56bf f717 24bf
000003c0: 7bf8 e23e 833e a3be acb1 fabe 2b6d bcbe
000003d0: 089f dfbd f50c 0dbf 421d c8be 61a9 8c3e
000003e0: 5c1b 8d3d 9cb4 dc3e 62b2 96be 9f95 ccbe
000003f0: 370a 463e 774d a3be c81a 1dbf 54a0 12bf

fc1.bias f4 [256]
0.30301696 -0.1753265 0.5424266 -0.27590033 0.33717662 -0.23080409 0.40836385 -0.24429205
-0.23621671 -0.50119805 -0.06655773 0.68803555 0.4359354 0.017241681 0.061798718 0.07203545
-0.27445453 0.47051626 -0.07471481 0.25616932 -0.15749273 -0.21419095 0.2589099 0.24428345
0.28911227 -0.24606404 0.7185377 -0.021706287 -0.33505782 -0.33118576 0.708096 0.008326011
-0.20399165 -0.109437495 -0.16580237 -0.42111427 -0.35291922 0.50711846 0.6717122 0.675026
-0.17960304 0.46073455 -0.11587436 0.5000517 0.532874 0.5464258 0.5647269 0.55258507
0.10737862 0.3577303 -0.14113751 0.34397152 -0.23984718 -0.043935634 -0.43518943 -0.13521063
-0.30620268 0.0016659102 -0.045631055 -0.44756138 0.23785874 0.4086385 0.6237606 0.36227068
-0.27817595 -0.49450487 0.29136753 0.4239134 -0.22239085 0.13817836 0.65741485 0.2485836
-0.20932916 0.57568556 0.4472189 0.54446924 -0.03810022 0.2848565 -0.28320774 0.72306633
-0.22535552 0.48469377 0.13632202 0.19943434 -0.040952288 0.3295044 -0.1465457 -0.3505213
-0.2214683 0.6094594 0.027015338 0.18759963 -0.22994524 0.6041581 0.49389943 0.43514952
-0.17991424 -0.40856493 0.07145242 -0.26951078 0.6117003 -0.34676588 0.45901823 0.740985
0.3821658 0.2937334 -0.33023006 0.7074398 -0.20121111 -0.4672042 0.6754901 -0.24528131
-0.28778982 0.6385776 -0.20173268 -0.3150794 0.2700262 -0.2436522 0.2989147 -0.4000961
0.15758085 -0.19498485 -0.04290814 -0.45781845 0.46667415 0.08437235 -0.32599086 0.43635452
0.31844372 0.19370084 -0.29631045 0.20741 0.70690674 0.57092977 -0.3439448 0.6721199
-0.0020148053 0.4407046 0.5568556 0.48903963 -0.27052823 0.6100601 -0.35897806 0.20433833
-0.2325914 -0.18455145 -0.048437018 -0.14314866 -0.13361408 0.20803219 0.7104973 0.37480152
0.47496754 0.40789562 0.53337955 -0.1065909 0.16708197 0.12824427 -0.47608405 -0.26461977
0.09090149 -0.15869898 -0.040293377 -0.26352176 0.31872523 0.5230965 -0.14632797 0.52090514
0.6272647 -0.22541606 -0.37282896 -0.45093495 -0.2531132 -0.29600248 -0.062138755 -0.32410592
-0.18392587 -0.24766734 -0.17493236 0.69931 -0.3083409 -0.2678029 0.2634697 -0.11148712
0.5549019 0.36526722 0.72014666 -0.14771977 0.49564952 0.6238433 -0.34772438 0.6373294
0.5335512 0.14902885 0.45987633 -0.18421206 -0.4104791 0.24615933 0.27732965 -0.24415714
0.4357007 -0.37198877 0.5891986 0.7132501 0.21785945 -0.24789189 0.4310997 0.15276524
0.22947752 0.2376217 0.6004723 -0.14105222 -0.04859398 0.19707504 0.017195653 0.63435596
-0.28364384 -0.108730696 0.20054193 -0.03456537 0.5642115 0.22517528 -0.45754704 -0.1890071
-0.22382438 0.22172953 -0.08438077 -0.5644959 -0.060391445 -0.04064421 -0.035893496 0.66638154
-0.14347984 0.46242267 0.2677652 -0.33673212 0.11140956 0.6387554 -0.10320792 -0.3038611
0.7163465 0.54488903 -0.22473347 0.50386417 -0.2547495 -0.368712 0.1810655 0.43939754
-0.15192837 0.24676153 -0.34481022 0.5948711 0.65221965 0.28745434 0.22148542 0.26002288
00000000: 0a25 9b3e ca88 33be 78dc 0a3f cf42 8dbe
00000010: 6aa2 ac3e e857 6cbe 1115 d13e b227 7abe
00000020: cbe2 71be 844e 00bf 6b4f 88bd 1923 303f
00000030: ed32 df3e 6d3e 8d3c a720 7d3d 5287 933d
00000040: 4e85 8cbe 82e7 f03e 1404 99bd a028 833e
00000050: c645 21be df54 5bbe d78f 843e 7125 7a3e
00000060: 8606 943e 36f8 7bbe 16f2 373f 62d1 b1bc
00000070: b38c abbe 2e91 a9be c845 353f d269 083c
00000080: 30e3 50be c420 e0bd 19c8 29be 4a9c d7be
00000090: d4b1 b4be 84d2 013f 55f5 2b3f 81ce 2c3f
000000a0: dce9 37be 66e5 eb3e 894f edbd 6303 003f
000000b0: 6e6a 083f 90e2 0b3f f191 103f 3776 0d3f
000000c0: 52e9 db3d 6d28 b73e 5a86 10be 091d b03e
000000d0: 809a 75be daf5 33bd 26d1 debe a874 0abe
000000e0: 99c6 9cbe ac5a da3a a1e7 3abd c426 e5be
000000f0: 3e91 733e 1139 d13e c6ae 1f3f 8b7b b93e
00000100: 146d 8ebe be2f fdbe 202e 953e 2d0b d93e
00000110: 6dba 63be a17e 0d3e 574c 283f b38c 7e3e
00000120: 625a 56be 2160 133f e0f9 e43e 5662 0b3f
00000130: fa0e 1cbd b6d8 913e 9b00 91be e01a 393f
00000140: 99c3 66be c829 f83e 0098 0b3e 8438 4c3e
00000150: 96bd 27bd cdb4 a83e 1310 16be 8777 b3be
00000160: 96c8 62be 8805 1c3f 454f dd3c 1e1a 403e
00000170: c476 6bbe 1baa 1a3f 63e0 fc3e ebcb de3e
00000180: 703b 38be 6c2f d1be a555 923d 51fd 89be
00000190: 6498 1c3f 4c8b b1be 7004 eb3e 31b1 3d3f
000001a0: 3cab c33e 3964 963e ea13 a9be c61a 353f
000001b0: 490a 4ebe 6435 efbe ebec 2c3f 062b 7bbe
000001c0: 3059 93be d279 233f 0393 4ebe 1652 a1be
000001d0: e040 8a3e f67f 79be 590b 993e 65d9 ccbe
000001e0: e05c 213e 1caa 47be 72c0 2fbd 2e67 eabe
000001f0: eaef ee3e 69cb ac3d 46e8 a6be dc69 df3e
00000200: 0e0b a33e 8359 463e 01b6 97be 4963 543e
00000210: d7f7 343f 7428 123f 8819 b0be 0d10 2c3f
00000220: d30a 04bb 09a4 e13e 178e 0e3f 6763 fa3e
00000230: ad82 8abe e62c 1c3f f9cb b7be 113e 513e
00000240: 712c 6ebe 0efb 3cbe e565 46bd 9095 12be
00000250: 21d2 08be 6406 553e 27e3 353f fce5 bf3e
00000260: f22e f33e b2d7 d03e 908b 083f 544c dabd
00000270: 8917 2b3e 7752 033e 4ac1 f3be 3e7c 87be
00000280: 8f2a ba3d fc81 22be ab0a 25bd 53ec 86be
00000290: f42f a33e a7e9 053f 00d7 15be 0a5a 053f
000002a0: 6b94 203f 78d3 66be 70e3 bebe f2e0 e6be
000002b0: 0e98 81be a38d 97be 3585 7ebd 36f1 a5be
000002c0: 1057 3cbe 829c 7dbe 7821 33be fb05 333f
000002d0: dcde 9dbe 761d 89be 80e5 863e 5c53 e4bd
000002e0: 0d0e 0e3f 4e04 bb3e 885b 383f da43 17be
000002f0: c6c5 fd3e 32b4 1f3f ee08 b2be 0528 233f
00000300: d096 083f 059b 183e e974 eb3e 16a2 3cbe
00000310: 512a d2be 3111 7c3e 27fe 8d3e 5404 7abe
00000320: 2a14 df3e 5075 bebe b8d5 163f 8f97 363f
00000330: 8c16 5f3e 5fd7 7dbe 1ab9 dc3e 7e6e 1c3e
00000340: 28fc 6a3e 1a53 733e 8db8 193f fe6f 10be
00000350: 7b0a 47bd 0ace 493e e6dd 8c3c 2765 223f
00000360: c439 91be 33ae debd dd5a 4d3e 6b94 0dbd
00000370: 2a70 103f 5994 663e 9b43 eabe 148b 41be
00000380: 3832 65be 110d 633e d3cf acbd ce82 10bf
00000390: 055d 77bd 8b7a 26bd 0f05 13bd fb97 2a3f
000003a0: 61ec 12be aac2 ec3e 8518 893e 2768 acbe
000003b0: b22a e43d 7985 233f ad5e d3bd af93 9bbe
000003c0: 7c62 373f d97d 0b3f 8820 66be 3efd 003f
000003d0: 876e 82be d2c7 bcbe 3c69 393e b7f8 e03e
000003e0: 1c93 1bbe 0eaf 7c3e f78a b0be 7949 183f
000003f0: def7 263f 372d 933e 13cd 623e b821 853e

fc2.weight f4 [256, 256]
-0.13771388 -0.37507647 0.06108441 -0.027612144 0.033150315 -0.07049962 0.22615907 0.017768543
-0.09103522 0.088023685 -0.004091093 0.09036608 0.30740476 -0.63964546 0.18899754 0.0945379
0.036315728 -0.10160038 0.12540862 -0.14011501 -0.103143014 0.075703576 0.01398991 0.15547216
0.10200876 0.077706024 0.21787554 -0.097309366 0.1811039 0.28599823 0.14302735 0.12880646
-0.22732201 -0.08796878 0.05246638 -0.023783304 -0.7549803 0.19824119 0.041839376 0.09769536
0.03489199 0.081399985 -0.24389043 0.20403223 -0.030802296 0.0056175566 0.087573335 0.14207485
-0.0039052889 -0.03304235 -0.17909126 0.15212637 -0.63330567 0.098618485 -0.045696236 0.09508426
-0.5514209 0.03359637 -0.1515072 0.21486448 0.15768273 0.07543288 0.08615793 0.14752482
-0.4492345 -0.03516482 -0.018923106 0.1982035 -0.0005481109 0.060357604 0.12616457 0.03355679
0.26530358 0.10507191 0.18487732 0.14442371 -0.5837369 -0.07390316 0.21180974 0.00521778
-0.22943424 0.21366335 -0.14876838 0.14424875 0.16567166 0.070722215 -0.04252981 -0.11436932
0.29215214 0.12607114 0.08789799 0.18777932 -0.25346106 0.09816622 0.07507188 0.11313104
0.13005915 -1.809001e-05 0.19395298 0.06477186 0.027939456 -0.047062 0.1490961 0.04338608
0.15281442 0.08240006 -0.0035380647 0.019671168 -0.5348316 -0.056137085 -0.123930946 -0.06775904
0.12824813 -0.083712384 0.066661105 0.07022949 0.20618947 -0.15015298 0.09720704 -0.072684154
0.15793206 -0.06695641 0.048481792 0.0028753653 0.04148508 -0.021528626 0.085472 0.10186523
0.1238736 0.12509961 -0.40821174 0.1525225 0.08966881 -0.11949768 -0.08416583 0.026896518
-0.09507213 0.10873718 0.07325222 0.010801773 0.07191339 0.21110775 0.19009814 -0.15410188
0.094959706 0.037249625 0.21671821 -0.52744997 0.043746974 -0.0053034103 0.17082945 0.1979329
0.06125615 -0.071070366 0.02225855 -0.03962714 0.109117374 0.14117369 0.009663666 -0.037061512
-0.025219247 -0.03266542 0.028570255 -0.20311405 -0.028035225 -0.038161114 -0.067175604 0.15005016
-0.0102937585 -0.22353694 0.09398491 -0.019409565 -0.0447318 -0.24067014 -0.15491596 0.16316141
-0.1253166 -0.14762901 0.009110985 0.13503116 -0.6410369 0.046261083 0.09997988 -0.40786958
-0.034108598 -0.046837214 0.111597076 -0.26560143 0.06906441 0.04122092 0.12533423 0.04865435
-0.18048413 0.113674894 -0.119385965 -0.21792136 -0.05417376 -0.20784487 0.13550763 -0.10630944
-0.031150905 -0.0013774434 0.10867821 -0.009027985 -0.14239769 0.048063394 0.08181208 -0.0028161407
0.059570853 0.16050361 0.18711239 -0.013908951 -0.0073713744 -0.15843037 -0.230114 0.029039927
-0.6859462 0.10982646 0.19663341 0.30163977 -0.025788413 -0.031614717 -0.036009625 -0.7367345
0.18307099 -0.108446114 0.27979153 -0.19157861 0.07710118 0.14616416 -0.53955835 0.1493145
0.05011879 0.17943972 0.020374978 -0.13388711 0.13282466 0.117823906 0.104535855 -0.017579937
0.13949321 -0.00029252478 -0.43106732 0.058931082 -0.7375047 -0.5274883 0.015130204 0.06935752
0.0035273128 0.036557507 0.044140797 0.16216281 0.0744625 -0.103750974 -0.24428286 0.1165348
00000000: de04 0dbe 060a c0be a533 7a3d dd32 e2bc
00000010: a0c8 073d 1b62 90bd 3e96 673e 568f 913c
00000020: ac70 babd c345 b43d 930e 86bb da11 b93d
00000030: 2864 9d3e cebf 23bf 9288 413e 169d c13d
00000040: cdbf 143d dc13 d0bd 1e6b 003e 4f7a 0fbe
00000050: a53c d3bd 7a0a 9b3d ef35 653c 1834 1f3e
00000060: f8e9 d03d 5624 9f3d c41a 5f3e 224a c7bd
00000070: 4d73 393e 5c6e 923e c375 123e d7e5 033e
00000080: 1ac7 68be fa28 b4bd fde6 563d 34d5 c2bc
00000090: 6446 41bf bdff 4a3e c45f 2b3d 8114 c83d
000000a0: e7ea 0e3d 09b5 a63d 6abe 79be d3ed 503e
000000b0: 1955 fcbc 7b13 b83b a659 b33d 127c 113e
000000c0: e0ef 7fbb 6a57 07bd b363 37be 04c7 1b3e
000000d0: 5220 22bf 7df8 c93d fa2b 3bbd 89bb c23d
000000e0: ec29 0dbf 599c 093d b424 1bbe 6f05 5c3e
000000f0: 9577 213e 8e7c 9a3d 9273 b03d bf10 173e
00000100: 1002 e6be fc08 10bd a104 9bbc dcf5 4a3e
00000110: 1aaf 0fba 8939 773d 4931 013e d872 093d
00000120: dfd5 873e f12f d73d 7b50 3d3e cfe3 133e
00000130: c86f 15bf 8a5a 97bd a7e4 583e e9f9 aa3b
00000140: cff0 6abe 91ca 5a3e bd56 18be f2b5 133e
00000150: d5a5 293e cfd6 903d bd33 2ebd 763a eabd
00000160: f794 953e cb18 013e dd03 b43d 3949 403e
00000170: a6c5 81be 5f0b c93d 49bf 993d 3fb1 e73d
00000180: 3a2e 053e 00c0 97b7 9c9b 463e 1ca7 843d
00000190: 49e1 e43c 15c4 40bd a6ac 183e 9ab5 313d
000001a0: 627b 1c3e 5dc1 a83d e0de 67bb 6e25 a13c
000001b0: b9ea 08bf 00f0 65bd 82cf fdbd 40c5 8abd
000001c0: 7a53 033e 6671 abbd 9e85 883d 7bd4 8f3d
000001d0: 5523 533e b4c1 19be 7c14 c73d 6edb 94bd
000001e0: f1b8 213e 7120 89bd d894 463d a070 3c3b
000001f0: 42ec 293d cd5c b0bc f20b af3d b89e d03d
00000200: 71b1 fd3d 1d1a 003e 2101 d1be dc2e 1c3e
00000210: 48a4 b73d 33bb f4bd 225f acbd 1656 dc3c
00000220: 2db5 c2bd 99b1 de3d 4305 963d ebf9 303c
00000230: 5447 933d a12c 583e 16a9 423e e2cc 1dbe
00000240: 3c7a c23d 1093 183d 61eb 5d3e f606 07bf
00000250: 0730 333d 3bc8 adbb eaed 2e3e ecae 4a3e
00000260: bbe7 7a3d 578d 91bd 9057 b63c 1150 22bd
00000270: ee78 df3d d68f 103e 5a54 1e3c d0cd 17bd
00000280: 9898 cebc 2dcc 05bd 2b0c ea3c 21fd 4fbe
00000290: 21aa e5bc d44e 1cbd 5d93 89bd c0a6 193e
000002a0: 27a7 28bc dee6 64be 297b c03d cf00 9fbc
000002b0: b138 37bd 3c72 76be 4aa2 1ebe c913 273e
000002c0: ff52 00be 0f2c 17be 3e46 153c 9c45 0a3e
000002d0: ff1a 24bf 437c 3d3d 40c2 cc3d 48d4 d0be
000002e0: 75b5 0bbd 61d8 3fbd 028d e43d e9fc 87be
000002f0: a471 8d3d 44d7 283d 9e57 003e c949 473d
00000300: d5d0 38be 62ce e83d a180 f4bd c726 5fbe
00000310: 4ee5 5dbd 49d5 54be 83c2 0a3e c4b8 d9bd
00000320: 2f30 ffbc 558b b4ba ae92 de3d 1dea 13bc
00000330: b3d0 11be 1fde 443d 188d a73d 008f 38bb
00000340: 9100 743d 0f5b 243e 649a 3f3e 5ee2 63bc
00000350: 928b f1bb 923b 22be 01a3 6bbe 24e5 ed3c
00000360: 2c9a 2fbf b2ec e03d 455a 493e 8770 9a3e
00000370: 3942 d3bc 6f7e 01bd d47e 13bd a29a 3cbf
00000380: f676 3b3e ff18 debd d640 8f3e 2f2d 44be
00000390: 39e7 9d3d 0fac 153e 7f20 0abf e6e5 183e
000003a0: 5c49 4d3d 0cbf 373e 6de9 a63c b419 09be
000003b0: 3003 083e a94d f13d e516 d63d cd03 90bc
000003c0: 4fd7 0e3e 035e 99b9 dbb4 dcbe b861 713d
000003d0: 1ccd 3cbf 7909 07bf ade4 773c 510b 8e3d
000003e0: 7d2a 673b 53bd 153d fbcc 343d 020e 263e
000003f0: cc7f 983d 647b d4bd 4925 7abe cca9 ee3d

fc2.bias f4 [256]
0.11048078 0.1374956 0.087821856 -0.06099645 -0.12266816 0.08578855 -0.06403056 0.06925362
0.10943427 0.034483124 0.0042699906 -0.0021149209 -0.009225927 0.023172077 0.21267125 -0.05220991
0.038556717 -0.052152287 -0.028401777 0.038837537 0.06126986 -0.05224009 0.059897844 -0.05858033
0.052300222 -0.06230565 0.1463662 0.015174991 0.017050464 0.04952078 0.10756039 0.023982465
0.007100554 -0.017850773 0.16283081 -0.041469388 0.0311441 0.011956827 0.19054003 -0.10184024
-0.06122147 0.22965883 0.005883145 0.19740315 -0.009519364 0.20034762 0.15815592 0.18094587
0.09151649 0.014794961 -0.059303913 0.1536573 -0.00042502835 -0.07116523 0.024010126 0.11490867
0.15316933 0.051636264 -0.056974802 0.07469388 0.14221731 -0.06639045 0.17067266 0.13983019
-0.12863687 0.014577206 0.12541072 0.057715368 0.010030419 -0.14123009 0.0266485 -0.057204224
-0.0063199806 -0.03032764 -0.042278204 -0.03747981 0.072138555 0.0535755 0.21142071 -0.10832748
0.046758756 0.10266903 0.094099075 -0.02259963 -0.019048896 0.05718779 0.094744675 -0.029621009
-0.08454446 -0.039354794 -0.020924246 -0.05007075 -0.025822943 0.15858561 0.12774646 -0.0071169483
0.035596877 0.033917066 0.085339844 -0.047379673 0.003250873 -0.049854677 -0.020466434 0.17431416
0.12582189 0.042114194 -0.04241424 0.18305431 0.15557265 -0.005256113 -0.056769025 -0.04685551
0.023519868 -0.024141463 0.0022951816 -0.09411667 -0.14059763 4.7481837e-05 0.06378864 0.010594478
0.10908666 0.02928694 0.012892772 -0.063179016 0.024968948 -0.041506857 -0.06273377 0.16814655
0.1172312 -0.036113176 0.017325269 -0.040664665 -0.0122813545 0.20071223 -0.04373387 0.0745597
0.14025286 -0.14854848 0.06759023 0.14953148 -0.022171216 -0.07631461 0.19090568 0.043032255
0.20187172 -0.009114767 -0.018153312 -0.07746575 0.03291032 0.12449501 -0.024343744 0.035454053
-0.027202478 -0.10611008 -0.0614257 -0.03756346 -0.074450865 -0.04409123 0.18715027 0.041171942
-0.015233062 -0.004439423 0.042388413 0.014100535 -0.055745844 -0.0035198852 0.17134476 -0.0048761163
-0.06973043 -0.024868961 0.17577644 0.10573499 -0.07887404 -0.02498556 0.07466392 0.15510911
0.072490916 -0.025204951 0.012845176 -0.052305475 0.13995016 0.02884878 0.012366427 0.045793243
-0.022670984 -0.046202116 0.034391254 0.13864535 -0.0501444 -0.016068226 0.16738117 -0.1389931
0.14689319 0.1873913 0.22130226 -0.06711584 -0.0039696577 -0.009222397 0.043427832 -0.023871496
0.13891427 0.09095851 0.03568902 0.043638673 -0.042980336 -0.054117363 0.11006725 0.1207608
0.0005358817 0.019439088 -0.0120355 0.038899608 -0.019541942 0.023856826 -0.07235331 0.17211102
0.18475652 0.22080591 -0.03002949 -0.059651025 0.076796204 -0.048047453 0.10481858 0.06821141
-0.098474935 0.062230263 0.037573464 0.08389355 0.16512117 0.012621115 0.17919879 0.026303427
0.022826185 0.043308873 -0.08728049 -0.057795554 -0.040418744 -0.10767244 -0.02695295 0.09568441
0.05448157 0.15691963 -0.083086744 -0.013380927 -0.0271202 0.011888628 0.03820646 0.15718229
-0.05605591 0.00042822564 0.10896842 0.11984937 -0.04367593 0.018369464 0.041432988 0.016953036
00000000: bf43 e23d a6cb 0c3e f2db b33d 6ad7 79bd
00000010: 7239 fbbd e8b1 af3d 7422 83bd d8d4 8d3d
00000020: 131f e03d 2d3e 0d3d 47eb 8b3b 7c9a 0abb
00000030: 5828 17bc 5ed3 bd3c 7ec6 593e 0fda 55bd
00000040: a6ed 1d3d a39d 55bd d8aa e8bc 1c14 1f3d
00000050: 1bf6 7a3d b4f9 55bd 7157 753d eef1 6fbd
00000060: c238 563d 3634 7fbd 05e1 153e 87a0 783c
00000070: 6aad 8b3c 4dd6 4a3d 9f48 dc3d e076 c43c
00000080: c4ab e83b c93b 92bc 1fbd 263e cedb 29bd
00000090: e921 ff3c 91e6 433c ed1c 433e 9e91 d0bd
000000a0: 5dc3 7abd af2b 6b3e 66c7 c03b 0d24 4a3e
000000b0: 1bf7 1bbc ed27 4d3e a0f3 213e e049 393e
000000c0: ff6c bb3d 9066 723c a9e8 72bd 5758 1d3e
000000d0: 57d6 deb9 13bf 91bd e2b0 c43c 3d55 eb3d
000000e0: 6cd8 1c3e 8c80 533d 695e 69bd 1bf9 983d
000000f0: 6aa1 113e b7f7 87bd d0c4 2e3e a52f 0f3e
00000100: 62b9 03be 3cd5 6e3c ab6b 003e f366 6c3d
00000110: a056 243c 9f9e 10be f44d da3c fa4e 6abd
00000120: d717 cfbb ac71 f8bc e92b 2dbd 6e84 19bd
00000130: 61bd 933d fc71 5b3d ac7e 583e ccda ddbd
00000140: 1c86 3f3d 2444 d23d 04b7 c03d dc22 b9bc
00000150: 6e0c 9cbc be3d 6a3d 7f09 c23d c2a7 f2bc
00000160: a525 adbd 7e32 21bd 5369 abbc fd16 4dbd
00000170: a38a d3bc 4464 223e f8cf 023e 4a35 e9bb
00000180: 08ce 113d 9fec 0a3d a8c6 ae3d 3011 42bd
00000190: 990c 553b 6b34 4cbd 39a9 a7bc 697f 323e
000001a0: 74d7 003e ef7f 2c3d 8eba 2dbd 9772 3b3e
000001b0: 704e 1f3e 793b acbb a386 68bd 90eb 3fbd
000001c0: bdac c03c 51c4 c5bc c26a 163b 3ec0 c0bd
000001d0: d3f8 0fbe 3c27 4738 9ea3 823d 7694 2d3c
000001e0: d468 df3d 2aeb ef3c 353c 533c 0064 81bd
000001f0: ae8b cc3c 1803 2abd 907a 80bd 9c2e 2c3e
00000200: e916 f03d 69eb 13bd b9ed 8d3c fe8f 26bd
00000210: bc37 49bc 8287 4d3e 4922 33bd c2b2 983d
00000220: 729e 0f3e 181d 18be bf6c 8a3d c81e 193e
00000230: 69a0 b5bc d64a 9cbd c77c 433e 9742 303d
00000240: 76b7 4e3e 1b56 15bc 41b6 94bc 5da6 9ebd
00000250: f9cc 063d 3df7 fe3d 886c c7bc 4538 113d
00000260: bbd7 debc 3e50 d9bd 8499 7bbd 25dc 19bd
00000270: b279 98bd 0199 34bd 52a4 3f3e e9a3 283d
00000280: 1894 79bc 9478 91bb 799f 2d3d ee05 673c
00000290: c155 64bd e0ad 66bb 0075 2f3e d4c7 9fbb
000002a0: d4ce 8ebd feb9 cbbc bdfe 333e 968b d83d
000002b0: b688 a1bd 84ae ccbc 66e9 983d ecd4 1e3e
000002c0: 1e76 943d 9d7a cebc 9374 523c 443e 56bd
000002d0: 184f 0f3e 4754 ec3c 8e9c 4a3c b291 3b3d
000002e0: 80b8 b9bc 6e3e 3dbd d8dd 0c3d 0cf9 0d3e
000002f0: 3764 4dbd 83a1 83bc f865 2b3e 3554 0ebe
00000300: 2b6b 163e 81e3 3f3e 0f9d 623e 0874 89bd
00000310: e713 82bb 8919 17bc 62e1 313d 288e c3bc
00000320: 8b3f 0e3e 7548 ba3d a62e 123d 77be 323d
00000330: 260c 30bd 2baa 5dbd f06a e13d 7051 f73d
00000340: 6a7a 0c3a b93e 9f3c 8c30 45bc 3255 1f3d
00000350: 6c16 a0bc 646f c33c f92d 94bd df3d 303e
00000360: d030 3d3e f21a 623e 6800 f6bc a254 74bd
00000370: 5447 9d3d 68cd 44bd 20ab d63d 6cb2 8b3d
00000380: 3aad c9bd 29e5 7e3d a2e6 193d 62d0 ab3d
00000390: 8615 293e cbc8 4e3c e37f 373e 497a d73c
000003a0: fbfd ba3c a564 313d 1dc0 b2bd 08bb 6cbd
000003b0: 208e 25bd 5e83 dcbd 6fcc dcbc 30f6 c33d
000003c0: 1128 5f3d 8aaf 203e 6229 aabd ad3b 5bbc
000003d0: 2f2b debc 85c8 423c 617e 1c3d 65f4 203e
000003e0: e29a 65bd 7983 e039 d62a df3d 9673 f53d
000003f0: 88e5 32bd 8f7b 963c a3b5 293d 18e1 8a3c

fc3.weight f4 [2, 256]
-0.01392073 -0.21898179 -0.029666489 -0.0016997472 -0.29241166 -0.29643008 0.042500753 0.23645535
-0.30324182 -0.24928607 -0.28850907 -0.38677114 -0.054995827 0.5177675 0.45178786 -0.27338818
-0.31493288 0.056067653 0.046558738 -0.024361534 0.18478581 0.055723477 -0.23872648 0.04146953
0.049020078 0.061292462 0.4758704 -0.27503666 -0.23161584 -0.10191915 0.045451183 0.32438502
-0.24227257 0.054589752 0.4561275 0.006066568 -0.09937762 -0.2565831 0.4673596 -0.31552216
-0.26214474 0.47017634 0.023608128 0.54028744 -0.24114776 0.43023077 0.4342464 0.48056075
-0.054134686 0.21651556 -0.23817626 -0.06750391 -0.2509183 -0.27199075 0.07374267 -0.24865337
0.042540103 0.38348967 -0.29683694 -0.271662 0.4678339 -0.33785197 0.4906488 0.05770169
-0.25448596 -0.27178398 -0.30651772 -0.04943 -0.023556873 -0.23682317 0.017553324 -0.018068232
0.01087126 -0.2817569 -0.24858607 -0.24596682 -0.03249395 0.33615226 0.44259703 -0.4010268
-0.08006066 0.04910833 0.54059356 -0.05540148 0.037668962 -0.0045444365 0.0060527907 0.061182566
-0.28057197 0.01043679 -0.22766866 -0.056776047 0.04974596 -0.24053378 0.27743426 -0.26631373
-0.3071131 -0.2076534 -0.29752856 -0.24162345 -0.2168919 -0.28916165 0.058611482 0.45258722
-0.119292095 0.010155856 -0.26054054 0.5043474 0.45877418 -0.21819139 0.019504096 -0.1534145
-0.27255595 -0.038957193 -0.26179153 -0.2634024 -0.19926122 -0.25794417 -0.27863497 -0.23858164
-0.11833516 0.015667988 -0.10739384 -0.29919484 -0.055791777 -0.3243959 -0.2593939 -0.28296483
0.5444666 0.03880179 -0.22065337 0.05183941 -0.22505233 0.5032695 0.009450293 -0.29808423
-0.28596458 -0.35216716 0.015506968 0.5447818 -0.2745659 -0.24400151 0.516665 0.02864656
0.3997963 -0.23055375 0.032659873 -0.19755417 0.027923143 0.5008217 -0.17227289 -0.32033983
-0.27030534 -0.24350144 0.013691525 -0.28032848 -0.24071456 -0.22430733 0.4547236 -0.28715554
-0.017484913 -0.22510228 0.27204096 -0.22039668 -0.25102055 -0.029575273 0.425681 -0.2185398
-0.24197829 0.2649975 0.4869373 0.4473803 -0.20383027 0.038810235 0.18873966 0.3601508
-0.15250649 -0.2570019 -0.3157108 0.024746932 0.12721786 -0.05722769 -0.28841603 0.4372329
0.032462493 -0.056569014 -0.24018346 0.5118726 0.00453448 -0.0026619257 0.40152037 -0.1707822
0.5241618 0.54475135 0.44862786 -0.26119363 -0.26573482 -0.26480374 -0.28554794 0.035446353
0.5978916 -0.13142431 0.4477663 -0.2329193 -0.0058991597 -0.28425547 -0.25244945 0.51559997
-0.28345528 -0.24724557 -0.2827185 -0.26848587 -0.044871256 -0.27644855 -0.14600793 -0.26849365
0.5043318 0.47963867 -0.23414122 0.039540797 0.07099937 0.03524369 0.23308276 0.080934
-0.18576132 -0.122743785 -0.25310877 0.54900885 0.58371836 -0.27656484 0.5041969 -0.2689722
0.11843021 -0.24953493 -0.27669644 -0.10952918 0.061343394 -0.29715222 0.01304102 -0.09313491
-0.30838904 0.48165557 -0.2866737 -0.05049133 -0.40382388 -0.13200186 0.034837596 0.44517487
0.15302688 -0.059034165 0.43930817 0.0802942 -0.060206074 -0.20912884 -0.3212672 -0.04190714
00000000: c613 64bc c33c 60be 2307 f3bc 0dca deba
00000010: fbb6 95be afc5 97be 4515 2e3d 5a21 723e
00000020: 8342 9bbe d944 7fbe 76b7 93be de06 c6be
00000030: 4e43 61bd 698c 043f bd50 e73e 89f9 8bbe
00000040: e23e a1be 32a7 653d 60b4 3e3d d791 c7bc
00000050: 7e38 3d3e 4d3e 643d b774 74be f4db 293d
00000060: 47c9 483d ce0d 7b3d 49a5 f33e 9bd1 8cbe
00000070: b42c 6dbe fdba d0bd 052b 3a3d cb15 a63e
00000080: 4d16 78be 8199 5f3d 8b89 e93e 10ca c63b
00000090: 7e86 cbbd dc5e 83be c249 ef3e 1f8c a1be
000000a0: d637 86be f4ba f03e d565 c13c 4750 0a3f
000000b0: 70ef 76be 3547 dc3e 8b55 de3e 0f0c f63e
000000c0: 55bc 5dbd 41b6 5d3e 7ae4 73be 7d3f 8abd
000000d0: 5d78 80be 5f42 8bbe 6606 973d fd9e 7ebe
000000e0: 883e 2e3d c258 c43e 03fb 97be 4817 8bbe
000000f0: ed87 ef3e effa acbe 5236 fb3e 9b58 6c3d
00000100: fc4b 82be 4527 8bbe e4ef 9cbe 1d77 4abd
00000110: 58fa c0bc c681 72be fdcb 8f3c d403 94bc
00000120: 5f1d 323c 7142 90be 598d 7ebe bade 7bbe
00000130: 6018 05bd 261c ac3e 149c e23e 6253 cdbe
00000140: d8f6 a3bd d125 493d 5764 0a3f aaec 62bd
00000150: c54a 1a3d 7fe9 94bb 7d56 c63b 929a 7a3d
00000160: 21a7 8fbe 12ff 2a3c f921 69be 008e 68bd
00000170: 6bc2 4b3d 7d4e 76be dd0b 8e3e 465a 88be
00000180: ee3d 9dbe 18a3 54be aa55 98be 236c 77be
00000190: e918 5ebe ff0c 94be 9812 703d 83b9 e73e
000001a0: 6a4f f4bd bf64 263c 9265 85be e91c 013f
000001b0: 73e4 ea3e 906d 5fbe 0ec7 9f3c b118 1dbe
000001c0: 748c 8bbe 9491 1fbd 8a09 86be aedc 86be
000001d0: 220b 4cbe 4211 84be 3ea9 8ebe bf4e 74be
000001e0: b459 f2bd 275a 803c 4df1 dbbd 1130 99be
000001f0: eb85 64bd 3817 a6be 47cf 84be c4e0 90be
00000200: 2a62 0b3f a0ee 1e3d f5f2 61be 9055 543d
00000210: 1e74 66be 45d6 003f 67d5 1a3c 7f9e 98be
00000220: f369 92be 414f b4be f010 7e3c d276 0b3f
00000230: e793 8cbe 88db 79be 2844 043f 31ac ea3c
00000240: 1ab2 cc3e 4816 6cbe 5cc6 053d a44b 4abe
00000250: 13bf e43c da35 003f 4e68 30be 9503 a4be
00000260: 7665 8abe 7158 79be 6b52 603c 3787 8fbe
00000270: e17d 76be d2b0 65be 88d1 e83e 0d06 93be
00000280: 853c 8fbc 3681 66be f448 8b3e abaf 61be
00000290: c485 80be d847 f2bc dcf2 d93e e6c8 5fbe
000002a0: 28c9 77be c1ad 873e d94f f93e 080f e53e
000002b0: e2b8 50be 7bf7 1e3d f844 413e b065 b83e
000002c0: a92a 1cbe c195 83be d9a4 a1be 14ba ca3c
000002d0: 6645 023e 9567 6abd 44ab 93be fedc df3e
000002e0: 64f7 043d e9b4 67bd a7f2 75be 150a 033f
000002f0: fa95 943b b473 2ebb 1494 cd3e 87e1 2ebe
00000300: 782f 063f d374 0b3f 8db2 e53e 2cbb 85be
00000310: 650e 88be 5b94 87be 5733 92be 3230 113d
00000320: 6d0f 193f 1894 06be a041 e53e 6682 6ebe
00000330: bd4d c1bb ef89 91be 0e41 81be 5cfe 033f
00000340: 0d21 91be f12d 7dbe 7bc0 90be fb76 89be
00000350: ecca 37bd aa8a 8dbe 1a83 15be 0078 89be
00000360: e41b 013f 3393 f53e b7c2 6fbe 88f5 213d
00000370: 1e68 913d b05b 103d 3fad 6e3e bac0 a53d
00000380: 3738 3ebe 1861 fbbd 7997 81be d88b 0c3f
00000390: 916e 153f e899 8dbe 0c13 013f b9b6 89be
000003a0: 8a8b f23d 1686 7fbe 28ab 8dbe d650 e0bd
000003b0: 3643 7b3d 5624 98be 01aa 553c 84bd bebd
000003c0: 2be5 9dbe 8f9b f63e e5c6 92be ffcf 4ebd
000003d0: 01c2 cebe 7f2b 07be deb1 0e3d f6ed e33e
000003e0: 14b3 1c3e cfcd 71bd 00ed e03e 4971 a43d
000003f0: a59a 76bd df25 56be 227d a4be d2a6 2bbd

fc3.bias f4 [2]
-0.0025667774 0.114624985
00000000: 6137 28bb 81c0 ea3d
