rl-cartpole/saved_models/cartpole_03.pt (torch, 272683 bytes, 6 tensors)

fc1.weight f4 [256, 4]
00000000: f6ae a13e c62f 9f3c d24a 41be 7a91 22be
00000010: ee29 493e d8f3 9bbe 6773 a23d 9449 073f
00000020: 0b2d 0ebe f758 84be 1bfd d93c 12f0 af3d
00000030: 87e4 e5be f033 29be 1823 003f 6e31 75bd
00000040: 85ef 503f ebe9 e9bd 1dbf c4be 7468 63be
00000050: 28ca 2fbd 7073 99be 154e 23be 557d 01bf
00000060: 3624 fb3d cde4 5d3f 736a 163f e980 1c3f
00000070: 5c39 ba3e abfd a3be eed5 14bf 7ec4 b6be
00000080: cab8 7b3e 3eb7 f2be c1af 2c3f 1ffa 1f3f
00000090: 24aa d03e dec9 493e fbec 0ebd ce7f febc
000000a0: 28ae e0bd bd31 a23e acc4 9a3e 53dd 153f
000000b0: d807 bfbe 337a 2dbf 4324 0dbf ef27 dabd
000000c0: e262 e4be 5962 1abf 2400 61be aee3 b3be
000000d0: 0f49 bfbd 988a 0ebe 562f 43bf aa99 28bf
000000e0: bcd1 ffbe ba19 b4be 62e2 5fbe f2b8 a83e
000000f0: 4226 acbe edbd b8be c8c7 f23e 4349 723e
00000100: 0c8f 26be 313d 55bf cef3 bfbe 5968 3fbf
00000110: f88d 3a3f 3c92 253e 2e3f 323e 3e3c 20bf
00000120: 92ec 10be 3c02 5cbf cf64 a6bd 099c d93d
00000130: 7708 dfbd caf1 29bf 1a87 24bf b2bb 2cbe
00000140: dd25 2c3f 1d9a 8b3e 9660 3f3d 67a3 a9be
00000150: 92b4 fb3d 262f e9be 9003 0cbf ccb9 9bbe
00000160: 8b8b 603c cfe5 d73e 0502 083f dcb4 f33e
00000170: 700d 56bf 4cb8 763e 2680 843f 48ad 163f
00000180: c766 c9bd bae4 53bf 9395 1cbd 094a a0bb
00000190: d475 cebe f675 d3be cceb d53e 76e2 113f
000001a0: 2702 97bd 94ca b43e ac92 3f3f f30c 003f
000001b0: 42dd 3dbf d055 513e 2525 753f 87ab ac3e
000001c0: 0913 d83e 58ff 073f de91 d13e 6f15 9cbe
000001d0: c846 2cbe 8381 b8be dcb2 3f3f 5376 cc3e
000001e0: bb8d 15bf f959 9bbe 26d9 30bf 5bfd 58be
000001f0: b422 95be d092 483e 9840 e7be ac40 153e
00000200: 7b4d c33e bf07 863e 987b d13e 499d 7bbd
00000210: b356 8f3d b034 8d3c 3497 34bf b40f 0dbf
00000220: 8076 1b3d ba34 0f3d aacc 403f dec0 163f
00000230: 85e2 58be 2eb3 4cbf 27db 9fbd be84 513e
00000240: 774c bd3e fa67 a5be f295 173e 4760 22bf
00000250: 73fe 223f 136f 31bd 621c c8bc b28f 20bf
00000260: e94e 8b3e d89c 263e 898d 963f c341 e93e
00000270: 4105 ef3d dd3f a93d bcef 7e3e d7a4 0e3f
00000280: a01c 313e 5304 51bf 1641 08bf f612 bbbe
00000290: b686 f8bd 89a8 54bd c265 4abf 1339 85be
000002a0: 0835 39be 9ab9 d23e 3d54 6d3d 429f efbe
000002b0: 9872 1a3e 8479 e63e aa81 ff3e 37a3 a03e
000002c0: b2fa ff3e faa1 1abd b685 42bf 8faf b5be
000002d0: d81b 953d 1801 133e fce0 173f 9fa8 433e
000002e0: f35b 8a3e fdcb 09bf 8f11 fdbe b9d9 1b3e
000002f0: a822 b1be a96a e23d 7751 8cbe 3ffb 6fbe
00000300: b578 573e edad 453f 662a d93e 5ab8 a1be
00000310: 1712 823e f32f 953e ab64 c53d bb35 41be
00000320: 5393 d93e 1f5c 8d3e f91c b7be 7697 78bc
00000330: 1489 913e 34a3 6d3e 62e2 513f 6255 4a3e
00000340: c96e a03d 8b48 95be caec d0be a94e 023f
00000350: d2f3 fe3e 160a 8b3d 05a4 6bbd 76e7 c9be
00000360: a41e d73d b861 093f 9801 e03e e904 973d
00000370: 9e9b 623e 478a 743e b9b2 17bf 23da b5be
00000380: 2450 9a3e e931 be3d 5b3a 76be d44c 373e
00000390: 210f f6be a02e 6ebe e7ae 583f 6033 063f
000003a0: b5fb 5dbf 07fc acbe e501 a53e cf61 eebd
000003b0: 17d4 01bf 7e09 5c3e a733 46bf 41cc 21be
000003c0: f68d 43be 7401 5cbf 571c eabe 184a e9bd
000003d0: 97b4 0abf 11b6 80bd 77fe 0a3f b150 803e
000003e0: f526 cfbe 0623 ba3e a510 28bf 685f 0ebe
000003f0: 636d 82bf 7914 bebe 0b3c 413e b74b e63d
0.31578797 0.01943196 -0.18876198 -0.15875807 0.19644901 -0.30459476 0.079321675 0.52846646
-0.1388437 -0.25849125 0.026609948 0.08590712 -0.44900915 -0.16523719 0.5005355 -0.059861593
0.8161548 -0.114215694 -0.38427058 -0.22207814 -0.0429174 -0.29970884 -0.15947755 -0.50581867
0.12262766 0.8667725 0.5875618 0.611342 0.36371887 -0.3202947 -0.5813893 -0.35696787
0.2458221 -0.47405428 0.6745568 0.6249103 0.40754807 0.19705912 -0.03489397 -0.031066801
-0.10970718 0.31678572 0.30228174 0.5854084 -0.37310672 -0.67764586 -0.55133456 -0.10652148
-0.44606692 -0.60306317 -0.2197271 -0.35134643 -0.09340107 -0.13920057 -0.76244104 -0.6585947
-0.49964702 -0.35175878 -0.21863702 0.32953602 -0.33622938 -0.36082402 0.47418046 0.2366076
-0.16265506 -0.83296496 -0.37490696 -0.74768597 0.7287288 0.16169065 0.17406914 -0.6259192
-0.14152744 -0.8594091 -0.081246965 0.106254645 -0.108902864 -0.66384566 -0.6426865 -0.16868475
0.67245275 0.27266017 0.04672297 -0.3313248 0.122903004 -0.45543784 -0.54692936 -0.3041519
0.013705145 0.42167518 0.5312808 0.47598922 -0.83614254 0.24093741 1.0351608 0.58858156
-0.09834056 -0.82770884 -0.038228583 -0.004891638 -0.4032427 -0.41300935 0.4178146 0.56986177
-0.073734574 0.35310805 0.7483318 0.5001976 -0.7416574 0.20442891 0.95759803 0.33724615
0.42202023 0.53124 0.409316 -0.30485103 -0.16823876 -0.3603631 0.7488229 0.39934024
-0.5841939 -0.3034208 -0.6908134 -0.21190397 -0.2912804 0.19587255 -0.4516647 0.14575452
0.3814505 0.26177785 0.40914607 -0.061429296 0.069989584 0.017237037 -0.7054322 -0.55102086
0.037954807 0.034962393 0.7531229 0.5888804 -0.2118016 -0.79960907 -0.07805472 0.20460793
0.369724 -0.3230589 0.14803293 -0.6342816 0.6366951 -0.04331882 -0.024427596 -0.6271926
0.2720864 0.16270769 1.1761943 0.45557985 0.11670924 0.08264134 0.24896139 0.55720276
0.17296076 -0.81647223 -0.53224313 -0.36537904 -0.12135069 -0.05191854 -0.7906152 -0.26020107
-0.18086636 0.41157228 0.057941664 -0.46801192 0.15082777 0.45014584 0.49903613 0.31374523
0.49995953 -0.03775213 -0.75985277 -0.35485503 0.072807014 0.14355886 0.59327674 0.19107293
0.27023277 -0.53826886 -0.4942746 0.15219773 -0.34596753 0.110555 -0.27405903 -0.23435687
0.2104214 0.77218515 0.4241516 -0.31585962 0.25404426 0.29138145 0.096383415 -0.18868153
0.42495212 0.27609345 -0.35764292 -0.01517283 0.28424895 0.23206788 0.8198606 0.19759133
0.078336306 -0.29156908 -0.40805656 0.50901276 0.49795395 0.06789033 -0.057529468 -0.39434403
0.10503891 0.5366473 0.43751216 0.073739834 0.22129676 0.23880874 -0.59257084 -0.35517988
0.30139267 0.09286863 -0.24045698 0.17900401 -0.48058417 -0.23259974 0.8464188 0.5242214
-0.867122 -0.33786032 0.32228008 -0.11639749 -0.5071425 0.21487996 -0.77422565 -0.15800573
-0.19097123 -0.8593972 -0.45724747 -0.113910854 -0.5418181 -0.062847264 0.5429453 0.25061563
-0.4045941 0.36354846 -0.656504 -0.13903582 -1.0189632 -0.37124994 0.18870561 0.1124491

fc1.bias f4 [256]
00000000: f595 b1be 7d0b 5bbe a1de ccbe 2bbf e4be
00000010: f9d2 ddbd 566d aabe 46eb 553d 8129 9ebe
00000020: 351c 45be 68b4 da3e 4d9b debe eaf0 62be
00000030: af69 bd3e 61ee 0a3f a8fd d33e d27e 8c3d
00000040: 72c4 83bd b5f5 a43d a075 583e ee40 f63d
00000050: 67de 55be 9203 1d3f 7d97 163f 9ed0 053f
00000060: 91c0 0e3f 7fcd b5be cdcb cc3e a0cb 84be
00000070: 3a96 c63e 2b45 8dbe eb36 a4bd 580a dabe
00000080: 03ea 19bf 47eb 813e 471e fabe 796f e93e
00000090: d52a 78be 6f4f 7ebe b5b6 df3e 0ca8 a2be
000000a0: 4091 d63c 9038 8dbe b0e2 e63e ddf9 023f
000000b0: 26b1 213e f755 203f 2e76 183e 4681 2a3f
000000c0: a5c1 2cbe 4a50 06bf bc9a 0b3f 22b1 aa3e
000000d0: 3c62 013f a0b2 69bd 0969 1d3f b719 373f
000000e0: 75d8 0f3f 541f 8d3e 28d9 d03e 7683 133f
000000f0: ee01 643d 70ae 11be 9c1a 1a3f 0668 363e
00000100: cb22 83be c141 c93e af54 e4bd 2bf6 85be
00000110: dc8f b9bd 5696 453e 987a 0d3e 9678 49be
00000120: d564 fabd 6d28 d73e 7dcd 203f 0b2d c9bc
00000130: 25dc 8ebd 0456 04be 342b b0bd 8d24 1abe
00000140: 664c 023f f313 103e def2 313f b993 853e
00000150: 1700 803e 640f cbbe fa6d 80bd e77c 2a3f
00000160: 945f 8fbe 4941 a53e 349d 86be fc6a a53e
00000170: 62a8 d4be 66c4 ed3e 16b2 e73e 0a5b 0a3f
00000180: fd88 98be d93e 2a3f e986 e7be f3ba 833e
00000190: 4b62 173f d55e 87bd 9575 0b3f 4b6b 9ebe
000001a0: 45fd 8dbe ed70 6d3e c1a0 f23d 3873 81be
000001b0: 37cb c03e 08ee a83e e59a ee3e 87fb 003f
000001c0: fbeb 043e b8c8 903d 32f6 033f ae9f c23e
000001d0: e8b5 cfbe e23a cfbe 715e 4e3d 905a 263f
000001e0: 418d 5cbe 4689 1a3f 8c1f 833e 5d17 993e
000001f0: 6471 043d ab67 b0be 1f04 c9be 994c f73e
00000200: 1dcf 8ebe aeb7 0f3f dc00 54be 705a e03d
00000210: 6b94 3c3f 3060 a0be e37e e73e c54e 0e3f
00000220: 5ad9 b33e 61b6 1e3f 7e37 7c3e 98ce da3e
00000230: ca31 c4be 5c53 78be ad13 b9be f48b a73e
00000240: 4158 24be c63b f6be 87a6 a53e a1d7 153f
00000250: 9c6a f83e ca4e b03e 3fe7 ba3e 415d 98be
00000260: ee61 cc3e c473 9b3e 8a8f e7be 2a3a dc3d
00000270: 118d f13d 47e0 00be 9453 9f3e 39b4 edbc
00000280: 7e55 e5bd 272d 81be 08be 2d3e 053d 0dbc
00000290: 2d7d bcbe 9dc5 193f 9dc6 283f 312d 18be
000002a0: 90f9 933e 02d9 0d3f ab6a 493d d6a9 953e
000002b0: bfcb 9ebe 7b14 b83e f03d 303e f909 f03e
000002c0: 8976 79be 5807 973e b6df b83e 0938 92be
000002d0: e697 ab3e 3aba 99be 2c82 e53e d780 973e
000002e0: 2698 8a3e 7bb2 a0bd 962e 90be 2e3e fdbe
000002f0: 0854 313e e9dc c7be fcd8 003d d06a b33e
00000300: 789a 043f f091 de3e 1364 1b3f 55bd cfbe
00000310: 5f34 163f 609d cb3e 0be0 a6be fda9 bb3e
00000320: d22c 86be 9c89 2d3f 5c74 f73d cebe 6fbe
00000330: 60a3 dfbc 6950 ffbd 7dc6 bc3d c50c ebbe
00000340: df17 103e 017a 893e 1527 293f 2628 8fbe
00000350: be7c 253f 79c6 1f3f 66fe 263c 903a 263f
00000360: cd92 153f 2b8d 923e 210a 043f 6509 0c3f
00000370: 79bb 943e d596 273f ff4c bcbe 8ee3 253f
00000380: 3801 c4be f9fb 723e 634f b3be 64f8 6bbe
00000390: 3142 b13e 9abb bc3e 3b87 59bd b006 f53e
000003a0: a4b7 273f df53 f8bc bd10 cabe d972 033f
000003b0: f26d 8fbe d3e8 ffbe a9a1 143f 781f ba3d
000003c0: 6ad7 5c3e eb0b ce3e 6383 90be 85d9 0ebd
000003d0: 7966 973e 9581 213f 8ae1 103f fe51 98be
000003e0: 1792 bcbd 3c82 0b3e 4414 f13e cb55 3cbe
000003f0: c457 1a3f 7f0f bebc fb2f bbbe 93a2 163f
-0.3468472 -0.21391101 -0.40013602 -0.446771 -0.108312555 -0.33286542 0.052226327 -0.3089104
-0.19249041 0.42715764 -0.4347786 -0.22162214 0.36994693 0.5426999 0.41404462 0.068601266
-0.06433953 0.080546774 0.2113862 0.12024103 -0.20885621 0.6133357 0.588249 0.5227145
0.55762583 -0.35508344 0.39999238 -0.25936604 0.3878649 -0.27591833 -0.08018287 -0.42586017
-0.601227 0.25374815 -0.48851225 0.4559286 -0.24235089 -0.24834989 0.43694082 -0.31768835
0.026192307 -0.27582216 0.45094824 0.5116251 0.15790233 0.6263117 0.14888832 0.66603506
-0.16870745 -0.5246626 0.5453298 0.33338267 0.5054052 -0.057055116 0.61488396 0.7152361
0.5618966 0.27562964 0.40790677 0.5762247 0.055665903 -0.14226699 0.6019685 0.1781312
-0.25612482 0.3930798 -0.111489646 -0.26164374 -0.09060642 0.1929563 0.13816297 -0.19674906
-0.122262634 0.4202303 0.6281355 -0.024557611 -0.06975583 -0.12923437 -0.0860199 -0.15053006
0.50897825 0.1407011 0.6951121 0.26089266 0.2500007 -0.3966018 -0.06270976 0.66596836
-0.28002608 0.3227637 -0.2629181 0.32308185 -0.41534716 0.46438903 0.45253056 0.54045165
-0.29792014 0.6650215 -0.45220116 0.25728568 0.5913436 -0.06609885 0.5447629 -0.30941233
-0.27732292 0.23187609 0.118470676 -0.25283217 0.3765504 0.32994103 0.4660255 0.503838
0.12980644 0.07069534 0.5154754 0.3801245 -0.4056847 -0.40474612 0.050383035 0.6498194
-0.21538259 0.6036571 0.25610006 0.29900637 0.0323347 -0.34454092 -0.39260957 0.48300627
-0.2789239 0.5613965 -0.20703453 0.109547496 0.7366397 -0.31323385 0.45213994 0.5558894
0.35126764 0.6199704 0.24630544 0.42735744 -0.38319236 -0.24250549 -0.36147824 0.32723963
-0.16049291 -0.4809248 0.32353613 0.5853215 0.48518836 0.3443511 0.36504552 -0.29758647
0.39918464 0.3036176 -0.452267 0.107532814 0.117944844 -0.12585555 0.31118453 -0.0290166
-0.11197947 -0.2522976 0.16967022 -0.008620505 -0.36814252 0.6006716 0.6592806 -0.14860989
0.2890134 0.5540925 0.049173992 0.29231137 -0.3101482 0.35953125 0.17211127 0.4688261
-0.24361624 0.2949779 0.36108178 -0.28558376 0.33514327 -0.30024892 0.44825876 0.29590484
0.27069205 -0.078465424 -0.28160542 -0.49461502 0.17317212 -0.3903573 0.031456932 0.3504243
0.517982 0.43470716 0.60699576 -0.40574136 0.5867366 0.39768505 -0.32592806 0.36653128
-0.2620607 0.677881 0.12082741 -0.2341263 -0.027299583 -0.12466509 0.09217546 -0.4590818
0.14071606 0.26850894 0.6607526 -0.27960318 0.64643466 0.6241222 0.010192489 0.6493311
0.58427125 0.28623328 0.51577955 0.54701835 0.2904928 0.65464526 -0.36777493 0.64800346
-0.3828218 0.23728932 -0.35021505 -0.23043972 0.34620813 0.3686188 -0.05310748 0.47856665
0.6551459 -0.03031343 -0.39465895 0.5134712 -0.2801357 -0.49982318 0.58059174 0.090880334
0.21566549 0.40243468 -0.2822524 -0.03487541 0.29570368 0.6308835 0.56594145 -0.29750055
-0.09207552 0.13623899 0.47085774 -0.18392102 0.6029017 -0.023200748 -0.36560044 0.5884182

fc2.weight f4 [256, 256]
00000000: 3f6a 853e 0c4c 1f3d 68a7 603e 698c b0bd
00000010: a3a2 8c3e 0cc3 373e c880 5bbe a909 653e
00000020: 29c6 d93d 791b de3c db1d 793e 6646 673d
00000030: 966e edbc c6d9 f73c c564 6f3c 7e8a 313e
00000040: 20cc 10bc d06a 4c3d c15c 3abb 4b22 90bd
00000050: cbdc c33d 8e5e a63d 312f 973c c68f e33d
00000060: 7909 f03d 135a fd3d 1df7 713e 36c1 d23e
00000070: 6936 e9ba 7f0c 463e 9dfb b7bd a41b 263d
00000080: 2a7f 5f3c 5101 e03d c789 293e 7187 1e3d
00000090: c7eb 003e 4d79 963e e410 293e 9cd7 063e
000000a0: a66d 57be 3158 8b3e 9087 10bd 55b3 df3d
000000b0: 303d 273e 05ba 003e f764 cbbd 6203 50bd
000000c0: c966 2abe 2ffb 323e 13be eebc e570 103e
000000d0: fe56 70bc 45d7 d23d 9453 7f3d 8444 a2bc
000000e0: 88db 9b3d d44c f43d 3cdd 4b3d c624 b5bd
000000f0: 7f3c 2bbe 7132 853e 386b b9bd bbbd 5f3e
00000100: 63fb 773d 938f 81bd 2105 8f3d e21c 963c
00000110: dfae 253e 6ef6 69bd 1890 463e 07d9 2fbb
00000120: 554f 863d dead 9abb acda d9bb 2fe1 1dbe
00000130: 42af aabe 6b04 883e 6957 023e e4dc 2b3e
00000140: edc4 a33c 5235 b7bd 8502 053e e357 8bbd
00000150: a271 e4bd 7625 373e ebfa 04bd 8467 c33c
00000160: b0ce bd3e b778 c1bd 1d89 e4bd b945 f23d
00000170: 559e 183e 924a 603c 404b 083c f407 cfbc
00000180: 1ddd 4fbe b09b 533d f82a 4a3e 392e 593c
00000190: 2b36 213c 888c a23c 2bc6 bfbc 6116 343d
000001a0: ed5b f63d c984 d43c ecde 4a3d bcee d43d
000001b0: a0f0 9bbd e87f 3b3e 4307 71bb 8500 ac3d
000001c0: c05e c6bd 5c48 17be 7c93 393d d9eb 4f3e
000001d0: 6dde e93e 8ad1 5e3e d9ce 1e3e 570a 023c
000001e0: b855 af3e bcf8 8b3c b7d7 acbd 0992 a4bc
000001f0: af87 90be 002b a23e 6578 c63e 00f2 223d
00000200: c1b5 083e 0d96 8b3d 1a72 1a3e 3531 08be
00000210: 04cf 5a3c 91f5 2b3e 330b 1cbd 2de9 da3b
00000220: ace1 d5bc ce14 b73d 5b3e acbc 6f8c d1bb
00000230: 2e04 d83e 3529 853e 555c 8b3e 64a4 f4b9
00000240: 8843 593d 7034 1c3c c6d0 8b3d dde9 a03d
00000250: c574 863c 3dc5 cb3d 354b 1a3e cc09 ef3d
00000260: 7af9 e03c a927 f43d d0a3 903e b692 27bc
00000270: 29cf 90bc 51d3 613d fbee b03c 6b1a 9ebb
00000280: 6de0 ca3d 044b 0e3e 1341 863c 52d7 92be
00000290: 96bd 743e 4b9c b93d 2c85 08bc 4def 7b3e
000002a0: 7bb2 89bd 920a 68bd 92f8 d3be 00cb 0f3e
000002b0: 2c2b 933e 727d a6bd 117d a4bd c84f 833d
000002c0: 27de 49bd 5d99 703e 85ee 123d 9ac3 993e
000002d0: a6c0 853e f4bf 043e aa03 893d 4d02 c3bd
000002e0: 2365 943c ccd6 c83d 7003 f43d 800c 08bc
000002f0: ddd4 98bd 7d12 d93e c1fe 32bd ae7c b53d
00000300: 15f7 273e 14d3 d23c 8574 4b3d 46c4 663e
00000310: f455 323d 99de 863d f2c3 e03d 728a be3d
00000320: 6d99 ed3d 0a21 943c 45f1 2a3e 9896 113e
00000330: cb81 8e3e 9818 843e 5ffe 4b3e f9b8 8e3d
00000340: 225c 8fbd b539 bfbc 4bb7 163d 144a f93e
00000350: 4869 e63d 0377 813d ab83 11be 40fe 75bc
00000360: c829 af3d 2c6b 083e bc36 aebc 6e52 e8bc
00000370: eb36 1a3e ba0a 91bb a83d f53d 328b a23d
00000380: 586e 2a3e 07ff ad3d 0656 da3d 97d7 1cbe
00000390: 9654 06bc fa25 bd3d 9250 a03d ffee cb3d
000003a0: 6020 ac3d e93f 3a3e 722a b33e 353d b2bd
000003b0: ccc2 503e 29c3 893e 401b 03bd 6169 29bc
000003c0: e5fb 463d a279 133e 7886 863e d2a1 a2be
000003d0: 51e0 183e 16a6 ba3c bdc8 293d 53ad de3e
000003e0: f0c9 213d 646f 8f3d a52f 51bc 6e79 aebd
000003f0: 7bf7 c63a ce58 753d 9bc4 8e3e b6ac a23d
0.26057622 0.038890883 0.2193886 -0.08620531 0.27467832 0.17945498 -0.21435845 0.22366966
0.10633499 0.02711271 0.24327795 0.05646362 -0.028983396 0.03025521 0.014611428 0.17337987
-0.00883773 0.04990655 -0.0028436633 -0.07037791 0.09563597 0.081235036 0.01845512 0.11111407
0.11720557 0.12370696 0.23629422 0.41163033 -0.0017792705 0.19340704 -0.08983538 0.040553704
0.013641158 0.10937751 0.16556464 0.038703386 0.12589942 0.2938942 0.1651035 0.13168186
-0.21037921 0.27215722 -0.035285532 0.10922877 0.16331935 0.12570961 -0.09931367 -0.050784476
-0.16640772 0.17478631 -0.029143369 0.14105566 -0.014669178 0.10294966 0.062335566 -0.019808061
0.07610232 0.11928716 0.049771532 -0.088449046 -0.16722296 0.26015046 -0.090536535 0.2184972
0.060542475 -0.06326213 0.069834 0.01832432 0.1617999 -0.05711978 0.19390905 -0.002683224
0.065581 -0.0047204336 -0.006648382 -0.15417932 -0.33336836 0.2656587 0.12728657 0.16783482
0.019991362 -0.08945717 0.12989242 -0.068038724 -0.11154486 0.17885384 -0.032465857 0.023853071
0.37071753 -0.09446853 -0.11158965 0.11829705 0.14904149 0.013689654 0.008318722 -0.025272347
-0.20299192 0.051662147 0.19742954 0.013255649 0.009839575 0.019842401 -0.023409924 0.043966655
0.12029252 0.025942223 0.049529 0.103970975 -0.07614255 0.18310511 -0.003677801 0.083985366
-0.09686041 -0.14773697 0.045306668 0.20304812 0.4567751 0.2175962 0.15508594 0.0079370355
0.34245086 0.01708638 -0.08439582 -0.020089166 -0.28228518 0.3167343 0.3876373 0.03978157
0.13350584 0.06815729 0.15082589 -0.13300021 0.01335502 0.16792895 -0.038096618 0.0066806288
-0.026108585 0.08939515 -0.021025827 -0.006394915 0.4219069 0.26008 0.2721888 -0.00046661787
0.05304292 0.009533986 0.0682693 0.07857106 0.016413102 0.099497296 0.15067752 0.116717905
0.02746271 0.11921627 0.2824998 -0.01022785 -0.017676907 0.055133168 0.02159833 -0.0048249266
0.09906087 0.13895804 0.016388452 -0.286799 0.23900446 0.09063014 -0.008332532 0.24603005
-0.067234956 -0.056650706 -0.41400582 0.14042282 0.28743875 -0.081293955 -0.08031667 0.064117014
-0.049284127 0.23496003 0.035872 0.30032045 0.26123542 0.1296385 0.06690152 -0.09521923
0.018114632 0.09806594 0.11914718 -0.0083037615 -0.074624754 0.42396918 -0.043699984 0.088616714
0.16402848 0.025735416 0.04967167 0.2253581 0.043539003 0.06585426 0.109748736 0.0930375
0.11601529 0.01808216 0.166936 0.14217603 0.278334 0.25800014 0.19921254 0.069688745
-0.06999995 -0.023342947 0.036795896 0.4868933 0.112505496 0.06321528 -0.14210384 -0.015014231
0.08552891 0.13322133 -0.021266334 -0.028359618 0.15060012 -0.0044263275 0.119746506 0.07936706
0.16643655 0.08495908 0.10660939 -0.15316616 -0.008198878 0.09235759 0.078278676 0.09957694
0.084046125 0.18188442 0.3499332 -0.087030806 0.20386809 0.26906708 -0.03200841 -0.010340066
0.04858007 0.14401868 0.26274467 -0.31764084 0.1492932 0.022784274 0.041451205 0.4349161
0.039499223 0.07003668 -0.012767707 -0.085192546 0.0015179956 0.059899144 0.27884373 0.07943098

fc2.bias f4 [256]
00000000: 05d5 c73d 2d45 063d 8889 9e3d 7d34 723d
00000010: a99d 0cbe f8ce 473e 50d6 413e 5995 803c
00000020: 7f56 6abd 855f 9b3d 4a32 253e 6ac9 4b3e
00000030: 1549 633c 55dd 093e c4a4 a23d a64c 193e
00000040: cac9 59bc d23c 2dbd 73d4 003e 9673 083d
00000050: d7e4 72bd e5e8 1e3e 9f7c 243d 5201 aa3c
00000060: 33a5 6a3d c047 ae3c 463e 8a3d d8d1 1bbd
00000070: 6d45 123e b5fe 333e a258 a73d 72e1 693d
00000080: 79c8 f0bc 4ff6 f1bc 2b70 9dbd 8988 913d
00000090: 264d bcbc d96a b3bc 2278 66bd d7b1 a5bd
000000a0: ad25 243d 88c3 86bd 5878 0b3e c54a ac3d
000000b0: e312 f73d 5e2e 883d 33ee 92bb 6599 db3d
000000c0: 4826 da3d ba45 463e a4eb 1fbd 5b12 7dbb
000000d0: 20c2 09bd a0da 213b 2638 df3d ca5c a4bc
000000e0: 0fb1 0a3e 7656 2cbd cd69 0abd fe81 12bd
000000f0: 3e1c 293e 7c32 e33d ee50 ef3d 66e9 1cbd
00000100: 5073 2e3e 4cc7 b93c 9bcf 2d3d 989b 48bc
00000110: ddaa 993c 6ea4 2abd 1063 8d3c d2fc 6e3d
00000120: 3607 3b3d 0430 423d 0e9f 873d a8dc 89bc
00000130: 5ed2 203e c4d0 933c d3d6 543d 3781 7bbd
00000140: ac7d 343e 600b 7dbc fc26 263e 908f 733d
00000150: 1e6e d83d c415 20bd d058 5d3d bf9a 793d
00000160: 9f7e 97bd 9b87 403d a14f 0c3e 6a40 763d
00000170: c12f 473e 5611 1abd 8ea1 d03d 0d0f 61bd
00000180: a3d5 e03c 3a06 24bc 914c 0e3c e1e7 08bd
00000190: d3a6 793b 6e17 e1bc 6cdb 6d3c d0c9 e43d
000001a0: 54ed 4fbd 2862 523d 963b 36bd 3879 283d
000001b0: 23ff 193e d5d3 b63c d808 99bc 4928 e43c
000001c0: 2c1a 9e3d 88b1 383c 6669 173a 1c26 7c3d
000001d0: 97ab 903c 543e 62bc 8437 743d b11f 163e
000001e0: e78e 4c3e 8207 1b3d 0938 6a3d 34fa db3c
000001f0: 286c 29bd 2d2c 1a3c 9c56 7d3d 4737 183d
00000200: 8ac1 09bd 09e9 673d b205 133e 2786 0b3e
00000210: 9225 ab3c 0d88 d43c 7099 063e 5d5a 433d
00000220: 4389 1cbc 4889 07bd a404 183e 5d47 fd3d
00000230: 675f 49bd cde6 a5bc bd7e 2b3e 3bfb 19bd
00000240: 4695 eb3c 2808 4c3d f1e0 03bd fffa 97bc
00000250: e5b8 113e 17ac 82bd 8b44 4dbc 6234 bb3b
00000260: ac21 3b3d 88d8 30bd f1bd 0c3e d0c4 843d
00000270: 3e73 933b 7eb4 093d 2116 c8bc 618c c63d
00000280: 8810 213d 06d9 0bbc f75e f2bc 8098 243e
00000290: 8510 02be acb0 81bd 8218 8f3d 93d2 293e
000002a0: 99d1 1a3e ded0 2d3e 1e28 2b3e eb13 763d
000002b0: cd46 983c 5654 3f3e 551a 893d d094 553d
000002c0: 917f a13c 70ee 533e eec9 c7bc d6f0 1dbd
000002d0: 22ab 8d3d fec4 023e 3478 f13d de85 853c
000002e0: 2cf5 c93c 70c7 68bc e15b 4bbd a0af 4abd
000002f0: bd72 233e bc45 a2bc ea5d bf3d a01e fe3d
00000300: 94fc f0bc 6176 203e 208f 6f3c 70b1 6ebd
00000310: feba cdbd 6740 773c d498 d73d ec88 da3d
00000320: c952 15bc 04fd d3bc dcc0 9e3d be79 3d3d
00000330: e4b2 043e 2434 cf3c 19ac 09bd 2010 a1bb
00000340: 8e71 7a3c 7544 19bd 1802 f63d 6c27 d33d
00000350: 8cd2 273d 7566 dabc 15b0 1a3e 4997 edbb
00000360: 9612 423e abc5 4cbd 7776 5f3c 9462 3a3d
00000370: 2e33 65bc 990f c1bc 11ea dd3d db52 bfbb
00000380: c6f5 8d3d 3302 483e 5312 cdbb 133c b03c
00000390: 0bf7 51bb b144 0b3d 009b 693d 9d13 823d
000003a0: a87f f83d 978b 2a3e 9612 383d 992f 0cbd
000003b0: 075e b13d ba99 19bd 6c9f edbc d871 31be
000003c0: e5af 3fbc a234 20bd 84b4 0d3c cda7 513e
000003d0: 420e a5ba a0c1 c8bc d3aa 073e 75c6 623e
000003e0: f8cb 5f3e fc8f 0bbe 8446 1d3d e5d6 03be
000003f0: 9e30 2ebd 19ca 25bd c082 983d a35a e3bc
0.09757427 0.032780815 0.07741076 0.059132088 -0.13732018 0.19512546 0.1892941 0.015696215
-0.057211395 0.07586578 0.16132465 0.19901052 0.013872405 0.13463338 0.07941583 0.14970645
-0.013292739 -0.04229433 0.12581043 0.033313356 -0.05930027 0.1551853 0.04015791 0.020752583
0.057286453 0.021274447 0.06750159 -0.03804192 0.14284296 0.17577632 0.08171202 0.057099767
-0.029392468 -0.029536394 -0.0768741 0.0710612 -0.022986006 -0.021901535 -0.05626691 -0.08090561
0.040074993 -0.065802634 0.13620126 0.08412699 0.12064149 0.06649469 -0.004483962 0.10722617
0.10651833 0.19362536 -0.039043084 -0.0038615677 -0.033632398 0.002469696 0.10899381 -0.020063777
0.13544105 -0.042074643 -0.033792306 -0.0357685 0.1651468 0.110936135 0.11685358 -0.038308524
0.17036176 0.02267804 0.042434316 -0.012244128 0.018758232 -0.04166072 0.01725915 0.058346577
0.045661174 0.047409073 0.06622134 -0.01682885 0.15705249 0.018043883 0.051962685 -0.061402526
0.17626065 -0.015444607 0.16225809 0.059463084 0.10567878 -0.039083257 0.054039776 0.060938593
-0.07397198 0.047004323 0.13702251 0.060120024 0.1945181 -0.03761419 0.10187064 -0.054945994
0.02744562 -0.01001125 0.008685247 -0.033424262 0.003809382 -0.027476992 0.014517646 0.11171305
-0.050763443 0.05136314 -0.04449042 0.04113123 0.15038733 0.022317806 -0.018680975 0.02785124
0.07719836 0.0112727955 0.00057758985 0.06155978 0.017659945 -0.0138088055 0.059623256 0.14660527
0.19976388 0.037848957 0.057182346 0.026852705 -0.04136291 0.009409946 0.061850175 0.03716209
-0.03363184 0.056618724 0.14357641 0.13625394 0.020891938 0.02594378 0.1314447 0.0476936
-0.00955421 -0.033089906 0.1484552 0.12367127 -0.04916325 -0.020251656 0.16747566 -0.037593108
0.028757703 0.049812466 -0.032196943 -0.018552301 0.14230688 -0.0638048 -0.012528549 0.0057130316
0.04568641 -0.04317525 0.13744332 0.064828515 0.004499822 0.033619396 -0.024424614 0.09694744
0.039322406 -0.008535629 -0.029586298 0.16073799 -0.12701614 -0.063325256 0.06987096 0.16584234
0.15119018 0.16974208 0.16714522 0.06007759 0.018588448 0.18684515 0.066944756 0.05214387
0.019714149 0.20696425 -0.02438828 -0.038559757 0.069174066 0.12770459 0.11790505 0.016299184
0.02465304 -0.014207706 -0.04964817 -0.049483895 0.15961738 -0.019808643 0.093440846 0.12408185
-0.029417314 0.15670158 0.014621526 -0.058274686 -0.100454316 0.015091038 0.105271965 0.10670647
-0.009113976 -0.025877483 0.07751629 0.04625868 0.12958866 0.025293417 -0.03361139 -0.0049152523
0.015285863 -0.0374188 0.12012118 0.103102535 0.040972278 -0.026660183 0.15106232 -0.0072507006
0.18952402 -0.0499932 0.013639084 0.045504168 -0.013989253 -0.023567008 0.1083566 -0.0058387346
0.06931643 0.19532089 -0.006258288 0.02151302 -0.0032038118 0.034001056 0.057032585 0.06351397
0.121337235 0.16654812 0.0449396 -0.03422508 0.086605124 -0.03750012 -0.029006682 -0.17328584
-0.011699651 -0.039112695 0.008648995 0.20474167 -0.001259275 -0.02450639 0.13248758 0.22146018
0.21855152 -0.13629144 0.038397327 -0.12874945 -0.042526834 -0.04047594 0.074468136 -0.02775318

fc3.weight f4 [2, 256]
00000000: 44db b2be 5eea c63c f7c3 d23e 43a3 acbe
00000010: 2528 20be dbbb 073f ed7c fe3e ffc3 133d
00000020: 0e37 8bbe e2ab 603e d1b7 0d3f 4933 0e3f
00000030: 4793 1c3d 225a e53d 561e a1be 16a1 85be
00000040: 885e afbe cad3 21bc 08ab d23e 2f96 79bc
00000050: 56d5 7ebe 0ef2 6f3d eb27 a5be 8060 86be
00000060: 43f1 94be ddfb 01bd a316 acbe 240c 013d
00000070: 7ef5 b3be efa5 013f a547 0fbd 491d 90be
00000080: bc9f cbbd 132d 77be f3fd 1abe 2e3d 0a3f
00000090: 29ef 123d b082 a8be d005 37bc fe68 8cbe
000000a0: e870 d43e d6ce e73c c3dc f33e 415d bc3e
000000b0: 7ad5 093f eb3e a8be a704 f7bc f559 103f
000000c0: 1470 e6bd 0a52 0e3f c3e0 523d f913 7dbe
000000d0: b090 c0bb a6d7 1c3d 6c22 113e 4cb1 91be
000000e0: c4a9 fc3e 3021 2f3c 9df3 a2be 2688 67bc
000000f0: 8fbb f43e 08bc a33d 757c 0e3f 0082 3f3c
00000100: 450f 103f aa23 a3be 6aef 4e3c 00ce 8bbb
00000110: a7cf a5be 1332 303d ffb7 fcbe a27c b43e
00000120: 6d97 153d e831 60be c9a9 a4be c6cb 17bd
00000130: fc5a 0b3f 767e aebe 86fb 94be 3f4e 87be
00000140: 3caa df3e 9cce 60bd db7a d73e 388f c3be
00000150: a9aa ff3e 5fdd 5ebd 7565 173f e8ce 973d
00000160: 5b55 36be fa41 b4be 99d4 e53e c7d9 77be
00000170: cecf ef3e d017 073c d760 b33e 56cd 87be
00000180: 88ba 81be 3487 96be 5d2c b4be 6c3d c0bb
00000190: e003 90be 19cc 53be 5e7c b0be b531 32bc
000001a0: 8c8f 753d d65c 313c 9eea 5a3d cc35 2d3e
000001b0: 4266 f23e 7475 92be ef7b 633d 0d05 99bd
000001c0: 365a bdbe 5e49 0abd 8a6b 3f3d 9475 be3d
000001d0: 5c71 a2bc 6f48 abbe fbfa 97be d782 033f
000001e0: b078 f53e a1d3 7abe 95b0 733d d1de 6fbe
000001f0: a8db 81be 4cda 1b3f 33fb adbe 073a 6bbe
00000200: 2083 7fbb b123 a6be 1e52 793d 92b2 013f
00000210: 203b 80be 4f09 4cbe 18b5 3d3d cc59 ddbd
00000220: e14b 4bbe 7be5 8dbe 4c92 f23e 9be9 0b3f
00000230: 4a4a 003d 6bbf b33e b083 093f 79f9 c13c
00000240: a3ef 93bd 570d 163f 444b 853d 1c09 b2be
00000250: 28a6 f1bd 428f 6ebe a3b8 9fbe ebc2 553d
00000260: 3fde 57be 0c1f c0be 3915 043f 9aed b6be
00000270: 199e b4be b347 d0bd 73d2 9cbe 6a7a a43e
00000280: db67 4bbe 4aa9 45bd f226 6dbe c810 083f
00000290: aea2 3ebe ca10 0abf 173d acbe 1b94 7cbe
000002a0: 961e 093f 4722 083f 4dab 143f c548 0f3f
000002b0: 522b e9bd 15b4 0f3f df96 0abd 72cc 6bbe
000002c0: db1c c6be e6d1 b93e cf47 0e3f 5705 a83c
000002d0: 7d81 a3be e7c0 b33b 0449 023f 1323 2e3d
000002e0: daf6 8c3e 6adc 153d 4b0b 69bd 7ee7 6cbe
000002f0: ea90 f63e 55f1 f93d c73b bbbe 0c4e b73e
00000300: f0b2 5f3d c7cb ee3e 0236 2ebd 5649 5a3d
00000310: 9e45 1ebe 8220 a5be d505 083f 78f7 c7be
00000320: 1fda b9be e5e7 52be 2c3b 9fbe 92f8 82be
00000330: 3a4b ad3d cae8 163d d95b 9fbe ca12 53bd
00000340: ad58 aebe 3478 9dbe cf73 bb3c 4f4f cc3d
00000350: 8f07 023f a859 c63c 0d8e cb3d a8ed adbe
00000360: 50f3 f93e a335 31be bdc0 37bd 406e 3c3c
00000370: 96a2 993c c6f4 8b3c bf2e c9bc 261f 9bbe
00000380: 790d f3be 6422 133f 06b3 82be 360e 4dbe
00000390: 272d 92be ccc0 97be b8fc 8abe d94b 8f3e
000003a0: 2433 fc3e 60b0 083f cdba 64be de1a 71be
000003b0: 2bcb a8bc 5e43 2abb 00da 61bb c1f9 5bbe
000003c0: 1f0e a9be 8a92 c1be 9196 003d aa74 ed3e
000003d0: ee9c a6be 9a16 013d f44c 443d 42dc d83e
000003e0: 371c d93e 3eca 3fbe 789c 57be 8f75 d3bd
000003f0: 5ccb 70be 4d10 223f b4ff a6be 3806 643d
-0.3493291 0.024281677 0.41165134 -0.3371831 -0.15640314 0.5302102 0.49704686 0.03607559
-0.2719044 0.21940568 0.55358607 0.55547005 0.038226392 0.11198832 -0.31468457 -0.2609946
-0.3425181 -0.009877155 0.4114611 -0.01523356 -0.24886069 0.05858045 -0.32257017 -0.262455
-0.29090318 -0.031734336 -0.3361102 0.03150572 -0.35148233 0.5064382 -0.034980435 -0.28147343
-0.09942576 -0.24138288 -0.15135936 0.539996 0.035872612 -0.32912207 -0.011170819 -0.27423853
0.4149239 0.02829687 0.47629365 0.36789897 0.53841364 -0.32860503 -0.030153586 0.56387264
-0.11251846 0.5559393 0.05148388 -0.2471465 -0.005876623 0.038291596 0.14173287 -0.2845558
0.4934827 0.010689065 -0.31826487 -0.014131581 0.47799346 0.079948485 0.55658656 0.011688709
0.562733 -0.31863147 0.012630323 -0.0042665005 -0.3238499 0.043016504 -0.49359128 0.35251337
0.036521364 -0.21894038 -0.32160786 -0.037059568 0.54435706 -0.34080857 -0.29098147 -0.26426885
0.43684566 -0.054884538 0.4208592 -0.38195205 0.4993489 -0.054410335 0.59139186 0.07412511
-0.17805998 -0.35206586 0.44888762 -0.24204169 0.4683823 0.008245423 0.3503482 -0.26523846
-0.25337625 -0.29400027 -0.35190096 -0.005866697 -0.28127956 -0.20683326 -0.34469885 -0.010876109
0.05995135 0.0108253565 0.053446405 0.16915053 0.47343642 -0.28605235 0.055538114 -0.074716665
-0.36982888 -0.033761375 0.046733417 0.0929977 -0.019829445 -0.334537 -0.2968367 0.5137152
0.4794364 -0.24494793 0.059494574 -0.23424841 -0.25362897 0.6087997 -0.33980712 -0.22971354
-0.0038988069 -0.32449105 0.06086933 0.506631 -0.2504511 -0.19925426 0.046315283 -0.10808143
-0.19853164 -0.27714142 0.4737724 0.5465333 0.031320848 0.35106978 0.53716564 0.023678528
-0.072234415 0.58614105 0.065084964 -0.34772575 -0.1179927 -0.23296836 -0.31195554 0.05218784
-0.21080874 -0.37523687 0.51594883 -0.3572815 -0.3527687 -0.101699255 -0.3062931 0.32124645
-0.19863836 -0.04825715 -0.23159388 0.53150606 -0.18616745 -0.5393187 -0.33640358 -0.24665873
0.53562295 0.53177303 0.58073884 0.5597041 -0.11385216 0.5613416 -0.033835288 -0.23027208
-0.3869389 0.36292952 0.5557832 0.020510359 -0.3193473 0.0054856422 0.50892663 0.042513918
0.27532083 0.036587156 -0.056895535 -0.23135182 0.48157436 0.122042336 -0.36569044 0.35801733
0.054614007 0.46639845 -0.042531975 0.053292595 -0.15456244 -0.32251364 0.531339 -0.3905599
-0.36299226 -0.20596273 -0.31099832 -0.2558027 0.08461614 0.0368431 -0.31124762 -0.05153159
-0.3405203 -0.3075577 0.02288237 0.099760644 0.50792783 0.024212673 0.099392034 -0.3397038
0.48818445 -0.17305617 -0.044861544 0.011500895 0.018754285 0.01708449 -0.024558423 -0.30297202
-0.47471216 0.5747435 -0.2552721 -0.20024952 -0.28550074 -0.2963928 -0.27145934 0.27987555
0.49257767 0.53394127 -0.22336884 -0.23545405 -0.02060469 -0.0025980095 -0.0034462214 -0.21481992
-0.33018586 -0.37807113 0.03139359 0.4637807 -0.32541603 0.031515695 0.04792495 0.42355543
0.4240434 -0.18729493 -0.21055782 -0.10325157 -0.23515075 0.63306123 -0.3261696 0.055669993

fc3.bias f4 [2]
00000000: 9960 803d 5bd2 28bc
0.062684245 -0.010304059
