rl-cartpole/saved_models/cartpole_03.pt (torch, 272683 bytes, 6 tensors)

fc1.weight f4 [256, 4]
00000000: 3791 b83e e8e9 45bd 9a24 a6be 547e 153e
00000010: 4803 da3e fad3 9f3b 2a1f eb3e e822 e03e
00000020: 36be 59bc add8 3ebe b481 a6bd 7e3f 6c3d
00000030: 7af3 0ebf ebab 91be 95e0 e93e 8ee9 99bd
00000040: a64a 703f e3d7 55be 59cb 13bf 0f3e 3ebe
00000050: d0b9 4abe c64c cfbe 304d 55be 6645 fdbe
00000060: 3b40 083f 8ec5 f63e cd72 b8bd 17ab c73e
00000070: 12d9 d93e 3a59 24bf 4398 41bf 5059 8abe
00000080: fefa d43e cdef 98be 9558 523f a3d4 243f
00000090: 4569 293f 6ae0 7b3e 9510 733c 718d 493d
000000a0: 316b 49be ce04 9d3e 18a6 a23e dafa 233f
000000b0: cf33 bebe 092e d1be d2d6 953d 98ec 883e
000000c0: d001 29be 6a4b debe c0b0 b4bd 1286 b2be
000000d0: 33c3 ba3d f34f d4bd 380a 2fbf 55a8 01bf
000000e0: da07 dcbe 20e1 1fbe b78e 073e 2655 b93e
000000f0: 84c9 a5be 792d 82be de46 2d3f bd42 803e
00000100: 3cbc 0e3d 51df fcbe 6bf2 3bbe f81a 10bf
00000110: 1e43 4c3f 612f 483e 92f5 1a3d 4ff9 1cbf
00000120: 0806 4e3d 5840 24bf f7f9 cd3c 9825 053e
00000130: cc47 ca3d 518a e9be 64b4 fabe 51c2 3ebd
00000140: ddbb 313f c0cc dd3e 29c9 903e 18db 52be
00000150: 274d a03c 3d85 18bf cb2e 0abf 5f53 a6be
00000160: 09c8 1ebe a1f8 b03e 4c61 f83e e6dc d33e
00000170: c86b 56bf 0532 a63e d432 423f 1ee5 bf3e
00000180: 068e 66bc b208 24bf bc2b 463e 4942 54bd
00000190: 5afc 06be 4094 88be 25c6 123f eb2c 113f
000001a0: 5041 843c a4a7 f13e 64af 253f 4173 093f
000001b0: dc73 41bf fd03 643e 4ecc 713f a55a b73e
000001c0: bb41 f83e e3db e23e ea98 9f3e 92b9 c5be
000001d0: 96fa cbbe 9b48 d6be a1f2 503f fccd b83e
000001e0: e5c1 28bf b5b6 113c 0f52 883e 8cc1 633e
000001f0: b422 95be d092 483e 9840 e7be ac40 153e
00000200: a240 073f 224b 023f bc9b b73e 5c5d 86be
00000210: 5bb2 553d 5d5d 8dbd ba61 25bf 3710 a1be
00000220: 9bda 85b9 3331 d43d 0089 4a3f 3989 1c3f
00000230: fba8 9bbc 0d81 14bf 40fe 393e 01c9 7b3e
00000240: 586e cb3e 5f04 d5be e458 7f3b 6fa9 21bf
00000250: d0d9 1c3f 42c4 58be c0dc 3cbe c9a5 07bf
00000260: e57e b83e 6b2a 653e b8d6 843f d1d5 e23e
00000270: 79fa 783d 25dd a23d 1c80 a43e 34cc 203f
00000280: 6a52 ce3e 6485 1dbf bb00 d3be 2898 67be
00000290: 9a1d 97be 4f94 d6bd 5a4f 4cbf 1cd7 6bbe
000002a0: cc87 71bd a316 e53e 6c1a b83d 9219 fdbe
000002b0: 504e f8bd d72e b63e 663f 083f ee00 7f3e
000002c0: e517 013f 6217 25be 1ce6 64bf c4e8 72be
000002d0: 2a74 9e3d 765d 433e 29f9 253f e1fb 1c3e
000002e0: 178b a03e 33f0 d8be b795 b5be e1d6 c53d
000002f0: 106d 19be 43d7 da3d 8bca 88be 1d87 93be
00000300: d655 9f3e 751a 253f cd08 a43e 17b6 dfbe
00000310: a717 c83e 54ee dd3e 5785 623e 46a4 81be
00000320: 3395 2d3f 14e3 943e fba7 b0be c27c afbd
00000330: 1103 be3d 9589 3c3e 5a40 173f e9b9 d13d
00000340: 79f0 2d3e eb2c 0cbe 4edc 34be a9ff e53e
00000350: 0b69 173f 8d01 3cbd 98ca 88be 5060 91be
00000360: b0fd 95bc 0b30 f33e 04a4 e43e 613f 0f3b
00000370: 8b8c 063f 4e76 d93e b23d c0be c11b 9dbe
00000380: b7e0 9b3e 68bd b03d d1f1 0fbe 589f 1d3e
00000390: d98f ebbe 9ff7 09be e04c 623f 2363 123f
000003a0: 2610 0ebf 9a48 d9bd 1116 1d3f 39d3 39bd
000003b0: 0aa1 aabe 6851 6d3e 4533 47bf 4677 4cbe
000003c0: bc7c 3bbe ab36 29bf cd14 a9be 1b09 31be
000003d0: b3a3 04bf 1e67 89bd 101d 2b3f 184a c03e
000003e0: b097 11be 138d d73e 05f4 32bf ec1a 66be
000003f0: e67a 26bf 0b8c 1ebe 4e76 e53e 63f8 a53e
0.3604829 -0.048318774 -0.324498 0.14598972 0.42580628 0.0048775645 0.45922214 0.4377663
-0.013289979 -0.18637343 -0.08130208 0.05767774 -0.55840266 -0.28451476 0.45679155 -0.0751525
0.93863904 -0.20883135 -0.5773216 -0.18578361 -0.19797444 -0.4048826 -0.20830226 -0.4946701
0.5322301 0.48197597 -0.090062715 0.3899772 0.42548424 -0.6419865 -0.7562296 -0.27021265
0.41597742 -0.29870453 0.82166415 0.6438696 0.66176254 0.24597326 0.014835496 0.049207155
-0.19669797 0.30667728 0.31767344 0.64054644 -0.37148902 -0.40855435 0.07316364 0.26743007
-0.16504598 -0.4341691 -0.08822775 -0.34867913 0.091192625 -0.103668116 -0.6837497 -0.5064748
-0.4297474 -0.15613222 0.13238035 0.36197776 -0.32380307 -0.25425318 0.6768626 0.25050917
0.034847483 -0.49389127 -0.18354194 -0.5629115 0.7978991 0.19549324 0.03783185 -0.61317915
0.05029872 -0.6416068 0.025143607 0.13002622 0.098769754 -0.4561334 -0.48965752 -0.046572033
0.6942728 0.43320274 0.28278473 -0.2059139 0.01956804 -0.59578305 -0.5397765 -0.32485482
-0.15505995 0.3456469 0.48511732 0.4137947 -0.8375821 0.32460037 0.7585881 0.3747949
-0.014071947 -0.6407577 0.19352621 -0.051821027 -0.13182202 -0.26675606 0.57333595 0.56709164
0.016144425 0.47198212 0.6472075 0.5369149 -0.7556741 0.22267146 0.9445237 0.35811344
0.48487648 0.44308385 0.31171352 -0.3861814 -0.3983962 -0.4185227 0.8162022 0.36094654
-0.6592086 0.008893658 0.26625106 0.22241801 -0.2912804 0.19587255 -0.4516647 0.14575452
0.52832997 0.50895894 0.35861003 -0.26243103 0.052172046 -0.06902573 -0.64602244 -0.31457683
-0.0002553061 0.103609465 0.79115295 0.61146885 -0.019001475 -0.58009416 0.18163395 0.24588396
0.39732623 -0.41604897 0.0038962895 -0.6314916 0.61269855 -0.21168616 -0.18443584 -0.52987343
0.36034313 0.22379462 1.0378027 0.44303754 0.060785744 0.07952336 0.3212899 0.6281159
0.40297252 -0.6153166 -0.41211495 -0.22616637 -0.29514772 -0.10477506 -0.7980858 -0.23031276
-0.058967397 0.44743833 0.089894146 -0.4943357 -0.12124312 0.3558261 0.5322174 0.24902698
0.50427085 -0.16122201 -0.8941362 -0.23721606 0.07737 0.19078621 0.64833313 0.15330459
0.31356117 -0.42370757 -0.35465786 0.096601255 -0.1498301 0.10685589 -0.26717028 -0.2881402
0.31120175 0.64493495 0.32037964 -0.4369361 0.39080545 0.43345892 0.22121178 -0.25320643
0.67805785 0.29079497 -0.3450316 -0.085687175 0.092779286 0.18411858 0.5908257 0.10240538
0.16986264 -0.1368901 -0.17662165 0.44921616 0.5914466 -0.045899916 -0.26717067 -0.28393793
-0.018309444 0.4749759 0.44656384 0.0021857845 0.525582 0.42473072 -0.3754707 -0.30685237
0.3044488 0.086298764 -0.1405709 0.15392816 -0.46008185 -0.13473366 0.8839855 0.5718252
-0.5549339 -0.10609551 0.61361796 -0.045367453 -0.33325988 0.23175585 -0.77812606 -0.19967374
-0.18309301 -0.6609904 -0.33023682 -0.1728863 -0.51812285 -0.06709121 0.6684122 0.3755653
-0.1421802 0.4209982 -0.69903594 -0.22471207 -0.6503128 -0.1548311 0.44816822 0.32416067

fc1.bias f4 [256]
00000000: 23ea a1be 70aa 22be c6c3 e0be 3d6d f5be
00000010: 8b03 e8bd 8fef 97be 7c6e b23c 2fe7 693e
00000020: 319c 87bd e591 d73e 9971 ccbe 7fbb babe
00000030: aebc fc3e e716 0a3f 7755 c93e 9a89 24be
00000040: f2ac c63e 98b3 263e e8ec 923e 330b 5c3e
00000050: 6b5b 70be c10f 0e3f fa81 213f aaf6 243f
00000060: 8903 1f3f b9b1 b1be 3d65 7f3e 7f29 95be
00000070: 2aca d13e 86c0 95be 81e3 c0be 580a dabe
00000080: 04d3 cebe 7a9b a13e db0a f1be c95d 003f
00000090: abf8 56be fe7a acbe aa1b bf3e 8a19 84be
000000a0: a705 633e 4e62 87be 922d de3e 90bf 173f
000000b0: 4c16 883e 069b 253f e1a2 603e ab14 2e3f
000000c0: 99b7 74be 059c e2be 7390 d93e 3899 9a3e
000000d0: 9446 103f 606f 18be 91c6 323f ac75 2a3f
000000e0: 70da 183f b1dc 5c3e 1f7f 003f 3cf0 113f
000000f0: a773 3cbe 6cbb bebd 28d5 173f 51b6 13be
00000100: fd1e 38be 496d 013f 49ec 06be 3f1f 73be
00000110: da6e f2bd 2a05 ac3e 8edc 4b3e 8a25 bbbd
00000120: efb8 75bd 77db 083f 11e1 333f 87ab 083e
00000130: 3877 e0be 5fe9 eabd 5fbd 38be 8c2b a1be
00000140: c934 0f3f 8c99 1c3e 25f3 353f 9172 843e
00000150: f8e4 923e 150b 04bf e9de 47be e067 2e3f
00000160: a71c 6dbe 9fdc b33e d63e 9abe 3324 c33e
00000170: f6ab 65be 59af 013f 546b 033f f41d ed3e
00000180: 6dad 2dbe b833 293f f6e4 e5be d346 a23e
00000190: bd10 1b3f bab9 a8bd 5513 0f3f 657a 87be
000001a0: f3c6 cdbe e5a3 c63e 509b a93c 4b9e 81be
000001b0: 1601 f33e 86fa 7a3e d1de 283f 5d92 063f
000001c0: a53e f53e 2aa9 063f 84bb 0b3f ff65 8c3e
000001d0: 5416 adbe 6937 b2be 117c 4dbd 192d 2e3f
000001e0: 3973 63be 1c2a 283f d7ac f93e f7b9 763e
000001f0: ca52 7fbe 37ee dcbe 96db 99be 00cd df3e
00000200: 2274 65be cf6e 283f d251 8fbe e001 0e3c
00000210: 9e91 3a3f d1de b33d b7d4 063f 5f90 1c3f
00000220: e479 f53e 9cb5 363f 1be6 943e 4c4c 073f
00000230: 3cc3 c0be ef22 9b3d 25fe b5be 7f0d e03e
00000240: 997c 1dbe c63b f6be edad a63e 55e6 1c3f
00000250: f736 f33e 64b1 7d3e 7b38 773e a459 9fbe
00000260: 4b89 ce3e 6ea5 813e a8a4 d9be f005 9fbe
00000270: 60d1 9fbe a980 07be ca58 9e3e 6a0e 0fbe
00000280: 4959 10be da83 6dbe 712c 7b3e c202 063c
00000290: dc0e 94be 13a5 1d3f 422a 2e3f 7c82 3abe
000002a0: e00b 5c3e b755 0c3f 6376 133d 1f32 a53e
000002b0: 9472 85be 1428 e03e 5a01 883e 6be4 fb3e
000002c0: 258d 86be 550c 2e3e 1ec0 8f3e d379 c1be
000002d0: 5e19 713e 4d1c 9dbe fa94 113f fb56 af3e
000002e0: e610 523e 5447 84be 52ca 66be 2e3e fdbe
000002f0: e9fc ee3e faba 9cbe a7e2 c33c 9517 d3bd
00000300: 42ea eb3e dff1 d73e 1abb 1a3f f8a8 c2be
00000310: 3005 283f 844e d63e 6c7a 81be 3a0b 873e
00000320: 8792 b9be f60c 303f 07c8 07be fba5 5bbe
00000330: c56f 19be 375e 8dbe 3f64 b93d 2d8d ffbe
00000340: 8f00 983e d837 683e 2e65 1b3f a4b2 97be
00000350: 24cd 283f f548 0f3f 3850 353e 32a0 2c3f
00000360: 5e79 283f 6cd5 923e 7a1d f33e 2014 e43e
00000370: 1188 983e bf34 283f 9634 94be 2568 1d3f
00000380: 99ed babe 0192 503e c701 8ebe c033 b3be
00000390: 7334 f53e 5742 843e 7aa9 59bb e5bb f23e
000003a0: bb1a 283f e8a5 f8bd b438 b1be 866b 113f
000003b0: 8bd7 97be 3ddc fabe c108 d73e e888 343e
000003c0: 7927 113e 5cc0 a23e f79c aabe e72f 11bf
000003d0: 5d7c 683e 7dde 243f db71 2b3f 7283 75be
000003e0: ec04 25be 94b6 363e 7ee4 bc3e a0b1 233d
000003f0: 32f6 043f 0c41 3c3d 0f52 eabe 5c10 1b3f
-0.31623945 -0.15885329 -0.43899363 -0.47934905 -0.11328801 -0.29674956 0.021781199 0.22842096
-0.06621588 0.42103496 -0.39930418 -0.36471173 0.493627 0.53941196 0.39323017 -0.16068116
0.38803822 0.16279447 0.2869637 0.21488647 -0.23472373 0.5549279 0.63088953 0.6443888
0.6211477 -0.34705904 0.24940963 -0.29133222 0.4097455 -0.29248446 -0.37673572 -0.42586017
-0.40395367 0.31563932 -0.47078595 0.50143105 -0.20993297 -0.33687586 0.37325794 -0.25800735
0.22170125 -0.26442188 0.43394142 0.59276676 0.2657951 0.6468967 0.21937133 0.68000287
-0.23898162 -0.44259658 0.42493019 0.30195022 0.56357694 -0.14886236 0.6983424 0.66585803
0.5970831 0.21568562 0.5019397 0.57007194 -0.18403493 -0.09313092 0.59309626 -0.14425017
-0.17980571 0.5055738 -0.13176073 -0.23742388 -0.118375495 0.3359769 0.19908354 -0.091380194
-0.05999082 0.53459877 0.702653 0.13346682 -0.43840957 -0.11470293 -0.1804099 -0.31478536
0.5593992 0.15292948 0.71074134 0.25868657 0.28690314 -0.5157941 -0.19518627 0.6812725
-0.23155461 0.35129258 -0.30126065 0.38113555 -0.22428879 0.50658184 0.51335645 0.46311915
-0.16960688 0.6609454 -0.44901246 0.3169466 0.60572416 -0.082385495 0.55888873 -0.26460567
-0.4019085 0.38796917 0.020703942 -0.2531608 0.47461766 0.2450963 0.6596499 0.5256708
0.47899356 0.52601874 0.54583 0.27421567 -0.33806098 -0.348079 -0.050167147 0.68037564
-0.22211923 0.65689254 0.4876468 0.24094377 -0.24933925 -0.43150494 -0.30050343 0.4371109
-0.22407582 0.6579408 -0.2799211 0.008667439 0.72878444 0.08782733 0.5266833 0.6115779
0.47944558 0.71370864 0.29081807 0.52850795 -0.37648952 0.075750224 -0.3554546 0.43760297
-0.15379561 -0.4809248 0.3255457 0.6128896 0.47502872 0.247747 0.2414264 -0.31123078
0.4033912 0.25321525 -0.42508435 -0.31059217 -0.31214428 -0.13232674 0.30927116 -0.13970342
-0.1409656 -0.23194829 0.24528672 0.008179368 -0.28917587 0.6158001 0.6803323 -0.18213838
0.21488905 0.5481829 0.036001574 0.32264802 -0.2606398 0.43780577 0.2656353 0.49197707
-0.2627956 0.16996892 0.2807626 -0.37788257 0.23544833 -0.30685654 0.56867945 0.34246048
0.20514259 -0.2583567 -0.22538117 -0.49461502 0.4667733 -0.30611402 0.023911787 -0.10307232
0.46077162 0.4217672 0.60441744 -0.38019538 0.65632915 0.41856778 -0.25288713 0.26375753
-0.36244604 0.68769777 -0.13259898 -0.21450035 -0.14984043 -0.27610943 0.090523235 -0.49912396
0.29687926 0.22677553 0.6070126 -0.2962848 0.6593802 0.559707 0.17706382 0.6743194
0.6581019 0.28678453 0.47483426 0.44546604 0.2979131 0.65705484 -0.2894637 0.61487037
-0.36509398 0.20368196 -0.2773573 -0.3500042 0.47891578 0.25831863 -0.0033212588 0.47408977
0.6566579 -0.12141019 -0.34613574 0.5680469 -0.29656634 -0.48996153 0.41998866 0.1763035
0.14175214 0.31787384 -0.3332288 -0.5671372 0.22703691 0.6440199 0.66970605 -0.23975924
-0.16115159 0.17843086 0.36893076 0.03996432 0.51938164 0.04596047 -0.4576573 0.6057184

fc2.weight f4 [256, 256]
00000000: 5132 363c ba92 3f3d 34ea 5b3c b506 493d
00000010: 0f4f 3cbe a987 69be ce26 c93d 902d debe
00000020: 6fad 8c3d 5b4a 823d 0b84 a93e 39e1 4b3d
00000030: 1d43 a0bc 1367 90bb 5714 3e3d c722 c03d
00000040: 4a2b bdbd 8550 cd3b 6d59 d13c 8b6c a8bd
00000050: 813d 1f3d 9f9d 4f3c 99c9 b33d 076d b83d
00000060: 722e e53d d9a7 913d 2796 093e a48f be3e
00000070: 14bd 1d3d 798f ff3d 4499 ee3d a41b 263d
00000080: e980 c23c f14f 1d3d 9ded 2b3e 7b9a 783d
00000090: 7c15 dcbe cb88 793b 4700 d03d 4069 193e
000000a0: 63b6 a2be a105 95bd ee15 6bba fe1a 593e
000000b0: 3b28 41bd 8a94 4e3e 143f 4ebd a055 4f3c
000000c0: 4da6 fbbd 932c a83c ed1b 843b b9ae 4c3e
000000d0: e79c b13b 961a e33c 01d0 303e 4200 56bc
000000e0: 04dd fb3d 4b9e de3c aab5 473e 504d 7abd
000000f0: 2cb1 aebd 3c30 333e 3c53 32bd 99ae 8f3d
00000100: 3fba 873d d35e e03c 15f9 b83d be88 ddbe
00000110: 0942 003e 8e26 1c3e a4ab aebd 707a 223d
00000120: f603 39bc 5b1b d13c 5370 7e3d c319 5f3d
00000130: 8030 e0bd 3ce4 babd 1433 d53d fa2e dc3d
00000140: b879 51bc 6385 013d 2dab 063e 866c c0bc
00000150: 0bf2 e53d e114 623d 5c79 0fbd 5a51 c13d
00000160: f0a9 28bf 0237 983d ec43 3e3e 748e 77bd
00000170: d36d 9b3d 3504 52bd 50f4 4d3e 35c0 00bd
00000180: 8a9d 51bd ff80 d63d c4de 003e b4d0 d0bc
00000190: af87 0d3e 4655 08bd 82d4 a33d 1b38 0fbf
000001a0: c4e6 8a3d a7bb c73d fe81 04be 041a 6abe
000001b0: 5328 713c 3fff 9c3d 934e fabd 9a39 543c
000001c0: b31a 79be c683 3cbe 1ff6 583e 79c7 d63d
000001d0: 0e10 a5be 2b76 8ebe efaf a8bd 3a94 003e
000001e0: b550 ca3e 8e34 693d d7a4 e3bc 9071 c3bc
000001f0: 7b1a 1c3e 97e5 3b3e 1ffd 5abd 0180 42bd
00000200: c7c0 13bf c1a2 0f3e 18f4 a63e 0d5e 843e
00000210: 7b9a cb3a b915 f9be 6092 173d e146 d1bd
00000220: e41e 4d3d fe81 2a3e d332 bf3c a871 d53d
00000230: 0913 ee3e 9027 17bf 5199 b33e c57e e73d
00000240: 6807 4cbe 7034 1c3c ef01 aa3c 7f7d d93d
00000250: 581e 453c e06a 023d 49d4 d93d cdc0 a23d
00000260: 18e8 143d e44f 503d 3588 a03e 120d e3be
00000270: 55ce 09bc 2b93 a93c dc94 afbc bf08 713d
00000280: fea3 89be 8535 4abd 87ae 053e 31f3 80bd
00000290: a30b 05bf 3bba 5c3e e6e3 d93d eaac a83e
000002a0: b426 61bd fe60 c1bb 7e31 173b c2c8 813e
000002b0: e836 a7be 5d4e f9bd 7f1f 043e a437 323e
000002c0: b7fd 8abe b8d3 d73d 1015 b33d 26b1 543e
000002d0: c15b 363e b07e 47be 6972 183e 9973 18bd
000002e0: f7f8 ae3d 6dcc a23d f067 08bf 800c 08bc
000002f0: bcf8 b13c b4c3 fabe f78b 4abd ba96 74bd
00000300: 0270 6e3e 4726 9a3d 025b de3d ee0e 853e
00000310: b782 f7b9 7a6d c03d f06d 91be 6658 023d
00000320: d632 9d3d d0da e93d 526b ed3d 3b3d 7dbe
00000330: 8447 db3d 791e 963e 786b ec3d 5503 c5be
00000340: caa5 97bd 16db d93d cf52 0b3d ba7a 0a3f
00000350: c584 523e 75a9 3b3d c672 75bc 13f4 f53d
00000360: 63c3 3a3e 072c 8e3d d677 b5bd 6abd 2bbd
00000370: bb9f f63d c9db 16be 403a babe 734a dc3d
00000380: bca7 f13d 2cc9 853d 730f 33bf fe45 e6bd
00000390: 8038 2cbd 37e5 b03c 7c01 e83b 72df d53d
000003a0: 3d9f 243e 9d6c 74bd c117 48bd 53b8 0cbd
000003b0: 67c2 ddbe d15a 923e df0b 9dbd 7cae 19bd
000003c0: 5afd 693d d3a4 603d f3d5 9d3e 2b34 04be
000003d0: 6d18 4b3e 9b93 bf3c bdb4 613d e309 563d
000003e0: 680f c03d f265 c13d 05ea c6bd 83ed 85bd
000003f0: 3ed1 353b 3496 503d 3077 2b3e a73b 2b3e
0.011120395 0.04677079 0.013422538 0.049078662 -0.18389533 -0.22805656 0.098218545 -0.43394136
0.06869017 0.063618384 0.33108553 0.049775336 -0.019563252 -0.0044068187 0.046406116 0.09381633
-0.09236772 0.006265702 0.025555337 -0.08223828 0.038877014 0.012671857 0.08778686 0.0900517
0.11190499 0.071120925 0.13436185 0.37218964 0.038510397 0.12478537 0.11650327 0.040553704
0.02374311 0.038406316 0.16789861 0.0606942 -0.4298514 0.003807592 0.10156303 0.14981556
-0.31779775 -0.07276464 -0.00089678064 0.21201703 -0.047157507 0.2017385 -0.050353125 0.012654692
-0.12287579 0.020529067 0.0040316493 0.19988526 0.0054203155 0.027722638 0.17266847 -0.013061585
0.12298015 0.02717509 0.19502893 -0.061108887 -0.085298866 0.17498869 -0.04353641 0.07015724
0.066273205 0.027388966 0.090318836 -0.43268389 0.1252519 0.15249082 -0.085288316 0.039667547
-0.011292448 0.02552574 0.06211884 0.054467928 -0.10946751 -0.091255635 0.10410133 0.107511476
-0.012785368 0.031621348 0.13151236 -0.023489248 0.11227807 0.055195693 -0.035027847 0.09439345
-0.65884304 0.07432367 0.18580598 -0.06043859 0.07589307 -0.051273543 0.20112729 -0.031433303
-0.05117563 0.10473823 0.12584978 -0.025490142 0.1382129 -0.033284448 0.07999517 -0.55944985
0.06782296 0.09752589 -0.12940213 -0.22861487 0.014719087 0.07665872 -0.12222018 0.012953186
-0.24326591 -0.18409643 0.21187638 0.10487265 -0.3223881 -0.2782453 -0.08236682 0.12556544
0.395147 0.056934886 -0.027788563 -0.023857862 0.15244476 0.183493 -0.05346405 -0.047485355
-0.5771603 0.1402693 0.32608104 0.25853005 0.001553371 -0.48649386 0.03700483 -0.10218597
0.050078288 0.1665115 0.023339665 0.10422069 0.46498898 -0.5904474 0.3507791 0.11303476
-0.199247 0.009533986 0.020752875 0.106196396 0.01203116 0.031840205 0.10636193 0.0794693
0.036354154 0.05085744 0.31353918 -0.4434591 -0.00841101 0.020700058 -0.021433286 0.05884623
-0.2688293 -0.049367446 0.13054858 -0.06296385 -0.5197088 0.21555416 0.10639171 0.32944423
-0.05496855 -0.005901455 0.002307027 0.2534848 -0.32659078 -0.1217315 0.1290264 0.17404038
-0.27146694 0.10538429 0.08744252 0.20770702 0.17808439 -0.19481921 0.14887394 -0.037219618
0.0854358 0.079491474 -0.53283596 -0.0083037615 0.021725051 -0.48977435 -0.049449887 -0.059714057
0.23284915 0.07526832 0.10857202 0.25987953 -0.000472089 0.09395881 -0.28404188 0.031822585
0.07675712 0.11418688 0.11592735 -0.24730389 0.10707 0.29320124 0.115439355 -0.38479105
-0.07404669 0.106374905 0.03401452 0.54093516 0.2055846 0.045815904 -0.014980977 0.12009444
0.18238597 0.06941991 -0.088607475 -0.041928686 0.12042185 -0.14732279 -0.36372566 0.107563876
0.11799571 0.06532511 -0.6994545 -0.11243819 -0.04204607 0.021593673 0.007080255 0.104430094
0.1607637 -0.059673894 -0.04885078 -0.034355473 -0.4331238 0.28584912 -0.0766828 -0.037519917
0.05712638 0.05484469 0.30827293 -0.12910526 0.19833536 0.023385813 0.055104006 0.052255522
0.093779385 0.09443273 -0.097126044 -0.065394424 0.0027743126 0.050924495 0.16744685 0.16721974

fc2.bias f4 [256]
00000000: cffc 283e 2f0e 2bbc 9e21 ba3d a3ad 233e
00000010: ac01 08be 38b8 4b3e 3960 40bc f92e 963c
00000020: 2055 a5bd 07d2 f2bd f5b4 293e 6c2b 533e
00000030: 9921 073e 6d9f 003e 3505 163e 296a fdbc
00000040: 2990 083d 6864 27bd d3d4 a93d a832 113d
00000050: 9111 a7bd 0765 3f3e cd3c d2bc 7a08 eabc
00000060: 6866 123d dea9 0ebd 0b25 1b3e 2fa3 1bbd
00000070: bb46 d63d df06 373e d426 15bd 18ba 703b
00000080: b8df 8a3d 8bec 60bd ba3f f5bd d985 03be
00000090: 60dc d4bc d28b f6bc 2278 66bd 3c1f 88bd
000000a0: cf47 063c 17bf 89bd 0450 133e a4bc 14bd
000000b0: ac1b 63bd c6bc 133e 7e7d 88bd 8d11 fe3d
000000c0: 535b cd3d d6c4 08bd a577 20bd 7927 7ebd
000000d0: 20c2 09bd a0da 213b 844c 1dbd 715b 36bd
000000e0: fd58 273e d97b 2dbd dc8f b7bd 0a4a a6bd
000000f0: a0cc 283e 28dc 5bbd 1432 003e 66e9 1cbd
00000100: c045 363e d7f4 813d 98d7 79bd 989b 48bc
00000110: f983 e7bc 0fa1 27bd 1e72 153e b6c8 12be
00000120: 30ad 3b3d ac29 e93a 8a70 dc3d a8dc 89bc
00000130: 2c3d 2a3e 8298 57bd 4e54 853b b654 aebd
00000140: 0efa 3e3e 600b 7dbc 564f 2a3e 8fca 293e
00000150: 246a d33d 6071 c4bd 2ac9 373e e2db af3d
00000160: eb10 fc3b 6db3 dd3d 66eb 113e c62f 0e3d
00000170: 4312 4a3e 5611 1abd 9c30 79bd b44e e2bd
00000180: 4756 0ebd e248 00bd cd42 7abd c173 09bd
00000190: 16aa bbbc edfe 503c f90b 173e 9609 c03d
000001a0: 54ed 4fbd 1d91 433d 963b 36bd 3a01 293e
000001b0: 3c19 65bd cb5a a33d f86c 63bd 1ad7 c63c
000001c0: c920 4d3d 88b1 383c 8e11 f1ba b41e 603d
000001d0: 93c2 1abc a2c9 d93c d6d6 273d 3f88 1c3e
000001e0: 60f7 523e 733b 5abc 8185 72bd 537e 30bd
000001f0: eb4d bcbd a569 2c3c 4bbf dabd 4dad bfbb
00000200: 8ac1 09bd a42e d0bd 287e 273e 3876 103e
00000210: d5dc c5bb f5d1 8abc 7817 243e 8b36 a33d
00000220: 08d5 2abd 7f98 463d a5b5 e0bc a7f6 303e
00000230: 57f6 43bd 0ab8 ddbd a567 643d 1eb5 19bd
00000240: fe6e b53c 5cb9 4a3d 6efc e8bc e882 433c
00000250: 1baf a13c ff9b b7bd 6de8 15bd 3695 c03b
00000260: 262f 26bd e96c cabd 7d38 123e 1101 d7bc
00000270: 1501 8dbd 547d ac3c 3e52 9cbd b375 e43d
00000280: 379b 703c e09a afbb 2f93 72bd c171 313e
00000290: 7fba d9bd 7ab5 b4bd 2232 f53d 3deb 493e
000002a0: a62d 203e 1c30 343e 94b2 283e 57e5 d7bb
000002b0: 8d16 cf3d e8ea 203e 5172 7fbd 08e6 d63b
000002c0: 0307 a13d 9ea6 553e a613 11bd 1600 1dbd
000002d0: bb3b 353c 04f7 0b3e 5b0a 013e c0ed 883c
000002e0: 2224 813c 70c7 68bc 2ab5 dcbd a005 67bc
000002f0: 5c0b 293e 10b9 45bd 769d 1a3e 9b45 003e
00000300: 94fc f0bc 01a6 243e 208f 6f3c 24f4 6ebd
00000310: ddd9 b4bd 544d 5ebd b217 35bd f096 08bc
00000320: f0a6 a6bd aff0 51bd 7c04 893c 16ae 66bd
00000330: 9c92 093e 2434 cf3c 5a84 cebd 2010 a1bb
00000340: 42e8 61bd d50b 05bd 137c 153e 19c9 52bd
00000350: 2363 f0bd 2add d9bc 0ee0 343d 6acb 6dbd
00000360: 94b6 463e 01cd 02bd 1ba3 de3a 9462 3a3d
00000370: c2a7 6fbc c205 c7bc 36c8 d93d 90e1 7cbd
00000380: 66db 9cbb a773 3b3e a7e8 7fbd 3be1 033b
00000390: a27e c1bc 479c 2a3c 6c8c 18ba 1935 593d
000003a0: 1385 8fbd 9b47 1f3e 593a 483b 9023 6ebd
000003b0: d23e 98bd e891 0ebd 6c9f edbc e17f 25be
000003c0: 380f 283d 6150 c3bc 196a 0e3c 36f8 583e
000003d0: 0c03 94bd a0c1 c8bc 27c8 8b3b 3f57 673e
000003e0: a94b 673e dbe1 03be f6d3 6abb 6b85 14be
000003f0: e5d2 85bd 5a84 953d 4b76 103d db83 e5bc
0.16502689 -0.010440393 0.09088443 0.15984206 -0.13281888 0.19894493 -0.011741691 0.018332945
-0.08072877 -0.11856466 0.16572936 0.20622033 0.1319641 0.12560816 0.14650424 -0.03093441
0.033340607 -0.04086724 0.08292546 0.0354487 -0.081576474 0.18690883 -0.025663758 -0.028568495
0.035742193 -0.034829967 0.1515085 -0.03799742 0.104627095 0.17873715 -0.036413983 0.0036732014
0.06780952 -0.054913085 -0.119750455 -0.12844028 -0.02598399 -0.030095968 -0.05626691 -0.066465825
0.008195831 -0.067259006 0.14385992 -0.036312714 -0.05544631 0.1442748 -0.06664561 0.12405691
0.10027184 -0.033390842 -0.039176602 -0.062049363 -0.033632398 0.002469696 -0.03840305 -0.0445208
0.1634254 -0.04235444 -0.08962986 -0.081195906 0.16484308 -0.053676754 0.12519103 -0.038308524
0.17800045 0.063455276 -0.06099662 -0.012244128 -0.028261172 -0.04092508 0.14594314 -0.14334378
0.04581946 0.0017788908 0.107636526 -0.01682885 0.16624898 -0.052635677 0.004068888 -0.08512251
0.18650076 -0.015444607 0.16631827 0.16581176 0.10322979 -0.09591937 0.17947832 0.08586861
0.0076924465 0.108252384 0.14249954 0.03471353 0.19733529 -0.03761419 -0.060837373 -0.11050168
-0.03475025 -0.031319506 -0.061098862 -0.033557657 -0.022908252 0.012756092 0.14750661 0.09376828
-0.050763443 0.047745813 -0.04449042 0.16504374 -0.05593227 0.07976302 -0.055523843 0.02427249
0.050080094 0.0112727955 -0.0018392073 0.05471678 -0.009445804 0.026585404 0.040976368 0.15286349
0.20602179 -0.013319838 -0.05920935 -0.043089222 -0.09194549 0.0105232345 -0.106810175 -0.0058495165
-0.03363184 -0.10165146 0.16356719 0.14107597 -0.006038288 -0.016945818 0.16024578 0.079693876
-0.04170707 0.048485275 -0.027430365 0.1728159 -0.04784235 -0.10826118 0.055762906 -0.037526242
0.022147652 0.04949318 -0.02844068 0.011933066 0.019736817 -0.08965301 -0.03659861 0.0058771623
-0.040572308 -0.09884054 0.14279361 -0.026245626 -0.06884972 0.021055855 -0.07632874 0.11155262
0.014685444 -0.0053590387 -0.059222396 0.1732855 -0.106312744 -0.088236764 0.11972453 0.19718643
0.15642413 0.17596477 0.16474372 -0.0065886187 0.10111723 0.1571461 -0.06236488 0.0065581836
0.078626655 0.2086434 -0.03541913 -0.03833016 0.011061604 0.13668448 0.12601607 0.01671493
0.0157643 -0.014207706 -0.10776742 -0.014100462 0.1650824 -0.048272192 0.15099129 0.12526552
-0.029417314 0.1607895 0.014621526 -0.0583383 -0.088306166 -0.054272965 -0.04421205 -0.008336768
-0.081373096 -0.051254924 0.016725771 -0.056318365 0.13434833 0.025293417 -0.10083838 -0.0049152523
-0.05515314 -0.032481987 0.14598112 -0.051461313 -0.11737659 -0.026594717 0.044158988 -0.05805532
0.19405586 -0.03193379 0.0016985865 0.045504168 -0.014627399 -0.024294738 0.1063389 -0.06173855
-0.0047868965 0.18305837 -0.062477734 0.0020123261 -0.023619954 0.010413236 -0.00058192643 0.053029153
-0.07007804 0.15554659 0.0030552356 -0.058139384 -0.07433857 -0.034807116 -0.029006682 -0.16162063
0.04103014 -0.023842039 0.008692288 0.21188435 -0.07227144 -0.02450639 0.0042658034 0.22591875
0.22587456 -0.12879126 -0.0035831905 -0.1450402 -0.065343656 0.07300635 0.035269063 -0.028016975

fc3.weight f4 [2, 256]
00000000: 40cf 90be 1568 6b3e 7643 cc3e 1aca 6dbe
00000010: 2d22 42be 2a7e fc3e 6973 c03e ccd6 0f3d
00000020: c2a8 65be a441 c6be 36a1 f23e 680f 023f
00000030: 1624 e43e 54a5 1f3e 2b3a 80be 2021 efbe
00000040: 14fc 80be 4fa8 21bc 828c 45be 8ccf 9cbc
00000050: e65c 4abe bf18 7d3e a4d6 b3be 9496 55be
00000060: 8423 74be bcff f3be 1889 81be a7c1 013d
00000070: 3ebc 85be d8c6 e23e ff24 3ebe ba79 92be
00000080: 9101 843d c334 36be 137a 1cbe 716d ba3b
00000090: 647b 123d 402d 40bd d005 37bc f180 87be
000000a0: c785 c0bb e13f c23c 0f33 ec3e 6f90 333d
000000b0: 81b6 093f b3c6 81be acd7 f2be 1908 0a3f
000000c0: 64d0 0dbe c52e 43be 6027 533d a1c2 49be
000000d0: b090 c0bb a6d7 1c3d 4652 e4be 0610 73be
000000e0: 20ee 0a3f d6a9 343c c43c adbe 4ba4 debe
000000f0: 7f21 cc3e c96c 0ebe b824 043f 0082 3f3c
00000100: 49a7 fe3e 7f0a 76be fbb1 bf3c 00ce 8bbb
00000110: 9adc ccbe 504d 2f3d b281 97be 9f7e 59be
00000120: da59 163d 7092 29be f0ae 5abe c6cb 17bd
00000130: e6b5 e33e c0d3 babe f0b9 4cbe da0e 5fbe
00000140: 7804 fb3e 9cce 60bd 8695 c33e 1336 04be
00000150: 1159 e83e dab1 dbbe 5318 e23e 4658 063d
00000160: cf42 b53c fa88 91be 9f65 e93e 3c65 45be
00000170: 5f7a d43e d017 073c f6aa f5bc 70a3 80be
00000180: a4b2 54be 8d69 7dbe 6840 cbbe 103a ccbb
00000190: 9745 6abe 4268 00bd 777a 3d3e 776f 80bd
000001a0: 8c8f 753d d7fb 33bd 9eea 5a3d 3ba5 f13e
000001b0: fd9b 6a3e 7654 82be 1a4c d43e e763 d2bd
000001c0: b1eb 0abf 5e49 0abd a59b 3f3d d224 6f3d
000001d0: 0c30 bcbe ec69 85be 8d65 80be 0d3f f83e
000001e0: 2d86 d13e b390 30be 8d7a 053d d0a1 8abe
000001f0: afdf 44be 6e51 a83e 5d73 93be 206a 28be
00000200: 2083 7fbb 0116 96be 2483 573c 25fc 033f
00000210: aff7 49be dba1 38be 9000 3fbc 4316 e9bd
00000220: 97ce 1fbe 0691 73be d896 d03c fec2 f13e
00000230: 77d5 033d e630 a33e 76f3 483d ce8f c03c
00000240: 4752 d3bd c659 d33e b031 1a3d 34b2 57be
00000250: 70bd 3fbe 732f 3fbe e6d1 84be af18 553d
00000260: c0c6 7abe 2c1b 8abe cafa fd3e 18f1 04bf
00000270: 60e1 bbbe 2d90 05be e389 8fbe 944e ad3e
00000280: b72d 27be 4aa9 45bd 6ec2 aabe 7786 fa3e
00000290: f404 81be ac4a 05bf d887 89be 6e8f b83d
000002a0: 940b fd3e 99bb fa3e ca17 d73e bf8b 6b3e
000002b0: 7945 ad3d 91b2 ea3e 00dc 44be 7a82 c6be
000002c0: a566 9cbe cbaa 9a3e 58fa af3c 546e a53c
000002d0: 182e a2be c677 39bd b135 f93e de61 2e3d
000002e0: d91a a83c 6adc 153d 2add f8be d0c4 3dbe
000002f0: 7410 ed3e a6e5 77be 795d 89be 062e 9e3e
00000300: f0b2 5f3d 2d2a e53e 0236 2ebd 5649 5a3d
00000310: 55f5 4dbe fe3c a2be 74b7 563d cefa e0be
00000320: 976c e3be 26fd 28be d626 51be 1916 d4be
00000330: e206 623e cae8 163d 1ba1 acbe ca12 53bd
00000340: 32c6 c3be a548 9cbe def4 c3bc 75c6 0dbe
00000350: b2f6 febc 91de b03c a0da e53c 5704 a4be
00000360: 2693 ea3e 6dd9 70be fe6f 09bf 406e 3c3c
00000370: b54e 973c ac11 ac3c 0086 7ebd 1689 93be
00000380: 07a2 acbe 916f 063f 3168 4fbe ff2e 2dbe
00000390: 4c09 6abe 85d4 80be 78f7 79be 0b59 afbb
000003a0: 0d0c ad3e ba1f f93e 6bdc c5be 4460 36be
000003b0: bef7 68bd 0031 bc39 00da 61bb 8cd7 92be
000003c0: c76a 80be 54e1 a0be 5341 ee3c 157c ec3e
000003d0: cfe7 c7be 9a16 013d 60ec 1cbe ef24 ca3e
000003e0: 07be da3e 0c14 64bd edb3 26be c147 d7bd
000003f0: a181 3cbe bca7 e53e 5b3a 80be 8a20 643d
-0.2828312 0.22988923 0.3989522 -0.23221627 -0.1895835 0.49315006 0.3758805 0.035116956
-0.22427657 -0.38721955 0.4738862 0.5080476 0.4455878 0.15590411 -0.2504438 -0.4670496
-0.2519232 -0.009866788 -0.1929188 -0.019141935 -0.19762 0.24716471 -0.35124695 -0.20858222
-0.23841673 -0.47656047 -0.25299907 0.031678822 -0.2612018 0.4429233 -0.185688 -0.28608495
0.06445611 -0.17793564 -0.15280943 0.005689316 0.035762206 -0.046918154 -0.011170819 -0.26465562
-0.0058753225 0.0237121 0.46132705 0.043838914 0.53794104 -0.25346908 -0.4743017 0.53918606
-0.13849026 -0.1906081 0.051551223 -0.19703151 -0.005876623 0.038291596 -0.4459402 -0.23736581
0.542696 0.01102682 -0.33835423 -0.4348472 0.39869305 -0.13908686 0.5161853 0.011688709
0.49737003 -0.24027441 0.023400297 -0.0042665005 -0.40012056 0.04279834 -0.29591137 -0.21239708
0.036706783 -0.16559768 -0.21355796 -0.037059568 0.44474715 -0.36489677 -0.19992805 -0.21783009
0.49026847 -0.054884538 0.38200015 -0.12911253 0.45380452 -0.42909127 0.44159183 0.032799028
0.022126583 -0.28424817 0.45585343 -0.19276899 0.41499612 0.008245423 -0.029988747 -0.25124693
-0.20771271 -0.24747296 -0.39697576 -0.0062325075 -0.22878109 -0.031349428 0.18503748 -0.0627126
0.05995135 -0.043941345 0.053446405 0.47196373 0.22911067 -0.25455064 0.4146431 -0.10272961
-0.54265887 -0.033761375 0.046779294 0.058384724 -0.36755407 -0.26057374 -0.25077477 0.48485604
0.4092268 -0.17242698 0.032587577 -0.27076578 -0.19225954 0.32874626 -0.28798953 -0.16446733
-0.0038988069 -0.29313663 0.013153825 0.5155662 -0.1972339 -0.18030493 -0.011657849 -0.11381199
-0.15606152 -0.23785791 0.025462553 0.4721908 0.032185998 0.31873244 0.049060307 0.023506071
-0.103184275 0.4127943 0.037645042 -0.21064073 -0.18724608 -0.18670444 -0.2594139 0.052025493
-0.2448988 -0.26973855 0.496054 -0.5193038 -0.36695385 -0.1304328 -0.28034887 0.33849013
-0.16326033 -0.04825715 -0.33351463 0.48930714 -0.2519909 -0.52067065 -0.26861453 0.09011732
0.49422896 0.4897125 0.42010337 0.23002528 0.084605165 0.4583936 -0.19224548 -0.3877142
-0.30547062 0.3020843 0.021481678 0.02019421 -0.31675792 -0.04528024 0.48673776 0.042573802
0.020520614 0.036587156 -0.48606235 -0.1853211 0.46301615 -0.24208698 -0.26829126 0.30894488
0.054614007 0.4475874 -0.042531975 0.053292595 -0.20113118 -0.31687158 0.05242105 -0.4394135
-0.44418785 -0.16502818 -0.20424971 -0.4142311 0.22072938 0.0368431 -0.33716664 -0.05153159
-0.3823715 -0.30524173 -0.023920473 -0.13845237 -0.031123493 0.021590503 0.02805835 -0.3203456
0.4581539 -0.23520441 -0.5368651 0.011500895 0.018470148 0.02100452 -0.06213951 -0.28815526
-0.33717367 0.52513987 -0.2025459 -0.16912459 -0.22855109 -0.2516214 -0.24410808 -0.005351191
0.33798257 0.48657018 -0.38644728 -0.1781016 -0.05687689 0.00035894662 -0.0034462214 -0.28680074
-0.25081465 -0.31421912 0.029083883 0.46188417 -0.39044043 0.031515695 -0.15324545 0.39481303
0.42723104 -0.05568318 -0.16279574 -0.10511733 -0.18408825 0.44854534 -0.25044522 0.055695094

fc3.bias f4 [2]
00000000: 0730 8f3d c45d 09bc
0.06991582 -0.008384172
